visualizations/best_model_mean.pth (torch, 101451 bytes, 16 tensors)

embedding.atom_embedding_list.0.weight f4 [119, 64]
0	0xb47a4354	-2.3307558e-07
1	0xb408339c	-1.2684762e-07
2	0x3c1fc2d2	0.009751039
3	0x3b471efc	0.0030383458
4	0xbb84785a	-0.0040426673
5	0x3a910c34	0.0011066259
6	0xb738e7a0	-1.1021184e-05
7	0x322e062a	1.01295345e-08
8	0x3b361921	0.0027785974
9	0x3bc7f05e	0.006101652
10	0xb97b5d17	-0.00023971904
11	0xb7db52cf	-2.6145395e-05
12	0x38c08fe4	9.182075e-05
13	0x3b2bd745	0.002622084
14	0xb30aee4c	-3.234736e-08
15	0xbb0c8014	-0.0021438645
16	0xbaf478fb	-0.0018651778
17	0xbaa052c8	-0.0012231702
18	0xba82b4ec	-0.0009972132
19	0xb2325ed8	-1.0382529e-08
20	0xb3c59f2f	-9.202483e-08
21	0xbbaa587d	-0.005198537
22	0x3c1374fa	0.009000057
23	0xbbe36b6f	-0.0069402973
24	0x3a897962	0.0010488445
25	0xbba24472	-0.004952007
26	0x333ea7dc	4.439049e-08
27	0x3b1b9126	0.0023737638
28	0x3a12cf66	0.0005600363
29	0xbb232241	-0.0024892243
30	0x3bfca818	0.007710468
31	0xb311c62d	-3.3940683e-08
32	0x3a32e423	0.0006824156
33	0xb41ec1f0	-1.4785451e-07
34	0x369b83a1	4.6346836e-06
35	0x3b2a64ce	0.0026000026
36	0xb8c0bd5b	-9.190544e-05
37	0x3a374e74	0.00069925864
38	0xb955332f	-0.0002033233
39	0xb7d75b96	-2.5672645e-05
40	0x39a96ee5	0.00032316815
41	0x39c5e4ff	0.00037745383
42	0x3b877f90	0.0041350797
43	0x3b8534c1	0.0040651266
44	0x33a225b9	7.5505746e-08
45	0xbbc2514e	-0.0059301024
46	0x390d9380	0.00013501756
47	0xb3010826	-3.0042564e-08
48	0xb9c45b57	-0.00037452087
49	0xba1cb902	-0.0005978496
50	0x39477f5a	0.00019025561
51	0xb9672fb6	-0.0002204765
52	0xba220c44	-0.0006181637
53	0x3a432eec	0.00074456516
54	0xb8f9b752	-0.00011907391
55	0xba523e3c	-0.0008020138
56	0xbad985b5	-0.0016595634
57	0xbbfc71fe	-0.0077040186
58	0x3aa9f934	0.0012967945
59	0x3a0d5d16	0.0005392594
60	0xb94c69e4	-0.00019494403
61	0xbb7dbe48	-0.0038718153
62	0xbbd34b5c	-0.0064481925
63	0xbac9706a	-0.0015368585
64	0x8005948c	-5.12466e-40
65	0x80055f07	-4.93267e-40
66	0x000566f1	4.96106e-40
67	0x8005598b	-4.913e-40
68	0x80056f83	-4.9918e-40
69	0x80057494	-5.00998e-40
70	0x80056877	-4.96652e-40
71	0x80055d7f	-4.92718e-40
72	0x8005a269	-5.17439e-40
73	0x00057628	5.01564e-40
74	0x00056255	4.94452e-40
75	0x0005775c	5.01996e-40
76	0x800670d7	-5.91492e-40
77	0x000576ca	5.01791e-40
78	0x800569a0	-4.97069e-40
79	0x80063409	-5.6968e-40
80	0x8005986b	-5.13855e-40
81	0x000557ad	4.9063e-40
82	0x00056f8d	4.99194e-40
83	0x00058026	5.05148e-40
84	0x80056a79	-4.97373e-40
85	0x800562b7	-4.9459e-40
86	0x80056ef7	-4.98984e-40
87	0x80069b5e	-6.06748e-40
88	0x8005969a	-5.13203e-40
89	0x0005c625	5.30258e-40
90	0x0005d52a	5.35646e-40
91	0x00059703	5.1335e-40
92	0x800559cc	-4.9139e-40
93	0x80065fe9	-5.85419e-40
94	0x8005a450	-5.18122e-40
95	0x8005719d	-4.99934e-40
96	0x8005633d	-4.94777e-40
97	0x80057ab2	-5.03192e-40
98	0x80059949	-5.14166e-40
99	0x000586f9	5.07597e-40
100	0x8005c53a	-5.29929e-40
101	0x000587a0	5.0783e-40
102	0x0005656b	4.9556e-40
103	0x00056b08	4.97573e-40
104	0x00056de0	4.98593e-40
105	0x800644f7	-5.75753e-40
106	0x80057f82	-5.04919e-40
107	0x80059589	-5.1282e-40
108	0x80055a26	-4.91517e-40
109	0x800569e5	-4.97165e-40
110	0x800570f8	-4.99703e-40
111	0x800580a9	-5.05332e-40
112	0x80055be2	-4.92139e-40
113	0x80058fc1	-5.10747e-40
114	0x800574a0	-5.01015e-40
115	0x000566cc	4.96054e-40
116	0x800561b8	-4.94232e-40
117	0x0005839e	5.06393e-40
118	0x0005b576	5.24273e-40
119	0x800594c8	-5.1255e-40
120	0x00057371	5.0059e-40
121	0x8005a50c	-5.18385e-40
122	0x80055d71	-4.92698e-40
123	0x8005c904	-5.31288e-40
124	0x00058d45	5.09855e-40
125	0x0005624c	4.9444e-40
126	0x80056d34	-4.98352e-40
127	0x80058ad3	-5.08978e-40
128	0x3cbcae7b	0.023032418
129	0xbe4e6758	-0.2015661
130	0xbeee431e	-0.4653558
131	0xbd883f1d	-0.06652663
132	0x3e90290b	0.28156313
133	0xbdb76a05	-0.089557685
134	0x3d1bedb7	0.0380685
135	0xbe367f06	-0.17821893
136	0x3e0c1feb	0.1368405
137	0xbeba8731	-0.36431268
138	0xbd9c8be1	-0.07643867
139	0x3e13c9c3	0.14432435
140	0x3e0018bb	0.12509434
141	0xbe9ab48b	-0.30215868
142	0x3bb1d403	0.005426885
143	0xbdb164a5	-0.086617745
144	0x3ed09c7a	0.40744382
145	0x3e9782b9	0.2959192
146	0x3e5b47e5	0.21414144
147	0x3e25943e	0.16169831
148	0x3dd5af14	0.10433784
149	0x3e59b329	0.2125975
150	0xbf06c4d3	-0.5264408
151	0x3ecae55f	0.3962812
152	0xbca45a20	-0.020062506
153	0x3eb9e5bd	0.3630809
154	0xbdbc91b2	-0.09207477
155	0xbde36d63	-0.11104848
156	0x3dfe6c30	0.12422979
157	0x3e8c9c48	0.27462983
158	0xbeee2cff	-0.46518704
159	0xbdd8df2b	-0.10589441
160	0xbead493c	-0.33844936
161	0xbd14b6bb	-0.036307078
162	0x3e3aa2f2	0.18226221
163	0xbe563ca0	-0.20921564
164	0xbd4e72b1	-0.050402347
165	0xbe1e1da8	-0.15441
166	0x3e13a32f	0.14417718
167	0xbcb0e8ff	-0.021595476
168	0xbe8b3d12	-0.2719503
169	0x3bab5f84	0.005229892
170	0xbecf0a35	-0.40437475
171	0xbdeeb213	-0.11655059
172	0x3c93c4a9	0.01803811
173	0x3e5cff37	0.21581732
174	0xbe9be8c7	-0.30451033
175	0xbd11ae35	-0.035566527
176	0x3e3a57bd	0.18197532
177	0x3d44675f	0.047950145
178	0xbe2fff49	-0.17187227
179	0x3e83c918	0.2573936
180	0x3e3148bb	0.173129
181	0xbde9976b	-0.11405834
182	0x3e2cc5c1	0.16872312
183	0x3dc44ffe	0.0958557
184	0x3de84cc1	0.11342765
185	0x3e709e8d	0.23497982
186	0xbe7fe036	-0.24987873
187	0x3d2d5fbe	0.042327635
188	0x3db1604e	0.08660947
189	0x3e3c290d	0.18375035
190	0x3ee98851	0.45611814
191	0x3eaf9763	0.34295186
192	0x0005f5c8	5.47347e-40
193	0x00056304	4.94698e-40
194	0x800558ca	-4.91029e-40
195	0x00055956	4.91225e-40
196	0x00055e64	4.93038e-40
197	0x80057d30	-5.04086e-40
198	0x00057172	4.99874e-40
199	0x00059d0e	5.15518e-40
200	0x00056f53	4.99113e-40
201	0x80056bae	-4.97806e-40
202	0x8005668f	-4.95969e-40
203	0x0006695a	5.88806e-40
204	0x00056516	4.9544e-40
205	0x000591a7	5.11428e-40
206	0x0005598b	4.913e-40
207	0x800558fa	-4.91096e-40
208	0x800585e2	-5.07206e-40
209	0x00057748	5.01968e-40
210	0x00056af0	4.9754e-40
211	0x0005582f	4.90812e-40
212	0x000564f8	4.95398e-40
213	0x80057433	-5.00862e-40
214	0x8005714d	-4.99822e-40
215	0x80057229	-5.0013e-40
216	0x00055aca	4.91746e-40
217	0x00055748	4.90488e-40
218	0x00057c17	5.03693e-40
219	0x00056582	4.95592e-40
220	0x00059a5c	5.14551e-40
221	0x00057b3c	5.03386e-40
222	0x00056e06	4.98646e-40
223	0x80055e3c	-4.92982e-40
224	0x00056498	4.95264e-40
225	0x00056b21	4.97608e-40
226	0x00059e20	5.15902e-40
227	0x80055b52	-4.91937e-40
228	0x80055cf7	-4.92527e-40
229	0x800599df	-5.14376e-40
230	0x00056747	4.96226e-40
231	0x80056562	-4.95547e-40
232	0x00056551	4.95523e-40
233	0x8005797f	-5.02762e-40
234	0x0006727e	5.92085e-40
235	0x00056b5b	4.9769e-40
236	0x0005660f	4.95789e-40
237	0x80057ea8	-5.04613e-40
238	0x000565bf	4.95677e-40
239	0x80055989	-4.91297e-40
240	0x800557f9	-4.90736e-40
241	0x8005d51e	-5.3563e-40
242	0x8005dbac	-5.37981e-40
243	0x80056e60	-4.98773e-40
244	0x0005a998	5.20016e-40
245	0x800557cf	-4.90677e-40
246	0x000564dc	4.95359e-40
247	0x80055f5a	-4.93383e-40
248	0x80064e9f	-5.79217e-40
249	0x00058460	5.06665e-40
250	0x000576d8	5.0181e-40
251	0x00055d28	4.92596e-40
252	0x80056a03	-4.97207e-40
253	0x800573df	-5.00744e-40
254	0x800574a0	-5.01015e-40
255	0x800569cb	-4.97129e-40

embedding.atom_embedding_list.1.weight f4 [5, 64]
0	0xbb03df97	-0.0020122284
1	0x3e418a57	0.18900429
2	0x3d6d0455	0.05786546
3	0x3e33a113	0.17541914
4	0x3ddd5a1f	0.10808205
5	0xbbad252b	-0.005283972
6	0x3e5819e5	0.21103628
7	0x3d8e75d4	0.06956068
8	0xbea1e6a6	-0.31621283
9	0x3cbd2108	0.02308704
10	0x3d9b0b5e	0.075705275
11	0x3dd0a7d9	0.101882644
12	0x3e2a8814	0.16653472
13	0x3e2d1a82	0.16904643
14	0xbd90a261	-0.07062221
15	0x3d6a9062	0.0572666
16	0x3da93f0f	0.082639806
17	0x3df34596	0.11878507
18	0x3e0110b8	0.12604034
19	0x3b1e7786	0.0024180128
20	0xbbf719f3	-0.007540935
21	0xbe61fd59	-0.220693
22	0xbe78517e	-0.24249837
23	0xbd76e739	-0.060279105
24	0x3e30d6a5	0.1726938
25	0xbc1d9432	-0.009617852
26	0xbd8643af	-0.06555878
27	0x3e51042e	0.2041175
28	0xbd2c3f60	-0.042052627
29	0x3cee452f	0.029085724
30	0x3d650e33	0.055921745
31	0x3e7170f8	0.2357825
32	0xbbf68d91	-0.0075242002
33	0x3ce39313	0.027780091
34	0x3ddb0057	0.10693424
35	0xbcbcb1d5	-0.023034016
36	0x3e54a6f7	0.20766817
37	0x3e569349	0.20954622
38	0xbd49a2a9	-0.04922739
39	0xbdf50a1c	-0.11964819
40	0xbd1a7a3a	-0.03771422
41	0x3e48b5e9	0.19600643
42	0xbe444957	-0.19168602
43	0x3d7ccffd	0.06172179
44	0x3e035a23	0.12827353
45	0x3e0f46e1	0.13991882
46	0xbe3c005a	-0.18359509
47	0x3e0b3bf3	0.13597088
48	0x3d3d5fd3	0.046233963
49	0xbcbdaa89	-0.023152607
50	0xbe4b751d	-0.19868894
51	0x3d5afdcb	0.053464692
52	0x3e2fb7be	0.17159936
53	0x3e79b090	0.2438376
54	0x3dba69e8	0.09102231
55	0x3e7729b8	0.24137008
56	0x3e594f52	0.21221665
57	0x3d92f998	0.071765125
58	0xbdaae34b	-0.08344134
59	0x3dee7c64	0.116448194
60	0x3e73744d	0.23774834
61	0xbe11c2c4	-0.14234453
62	0xbdfa75de	-0.12229513
63	0xbccfa4d9	-0.02534716
64	0x800563bd	-4.94957e-40
65	0x00055c69	4.92328e-40
66	0x80057310	-5.00454e-40
67	0x800679be	-5.94686e-40
68	0x80056c21	-4.97967e-40
69	0x80056029	-4.93673e-40
70	0x80056be7	-4.97886e-40
71	0x800564c8	-4.95331e-40
72	0x000558a5	4.90977e-40
73	0x80056656	-4.95889e-40
74	0x800565be	-4.95676e-40
75	0x00055a08	4.91475e-40
76	0x0005748c	5.00987e-40
77	0x00055f8f	4.93457e-40
78	0x000568d8	4.96788e-40
79	0x00055f4e	4.93366e-40
80	0x00059002	5.10838e-40
81	0x00056ab0	4.9745e-40
82	0x00055f15	4.93286e-40
83	0x80056d45	-4.98376e-40
84	0x80062594	-5.64493e-40
85	0x00056077	4.93783e-40
86	0x00057c43	5.03754e-40
87	0x00056a69	4.9735e-40
88	0x8005737b	-5.00604e-40
89	0x00055bf8	4.9217e-40
90	0x000557b4	4.9064e-40
91	0x00056642	4.9586e-40
92	0x00057667	5.01652e-40
93	0x00056a63	4.97342e-40
94	0x00056b7a	4.97733e-40
95	0x80055f9d	-4.93477e-40
96	0x80056c47	-4.9802e-40
97	0x00055f4e	4.93366e-40
98	0x8005e587	-5.41516e-40
99	0x000585ed	5.07221e-40
100	0x8006308b	-5.68427e-40
101	0x00055e59	4.93023e-40
102	0x000561c8	4.94255e-40
103	0x00055b52	4.91937e-40
104	0x8005580c	-4.90763e-40
105	0x8005782b	-5.02286e-40
106	0x80055d31	-4.92608e-40
107	0x00068f84	6.02497e-40
108	0x000563b0	4.94939e-40
109	0x80055af7	-4.9181e-40
110	0x80055741	-4.90478e-40
111	0x0005662d	4.95831e-40
112	0x00056cac	4.98162e-40
113	0x80055a8e	-4.91662e-40
114	0x00059bb2	5.1503e-40
115	0x00055dd1	4.92832e-40
116	0x80055737	-4.90464e-40
117	0x000561fd	4.94329e-40
118	0x000575dc	5.01457e-40
119	0x00056609	4.95781e-40
120	0x800566b5	-4.96022e-40
121	0x0005739c	5.0065e-40
122	0x00056340	4.94782e-40
123	0x0005680a	4.965e-40
124	0x80056710	-4.9615e-40
125	0x8006a3cf	-6.09776e-40
126	0x80056b48	-4.97663e-40
127	0x00057101	4.99716e-40
128	0x80059a33	-5.14494e-40
129	0x8005c9ba	-5.31543e-40
130	0x8005628e	-4.94532e-40
131	0x000570d9	4.9966e-40
132	0x80056174	-4.94137e-40
133	0x8005659f	-4.95632e-40
134	0x80055824	-4.90796e-40
135	0x80057823	-5.02274e-40
136	0x80058ec4	-5.10392e-40
137	0x800560c9	-4.93897e-40
138	0x00058301	5.06173e-40
139	0x00055800	4.90746e-40
140	0x80061b47	-5.60798e-40
141	0x8006a718	-6.10955e-40
142	0x00056905	4.96851e-40
143	0x80058785	-5.07793e-40
144	0x00056874	4.96648e-40
145	0x8006b0db	-6.14457e-40
146	0x8005691f	-4.96888e-40
147	0x80057438	-5.00869e-40
148	0x800574d9	-5.01095e-40
149	0x80056131	-4.94043e-40
150	0x800559fe	-4.9146e-40
151	0x00057bd2	5.03596e-40
152	0x00055f06	4.93265e-40
153	0x00055800	4.90746e-40
154	0x80055ab4	-4.91716e-40
155	0x00055d91	4.92743e-40
156	0x8005694c	-4.96951e-40
157	0x0006c654	6.2216e-40
158	0x00055d97	4.92751e-40
159	0x00056102	4.93977e-40
160	0x0005695f	4.96978e-40
161	0x80055b6e	-4.91976e-40
162	0x80056017	-4.93648e-40
163	0x800564e9	-4.95377e-40
164	0x80057eed	-5.0471e-40
165	0x00055ffd	4.93612e-40
166	0x8006a009	-6.08423e-40
167	0x00056ad1	4.97496e-40
168	0x00055df6	4.92884e-40
169	0x800558e8	-4.91071e-40
170	0x00056b93	4.97768e-40
171	0x8005614a	-4.94078e-40
172	0x000558d4	4.91043e-40
173	0x0005663e	4.95855e-40
174	0x00055f73	4.93418e-40
175	0x800564c2	-4.95323e-40
176	0x00056354	4.9481e-40
177	0x00056df5	4.98623e-40
178	0x00056094	4.93823e-40
179	0x800564cf	-4.95341e-40
180	0x8005a657	-5.18849e-40
181	0x000560d7	4.93917e-40
182	0x000564b3	4.95302e-40
183	0x000564f2	4.9539e-40
184	0x000560e3	4.93934e-40
185	0x0006a78b	6.11116e-40
186	0x8005c38d	-5.29328e-40
187	0x00058f71	5.10635e-40
188	0x00057719	5.01902e-40
189	0x80056103	-4.93979e-40
190	0x800566f0	-4.96104e-40
191	0x800558f7	-4.91092e-40
192	0x80055c21	-4.92227e-40
193	0x00055a30	4.9153e-40
194	0x00056b86	4.9775e-40
195	0x0005d0ee	5.34127e-40
196	0x0005e3a0	5.40834e-40
197	0x80055943	-4.91199e-40
198	0x80056c50	-4.98033e-40
199	0x800560ca	-4.93899e-40
200	0x8005a494	-5.18217e-40
201	0x80056d20	-4.98324e-40
202	0x00059d90	5.157e-40
203	0x80056186	-4.94162e-40
204	0x8005667c	-4.95942e-40
205	0x80055e59	-4.93023e-40
206	0x00056e16	4.98669e-40
207	0x0005fb38	5.49298e-40
208	0x80055e24	-4.92949e-40
209	0x00064a08	5.7757e-40
210	0x80056da4	-4.98509e-40
211	0x00055b7f	4.92e-40
212	0x800561c1	-4.94245e-40
213	0x800597e3	-5.13664e-40
214	0x80055889	-4.90938e-40
215	0x80057992	-5.02789e-40
216	0x0005b8ca	5.25467e-40
217	0x0005b397	5.23602e-40
218	0x800562fb	-4.94685e-40
219	0x80056513	-4.95436e-40
220	0x00056f49	4.99099e-40
221	0x80056094	-4.93823e-40
222	0x8005fd1b	-5.49975e-40
223	0x800671c8	-5.9183e-40
224	0x00055c68	4.92327e-40
225	0x8005651a	-4.95446e-40
226	0x80055ad2	-4.91758e-40
227	0x0005652c	4.95471e-40
228	0x00056154	4.94092e-40
229	0x80055ad7	-4.91765e-40
230	0x00055f8e	4.93456e-40
231	0x00055bff	4.9218e-40
232	0x80055d88	-4.9273e-40
233	0x8005657f	-4.95587e-40
234	0x00056060	4.9375e-40
235	0x000589e8	5.08649e-40
236	0x00056875	4.9665e-40
237	0x8005b9e3	-5.25861e-40
238	0x00057769	5.02014e-40
239	0x000567f2	4.96466e-40
240	0x8005c61c	-5.30246e-40
241	0x00068b98	6.0109e-40
242	0x0005f29e	5.46212e-40
243	0x000572d5	5.00371e-40
244	0x80057c54	-5.03778e-40
245	0x80056fc1	-4.99267e-40
246	0x00055771	4.90546e-40
247	0x00056bf8	4.9791e-40
248	0x80058fe6	-5.10799e-40
249	0x80056f34	-4.9907e-40
250	0x0005604c	4.93722e-40
251	0x800562d9	-4.94637e-40
252	0x00056d66	4.98422e-40
253	0x00056927	4.96899e-40
254	0x8005689c	-4.96704e-40
255	0x8005bfd5	-5.27994e-40

embedding.atom_embedding_list.2.weight f4 [12, 64]
0	0xbdb56c54	-0.088585526
1	0x3e643fd5	0.22289975
2	0xbe0005b4	-0.12502176
3	0xbe290574	-0.16505986
4	0x3db4fb83	0.088370346
5	0x3b203e6e	0.0024451273
6	0xbd565c85	-0.052334327
7	0x3e44790f	0.19186805
8	0xbeb0e692	-0.3455091
9	0x3ca87099	0.020561503
10	0xbdd97089	-0.106171675
11	0xbe237560	-0.15962744
12	0xbed21fc7	-0.4103987
13	0x3eeb7392	0.4598661
14	0xbdcfe9a6	-0.10151987
15	0x3e6f6438	0.23378074
16	0xbdd8ce06	-0.10586171
17	0x3dad9f7a	0.08477683
18	0xbe971f38	-0.29516006
19	0xbd15ea72	-0.036600538
20	0xbd5633b0	-0.052295387
21	0x3e33f5c2	0.17574218
22	0xbca53c6c	-0.020170413
23	0x3e6fc932	0.23416594
24	0x3d8ee438	0.06977123
25	0xbdb43510	-0.08799183
26	0xbd18007a	-0.03710983
27	0xbe0554d2	-0.13020638
28	0xbe3a4359	-0.18189754
29	0xbcb7bfcb	-0.022430321
30	0xbcce77e1	-0.025203647
31	0x3d3df33a	0.046374537
32	0xbe0f6cf5	-0.14006408
33	0x3d7bcded	0.061475683
34	0x3ddafa27	0.10692244
35	0x3d380bb3	0.044933032
36	0x3ea47ab4	0.32124865
37	0xbdb941ae	-0.090457305
38	0x3dae60cc	0.08514556
39	0xbdeb591e	-0.11491607
40	0x3e892e44	0.2679311
41	0x3bb98a4e	0.005662239
42	0x3d95af8c	0.073088735
43	0x3dbeb551	0.09311927
44	0x3dc6af3f	0.09701394
45	0x3e9b1e77	0.3029668
46	0xbd9786f1	-0.07398785
47	0x3e2db644	0.1696406
48	0xbba42183	-0.0050088777
49	0x3e0a3769	0.134977
50	0x3ddc73e0	0.10764289
51	0xbe27e986	-0.16397676
52	0xbe23f5c5	-0.16011722
53	0x3df5a122	0.11993624
54	0xbe2f5158	-0.17120874
55	0xbeaa9953	-0.33320102
56	0x3e19c68e	0.15017149
57	0x3e2d18bc	0.16903967
58	0x3db48f7a	0.088164285
59	0x3cd9be37	0.02657996
60	0x3b98f3db	0.0046677417
61	0x3dc2c1e6	0.095096394
62	0xbd96fa61	-0.07371975
63	0xbeb65723	-0.35613355
64	0xbb3bdf81	-0.0028667154
65	0xbe9305a1	-0.28715232
66	0x3dc22b8f	0.094809644
67	0x3eeb4737	0.4595277
68	0xbee673de	-0.45010275
69	0x3e85db4f	0.26143882
70	0xbdb9d52d	-0.09073863
71	0xbeb20a40	-0.34773445
72	0x3ea90cf0	0.33017683
73	0xbed15913	-0.4088827
74	0xbe38cac9	-0.18046106
75	0x3c5decda	0.013545239
76	0x3df4755a	0.119364455
77	0xbe07d942	-0.13266471
78	0x3d343933	0.043999862
79	0xbe010636	-0.12600026
80	0x3e688eab	0.22710674
81	0x3e8974a6	0.26846808
82	0x3f24630f	0.6421365
83	0x3ef48708	0.4775927
84	0x3e133acb	0.14377896
85	0xbc9de353	-0.019273436
86	0x3e07a159	0.13245143
87	0xbda05800	-0.07829285
88	0x3e9abcaf	0.3022208
89	0xbe296579	-0.16542615
90	0x3e2e7d4c	0.17039984
91	0xbe90dddd	-0.28294268
92	0x3eeef709	0.46672848
93	0x3e451246	0.19245252
94	0x3d3d5ff4	0.046234086
95	0xbe958d54	-0.29209387
96	0xbe18dafd	-0.14927287
97	0x3e1c4710	0.15261483
98	0x3f0e18b5	0.5550645
99	0x3e240320	0.16016817
100	0x3d460500	0.048344612
101	0x3e2ea38e	0.17054579
102	0xbe4fec91	-0.20305087
103	0x3e0f8614	0.1401599
104	0xbee85cf0	-0.45383406
105	0xbe1d79cc	-0.15378493
106	0x3db650a3	0.08902099
107	0x3d84743b	0.06467482
108	0x3eac7111	0.33680013
109	0xbf086b34	-0.5328858
110	0xbd73407b	-0.059387665
111	0x3d6ef4cd	0.05833893
112	0x3bb2c2d7	0.0054553556
113	0x3e10da3c	0.1414575
114	0x3cc44ec6	0.023963343
115	0x3da16f35	0.07882539
116	0x3e27ac15	0.16374238
117	0xbd10ac1b	-0.035320383
118	0x3d9e55ae	0.07731186
119	0x3de8813f	0.11352777
120	0xbeba5462	-0.36392504
121	0xbf1d1ccd	-0.6137207
122	0x3bde6c02	0.006787778
123	0xbe416b91	-0.1888869
124	0x3e74d2f1	0.23908593
125	0xbee5364a	-0.44767982
126	0x3da2cff2	0.07949819
127	0x3da8f386	0.082495734
128	0xbd66a365	-0.05630817
129	0xbf182c80	-0.594429
130	0xbf058a06	-0.5216373
131	0xbec6f702	-0.38860327
132	0x3f1ff389	0.6248098
133	0xbee90007	-0.45507833
134	0xbee06f5b	-0.43834957
135	0xbcef7157	-0.02922885
136	0x3d8fd28e	0.07022582
137	0xbf228913	-0.6349041
138	0xbef85c04	-0.48507702
139	0xbe9e9100	-0.3097
140	0xbeeca171	-0.4621692
141	0xbe243c2f	-0.16038583
142	0xbeffc2c5	-0.49953285
143	0x3f0593f9	0.52178913
144	0x3cd13d64	0.025541969
145	0x3e9c4657	0.30522415
146	0x3d860dc5	0.06545595
147	0x3ef6a7c0	0.48174858
148	0xbe89c593	-0.2690855
149	0x3f103c3d	0.56341916
150	0xbf166d37	-0.587604
151	0x3ef2d09c	0.4742478
152	0xbe2d2e88	-0.16912282
153	0x3eb55c55	0.35422006
154	0xbf171a70	-0.59024715
155	0xbea36dcd	-0.3191971
156	0xbe0e51f8	-0.13898456
157	0x3ebd2bb8	0.36947417
158	0xbf22e22f	-0.6362638
159	0x3e23db7d	0.16001697
160	0xbf105288	-0.5637593
161	0xbe040eb1	-0.1289623
162	0x3e5584f0	0.20851493
163	0xbf10202f	-0.5629911
164	0x3eb57865	0.35443416
165	0xbf3afb78	-0.7303996
166	0x3cb1ca27	0.021702839
167	0xbd9c8195	-0.07641903
168	0x3da07c56	0.07836215
169	0xbea24ca8	-0.3169911
170	0xbefcd6fb	-0.49382767
171	0xbe6d40c3	-0.23169236
172	0x3d1c4818	0.03815469
173	0x3ed641dd	0.41847125
174	0xbec3de9e	-0.3825578
175	0x3e246219	0.16053046
176	0x3ea4afac	0.32165277
177	0x3f17e585	0.59334594
178	0x3d7cf23c	0.06175445
179	0x3e7e96f9	0.24862279
180	0x3e93d0b8	0.28870177
181	0xbe34fbdf	-0.17674206
182	0xbe2bffce	-0.167968
183	0xbe9902c2	-0.29884917
184	0x3edd4c97	0.43222496
185	0x3db7daf3	0.08977308
186	0xbe96116c	-0.29310167
187	0xbd31a15b	-0.04336677
188	0x3b15f972	0.0022884277
189	0x3e5b1e5c	0.213983
190	0x3f23984b	0.63904256
191	0xbdb2c5b8	-0.08729118
192	0x3e716e8a	0.23577324
193	0x3ebde828	0.37091184
194	0x3eb9782d	0.362245
195	0x3d86c9bc	0.065814465
196	0xbe417921	-0.18893863
197	0xbd3e8b86	-0.04651978
198	0x3ed89e48	0.4230826
199	0xbd86566e	-0.06559454
200	0xbdb04909	-0.0860768
201	0x3ebaa2f4	0.36452448
202	0x3d3d854f	0.04626971
203	0xbd879d48	-0.06621796
204	0x3e4ffbb9	0.20310868
205	0x3df432bc	0.11923739
206	0x3e10f71a	0.14156762
207	0x3d041801	0.032249454
208	0x3e13d5ce	0.14437029
209	0xbe1af619	-0.15132941
210	0xbedeca3a	-0.43513662
211	0xbe14bca3	-0.14525084
212	0x3d606de9	0.05479232
213	0xbe49e890	-0.19717622
214	0xbce391ec	-0.027779542
215	0xbe3687d5	-0.17825253
216	0x3da5787f	0.080796234
217	0x3df60661	0.120129354
218	0x3e4bbe7b	0.19896881
219	0x3e2a2673	0.1661623
220	0xbec20284	-0.37892544
221	0xbeb52359	-0.3537853
222	0x3ea00081	0.31250384
223	0x3dcc5566	0.09977226
224	0x3cfa5eaa	0.030562717
225	0xbd9145ab	-0.07093366
226	0xbec33cb9	-0.38132265
227	0xbdf44c5b	-0.11928626
228	0xbe725e83	-0.23668866
229	0x3e3eceec	0.18633622
230	0x3ea4114a	0.3204444
231	0x3e0dec97	0.13859783
232	0x3eb8e069	0.3610871
233	0x3e2147dd	0.1575007
234	0x3d6383bf	0.055545565
235	0xbd573584	-0.05254127
236	0xbe652fb3	-0.22381477
237	0x3c1e6e0e	0.009669794
238	0xbc975efb	-0.018477907
239	0xbd43d4b9	-0.04781029
240	0xbe3446ef	-0.17605184
241	0xbe8bd13e	-0.27308077
242	0x3e818229	0.25294617
243	0x3e19d8a2	0.15024045
244	0xbe515cc8	-0.2044555
245	0xbe2150b0	-0.15753436
246	0xbe2bbe25	-0.16771753
247	0xbd429598	-0.047505945
248	0xbe699967	-0.22812425
249	0x3e822a38	0.25422835
250	0x3eacab29	0.33724335
251	0x3e74e31f	0.23914765
252	0xba6b0a55	-0.0008966078
253	0xbd32967c	-0.043600544
254	0xbebb5089	-0.3658488
255	0xbd7fdb3b	-0.062464934

embedding.atom_embedding_list.3.weight f4 [12, 64]
0	0x3c1d898d	0.009615314
1	0x39ea4264	0.00044681423
2	0x3b863ce1	0.004096613
3	0x3c7d46ca	0.015458772
4	0x3c13a8dc	0.009012427
5	0x3a205efb	0.0006117669
6	0xbbe510e8	-0.006990541
7	0xbc949916	-0.018139403
8	0x3cdad570	0.026713103
9	0xbccc37fe	-0.024929043
10	0x3bd04393	0.0063557117
11	0xbb04715f	-0.0020209176
12	0x3c46b971	0.012129174
13	0xbcd5aa6f	-0.026082246
14	0x3c5f3399	0.013623142
15	0xbae93de9	-0.001779494
16	0xbb987250	-0.004652299
17	0xbb966474	-0.0045896117
18	0x3cb4ecbb	0.022085538
19	0x3c820c1a	0.015874911
20	0x3b7ecfbf	0.003888115
21	0xbb1fd572	-0.0024388698
22	0xbb097cf6	-0.0020979024
23	0x39f5894a	0.0004683233
24	0xbc4b0fb5	-0.012393882
25	0x3b1bab74	0.0023753317
26	0x3b8ddbf9	0.0043292013
27	0xbcb9bed9	-0.022674011
28	0x3b0c896f	0.0021444221
29	0xbc0b7a61	-0.008513064
30	0x3b284f25	0.002568194
31	0xbc9f680c	-0.019458793
32	0x3a3eacbe	0.00072736654
33	0x39ab17fd	0.00032633534
34	0x3c5a7458	0.013333403
35	0xbc4269be	-0.011866031
36	0xbb3b85e0	-0.0028613731
37	0x3c3bfd11	0.01147391
38	0xbc584c68	-0.01320181
39	0x3c98c07d	0.018646473
40	0xbcfcd22c	-0.030861937
41	0xbc67b0e9	-0.0141413
42	0xbc6f8138	-0.0146182105
43	0xbc5c514c	-0.013447117
44	0xbb19f931	-0.0023494477
45	0xbb9d99b7	-0.004809584
46	0x3c171c9f	0.009223132
47	0x3a8be73c	0.0010673772
48	0xbbee4f7d	-0.0072726593
49	0xbb43c887	-0.0029874162
50	0x3c1467e8	0.009057976
51	0x3c3fc317	0.011704228
52	0xbc0f4d16	-0.008746406
53	0x3c673a01	0.01411295
54	0xbac0a944	-0.0014698883
55	0x3bf59073	0.0074940263
56	0xbc2e8edc	-0.0106541775
57	0xbb5ac974	-0.0033384236
58	0x3c1cfb0a	0.009581337
59	0xbca83701	-0.02053404
60	0xbc6834ef	-0.014172777
61	0xbc2e8c53	-0.010653573
62	0x3bae49f0	0.0053188726
63	0x3cb3b0d3	0.021934902
64	0x3b46045f	0.0030215008
65	0x3d3667a6	0.04453244
66	0x3e07be88	0.13256276
67	0x3cb19508	0.021677509
68	0xbcca0450	-0.02466026
69	0xbc04ad6b	-0.008097987
70	0x3e090d8d	0.13384075
71	0xbd4d14d5	-0.050068695
72	0xbd66ac7f	-0.05631685
73	0x3e4318bc	0.19052404
74	0x3d8a9770	0.06767166
75	0x3d3e6ba7	0.046489384
76	0x3e06cdcc	0.13164443
77	0xbdd323f0	-0.10309589
78	0x3e035eb0	0.12829089
79	0xbd4ed43b	-0.050495367
80	0xbd32794c	-0.04357271
81	0xbd90e31a	-0.07074566
82	0xbe1014a5	-0.14070375
83	0xbdd8828c	-0.10571775
84	0xbc067b73	-0.0082081435
85	0xbdd33825	-0.10313443
86	0x3d0ca9e5	0.03434171
87	0xbbfa979b	-0.0076474673
88	0xbd768a8c	-0.060190722
89	0x3cb1e2a7	0.021714522
90	0x3d8e7156	0.06955211
91	0x3d458bca	0.048229016
92	0xbcd6c465	-0.026216695
93	0xbde4f010	-0.11178601
94	0x3d6d446e	0.057926588
95	0xbd93008b	-0.07177838
96	0x3d3c3e0a	0.045957603
97	0xbcade954	-0.021229424
98	0xbe292592	-0.16518238
99	0xbcb61ae5	-0.022229621
100	0xbe16ce57	-0.1472715
101	0x3d8c32d8	0.06845635
102	0x3dd8dc7b	0.10588928
103	0x3de947f3	0.11390676
104	0x3d699958	0.057031006
105	0x3caa58ca	0.020794291
106	0x3d09cdee	0.033643655
107	0xbd28651f	-0.04111206
108	0xbd3b13c8	-0.04567316
109	0x3bdbccd4	0.006707767
110	0x3e2079f4	0.15671521
111	0xbdc3b0e5	-0.09555224
112	0xbdaadbbd	-0.08342693
113	0xbde2fa92	-0.11082949
114	0xbd467d9d	-0.048459638
115	0x3cc6572b	0.024211487
116	0xbd9a7300	-0.07541466
117	0xbe0a97fc	-0.1353454
118	0x3afa9e35	0.0019120636
119	0x3e191c76	0.14952263
120	0x3b26cd51	0.0025451968
121	0x3da89b9f	0.08232807
122	0x3dbd7dc4	0.092525035
123	0xbcdb807c	-0.026794665
124	0xbdb8d501	-0.09025002
125	0x3cea8bd7	0.028631134
126	0xbe536d12	-0.20647076
127	0x3e266c5d	0.16252275
128	0xbb060710	-0.0020450987
129	0xbc59c469	-0.013291457
130	0xbc5f4f51	-0.01362975
131	0xbaf0ab45	-0.0018361589
132	0x3c8f2a10	0.017476112
133	0x398167d6	0.0002468216
134	0xbc128dbe	-0.008944927
135	0xbd14e6f6	-0.036353074
136	0x3d8185c3	0.06324341
137	0xbda80076	-0.08203213
138	0x3cbf8725	0.023379872
139	0xbcbd2578	-0.023089156
140	0x3bfbdfc8	0.007686589
141	0xbd727023	-0.059188973
142	0x3d0cdf88	0.034392864
143	0xbca56e29	-0.02019413
144	0xbcc465b9	-0.023974286
145	0xbc74e613	-0.014947432
146	0x3d490728	0.04907909
147	0x3cddc772	0.027072642
148	0xbb876cbf	-0.0041328366
149	0x3ca032f9	0.019555556
150	0xbcaec5ff	-0.021334646
151	0x3c7a65a4	0.015283022
152	0xbd19b273	-0.037523698
153	0x3c5ff3c8	0.013668962
154	0x3c180d19	0.0092804665
155	0xbd975682	-0.07389547
156	0x3c92e9ce	0.017933752
157	0xbc200aa6	-0.009768164
158	0xbc727796	-0.014799019
159	0xbd3833fc	-0.04497145
160	0xbb13d045	-0.0022554558
161	0x39fb083a	0.0004788058
162	0x3cc2fa37	0.023800952
163	0xbcb9c061	-0.022674741
164	0xbbc088f9	-0.0058757034
165	0x3c27f585	0.0102514075
166	0xbcb6b8cc	-0.022304915
167	0x3d227327	0.0396606
168	0xbda87576	-0.08225529
169	0xbd14d671	-0.03633732
170	0xbd1d356c	-0.038381025
171	0xbd41225e	-0.047151916
172	0xbb3b6a18	-0.0028597172
173	0xbc096d78	-0.008387916
174	0x3ce9ddce	0.028548148
175	0xbc209b91	-0.009802715
176	0xbcc2b5e8	-0.02376838
177	0xbc4b4d78	-0.012408607
178	0xbc2246c9	-0.009904572
179	0x3ce2084d	0.027591849
180	0xbce13d5a	-0.027495075
181	0x3d02eb3e	0.031962626
182	0xbc66bb1d	-0.014082697
183	0x3c5277f7	0.012845985
184	0xbbd3d81a	-0.0064649703
185	0x3bf46841	0.007458717
186	0x3d0a89ef	0.03382295
187	0xbd6948c3	-0.056954157
188	0xbd3d5c19	-0.04623041
189	0x39e76996	0.0004413842
190	0x3b91467a	0.0044334503
191	0x3d612e77	0.054975953
192	0xbd564765	-0.05231418
193	0xbdc1f1c6	-0.09469943
194	0xbd347cfb	-0.044064503
195	0xbda383a2	-0.07984091
196	0xbcd41b7f	-0.025892017
197	0x3c1cc8f7	0.009569398
198	0xbcf6b311	-0.030114682
199	0x3d0e9ab1	0.034815494
200	0xbd34f7b1	-0.04418153
201	0xbd8e4549	-0.06946809
202	0xbc786d71	-0.015162812
203	0xbdabc9cf	-0.08388101
204	0xbe1966a5	-0.14980562
205	0x3dd1b756	0.10240047
206	0xbd44f50e	-0.048085265
207	0xbbb85f1d	-0.0056265728
208	0xbd15f3d7	-0.036609497
209	0xbb02dbb7	-0.0019967386
210	0xbc13f43b	-0.009030397
211	0xbc2b3350	-0.010449246
212	0xbd3fcac5	-0.046824235
213	0x3d9b9928	0.075975716
214	0x3d2f0e77	0.042738404
215	0xbc3ee5b2	-0.011651443
216	0xbbe73e99	-0.007057023
217	0xbd156e0b	-0.0364819
218	0xbc5f4dc7	-0.013629383
219	0xbd49cc99	-0.049267385
220	0x3d27358a	0.040822543
221	0x3d1575b0	0.03648919
222	0xbd10766b	-0.035269182
223	0x3cc61541	0.024180057
224	0x3ac2cedf	0.0014862678
225	0x3bccc156	0.0062486334
226	0x3c85721e	0.016289767
227	0x3ccc1c8a	0.024915952
228	0x3cdb4721	0.026767315
229	0xbda9a411	-0.08283246
230	0xbc605245	-0.01369149
231	0xbd8b0d02	-0.067895904
232	0x3da9b98b	0.08287343
233	0x3b73ee16	0.0037220768
234	0x3a38912d	0.0007040676
235	0xbcf745d1	-0.030184658
236	0x3c124eb8	0.008929901
237	0xbca38c3c	-0.01996433
238	0x3c90a3e7	0.01765628
239	0xbd48bdb5	-0.049009044
240	0x3c39bb62	0.011336179
241	0x3c851a42	0.016247872
242	0xbd158243	-0.03650118
243	0xbcaa11b6	-0.020760398
244	0x3cb043d2	0.021516714
245	0xbb55b104	-0.003260673
246	0xbd2ac52a	-0.041691937
247	0xbd2c1dd6	-0.04202064
248	0x3dad23c0	0.084540844
249	0xbd3b2e84	-0.045698658
250	0x3c90e7d8	0.017688677
251	0xbca35847	-0.019939555
252	0xbc92a966	-0.017903041
253	0x3d1962ba	0.03744767
254	0x3cf3fc0c	0.029783271
255	0xbd8846c7	-0.06654125

embedding.atom_embedding_list.4.weight f4 [10, 64]
0	0x3e843764	0.2582351
1	0x3e93cf4c	0.28869092
2	0x3da379c0	0.07982206
3	0xbe9027fe	-0.28155512
4	0x3e736a63	0.23771052
5	0xbe302313	-0.1720088
6	0x3ea3f967	0.32026216
7	0xbea49b79	-0.32149866
8	0x3cfd0edb	0.030890873
9	0xbde6d78f	-0.11271583
10	0x3f0e4651	0.55576044
11	0xbddc72da	-0.10764094
12	0x3e1d60eb	0.15369003
13	0xbe784a2e	-0.24247047
14	0x3f0efd5b	0.5585534
15	0xbe4a359b	-0.19747011
16	0xbec824a7	-0.39090464
17	0xbefd39df	-0.49458215
18	0xbea07486	-0.313389
19	0xbe3fb323	-0.18720679
20	0x3d31ceca	0.0434101
21	0x3de704b1	0.11280192
22	0xbe39f02a	-0.18158022
23	0x3e540f4a	0.20708957
24	0xbf23ed02	-0.6403352
25	0x3ec04d30	0.3755889
26	0x3e5a54c5	0.213214
27	0xbeaeedaf	-0.34165713
28	0xbdd7cd3f	-0.105371945
29	0xbed17439	-0.40908983
30	0x3de3e73f	0.11128091
31	0xbef7e595	-0.48417345
32	0x3e273e54	0.1633237
33	0xbdd94d18	-0.106104076
34	0xbed137db	-0.40862927
35	0xbe75f09c	-0.24017566
36	0xbe196b3d	-0.14982314
37	0x3ea08a4e	0.31355518
38	0x3dee934c	0.116491884
39	0x3f287ac0	0.658123
40	0xbda2edf2	-0.07955541
41	0xbe6f5ef1	-0.23376061
42	0xbecbca5c	-0.39802825
43	0xbf071958	-0.52773046
44	0xbe9c634c	-0.30544508
45	0xbda6c9ac	-0.081439346
46	0x3ef3ea4c	0.47639692
47	0xbe8ba4e1	-0.2727423
48	0xbf06c2f7	-0.5264124
49	0xbed915c4	-0.42399418
50	0xbe4ed12b	-0.20196979
51	0x3e5b0194	0.21387321
52	0xbebc057c	-0.36722934
53	0xbda1c6e8	-0.078992665
54	0xbda6d87a	-0.081467584
55	0x3ecfcc4a	0.40585548
56	0xbe0f8940	-0.140172
57	0x3ee477c9	0.4462264
58	0x3ecb986d	0.3976473
59	0xbeb570ad	-0.35437527
60	0xbf1c6757	-0.61095184
61	0x3e4b2b2c	0.19840688
62	0xbe71b2fd	-0.23603435
63	0x3ed246c0	0.41069603
64	0xbf140689	-0.5782247
65	0xbebb1ee4	-0.36547005
66	0xbe7a8104	-0.24463278
67	0xbf293086	-0.66089666
68	0xbf222559	-0.6333824
69	0x3e411491	0.18855502
70	0xbebedd85	-0.3727838
71	0x3f324c4b	0.69647664
72	0x3d40afc7	0.047042634
73	0x3e71af9b	0.23602144
74	0xbebd449a	-0.369664
75	0xbec43b24	-0.3832637
76	0xbf0a1228	-0.53933954
77	0x3f89300f	1.0717791
78	0xbf132d1c	-0.57490706
79	0xbe3e3948	-0.18576539
80	0x3c6a4a56	0.01429995
81	0x3ec48ec0	0.3839016
82	0xbe45c180	-0.19312096
83	0x3ccff3f2	0.025384877
84	0xbea06e73	-0.31334266
85	0x3f060d45	0.52364
86	0xbd2a35e7	-0.04155531
87	0xbda3e457	-0.08002537
88	0x3f0155ef	0.5052175
89	0xbe5e6133	-0.21716766
90	0xbe8c90e3	-0.2745429
91	0x3ea1028d	0.3144726
92	0x3ec5e54d	0.38651505
93	0x3eb45ba3	0.35226163
94	0xbe9d173d	-0.30681792
95	0x3f1fd227	0.6243004
96	0xbe2967f0	-0.16543555
97	0x3dfdb9f5	0.12388984
98	0x3e758700	0.2397728
99	0x3ef03ab4	0.46919787
100	0x3edad883	0.4274331
101	0xbf11c765	-0.56944877
102	0xbd74f488	-0.059803516
103	0xbf443656	-0.7664541
104	0x3eafcb33	0.34334716
105	0x3d77f643	0.060537588
106	0x3e7c924e	0.24665186
107	0x3eb33215	0.34999147
108	0x3eb41fec	0.35180604
109	0xbe893ad0	-0.26802683
110	0xbf20c3fb	-0.6279904
111	0xbdaa0c0a	-0.083030775
112	0x3e3ed261	0.1863494
113	0x3dc8ca01	0.09804154
114	0xbde8522b	-0.11343797
115	0xbeb5b77d	-0.35491553
116	0x3c155107	0.009113557
117	0x3ed15882	0.4088784
118	0x3dbca126	0.09210424
119	0xbf29804b	-0.66211385
120	0x3e9ae14e	0.3025002
121	0xbe9e1649	-0.30876377
122	0xbe366c29	-0.17814697
123	0x3f2c7d29	0.6737848
124	0x3ed2df6c	0.41186082
125	0x3ec6452a	0.38724643
126	0x3e98e6ee	0.29863685
127	0xbf643172	-0.8913795
128	0x3e82fa17	0.25581428
129	0x3dd0b184	0.101901084
130	0x3f095209	0.536408
131	0x3ea38810	0.31939745
132	0x3d39eab9	0.045389865
133	0x3d4998c0	0.04921794
134	0xbdfa93a5	-0.12235192
135	0xbd96d085	-0.07363991
136	0x3f0c4294	0.5478909
137	0x3f1d0180	0.61330414
138	0xbeb62692	-0.35576302
139	0x3e82a980	0.25519943
140	0x3e8acf3d	0.27111235
141	0xbdf829bc	-0.12117335
142	0x3d925628	0.07145339
143	0xbd4f54a1	-0.050617818
144	0x3e81bb9d	0.2533845
145	0xbe19fae4	-0.15037113
146	0xbd96e3f2	-0.07367696
147	0x3ea170a6	0.31531256
148	0x3e94d32d	0.29067364
149	0xbeda558c	-0.42643392
150	0x3efad46f	0.489902
151	0xbeba5eb1	-0.3640037
152	0x3c02e756	0.007989725
153	0xbe8a1e9b	-0.26976475
154	0xbd22a9c9	-0.0397127
155	0x3f28d422	0.6594869
156	0xbe10e977	-0.1415156
157	0xbec004a4	-0.3750354
158	0x3ecad7e9	0.3961785
159	0xbe147f29	-0.14501633
160	0x3d96558c	0.073405355
161	0x3e3517b6	0.17684826
162	0x3ec9236e	0.39284843
163	0xbd81c0be	-0.06335591
164	0x3d5d03d7	0.05395874
165	0x3e6402a8	0.22266638
166	0xbdebf88d	-0.11522017
167	0xbdbff5b5	-0.09373037
168	0xbee5e5c5	-0.44901863
169	0xbe12b8f6	-0.1432837
170	0xbd09744a	-0.033558168
171	0x3f1fbea1	0.6240025
172	0x3e80b98e	0.25141567
173	0xbefbf1ec	-0.4920801
174	0xbc5af99b	-0.013365175
175	0x3e51fe0a	0.20507064
176	0xbd7d0be7	-0.06177893
177	0xbdd1a1e4	-0.10235956
178	0x3e823819	0.25433424
179	0xbe44e952	-0.1922963
180	0xbedc7f51	-0.43065885
181	0x3e8dd6c0	0.27702904
182	0x3eef448e	0.4673199
183	0xbe3eb137	-0.1862229
184	0xbed1de95	-0.4099013
185	0xbef15883	-0.47137842
186	0xbed0370a	-0.4066699
187	0x3e81af20	0.25328922
188	0xbc2775c7	-0.010220951
189	0xbeda1ba0	-0.425992
190	0xbd2e161b	-0.04250155
191	0xbd955438	-0.07291454
192	0xbda0a5c3	-0.078441165
193	0xbc4b49f5	-0.012407769
194	0xbdd5ae81	-0.104336746
195	0x3f3c6217	0.73587173
196	0x3dcaa6a7	0.09895068
197	0x3dbe1b2c	0.092825264
198	0x3d633bb0	0.055476844
199	0xbdbcd51a	-0.092203334
200	0x3e72ace2	0.23698762
201	0xbd1f595a	-0.03890357
202	0x3dcbaed8	0.09945458
203	0x3f1b2d50	0.60616016
204	0x3f36a329	0.7134271
205	0xbf16bcd4	-0.5888188
206	0xbde66579	-0.11249823
207	0x3e882702	0.2659226
208	0x3f552aad	0.83268243
209	0x3ef4a0fa	0.47779065
210	0x3e95ce60	0.29259014
211	0xbe0294c1	-0.12752058
212	0xbd8a6fb7	-0.06759589
213	0x3c955199	0.018227385
214	0xbe875960	-0.26435375
215	0x3e3d0e09	0.18462385
216	0x3f0329b8	0.5123553
217	0x3ec99867	0.39374086
218	0xbd0d3cd9	-0.034481857
219	0x3e7b5228	0.24543059
220	0x3b2ea1c6	0.0026646717
221	0x3eff4dfe	0.4986419
222	0xbe5a11d6	-0.21295866
223	0x3e7e8943	0.24857049
224	0xbe42170d	-0.18954106
225	0xbdf68497	-0.12037008
226	0xbe363eaf	-0.1779735
227	0x3d9fdd08	0.0780583
228	0xbcecb328	-0.028894022
229	0x3e24e3f2	0.16102579
230	0x3ea2e0c8	0.3181212
231	0xbe4daeb6	-0.20086178
232	0xbef0edb4	-0.47056353
233	0x3e9f3070	0.31091642
234	0x3e28a465	0.16468962
235	0x3eee2ef6	0.46520203
236	0xbed24acf	-0.410727
237	0xbd454493	-0.0481611
238	0xbd61fdc3	-0.055173647
239	0xbcd783da	-0.026307989
240	0x3f0235d3	0.5086338
241	0x3e766da3	0.2406526
242	0xbe8b156b	-0.27164778
243	0x3e8bbfba	0.27294713
244	0x3f9223b5	1.1417147
245	0xbf0c6630	-0.54843426
246	0x3f7d9413	0.9905407
247	0x3f0d86d7	0.55283874
248	0xbe881a11	-0.26582387
249	0x3e297d92	0.16551808
250	0xbf681b04	-0.9066622
251	0x3f07e010	0.5307627
252	0x3f370ca0	0.7150364
253	0xbe4fadb5	-0.20281108
254	0x3ec81d76	0.39084977
255	0x3e0fab26	0.14030132

embedding.atom_embedding_list.5.weight f4 [6, 64]
0	0x3e0efb46	0.1396304
1	0xbe41a51e	-0.18910643
2	0x3d0278f6	0.03185364
3	0x3e312de3	0.1730266
4	0x3dcce864	0.100052625
5	0xbd217597	-0.039418783
6	0xbe1b0784	-0.15139586
7	0x3d07fe8a	0.03320173
8	0x3e3ae6af	0.18252061
9	0x3d4866c7	0.04892614
10	0x3e2a7163	0.16644816
11	0x3e21624f	0.15760158
12	0x3e211f62	0.15734628
13	0xbd653904	-0.055962577
14	0xbde8f1f7	-0.11374276
15	0xbda4f703	-0.08054926
16	0xbe28d7ec	-0.16488618
17	0xbe3c18ca	-0.18368831
18	0x3d76044c	0.06006269
19	0xbdfbf516	-0.12302606
20	0xbe20cc7d	-0.15703006
21	0x3dd039cb	0.10167273
22	0x3dfefbea	0.124503925
23	0x3e5e0c8e	0.21684477
24	0xbe6fc02f	-0.23413156
25	0xbdaa4442	-0.083138004
26	0xbd9a0d4a	-0.07522066
27	0x3d29f31c	0.041491613
28	0xbe662a47	-0.22477065
29	0x3d2a5df9	0.041593526
30	0x3d9449a0	0.07240605
31	0xbe0a8e30	-0.13530803
32	0x3e2ada90	0.16684937
33	0xbbeba049	-0.0071907383
34	0x3e4dcd49	0.20097841
35	0x3e8e4f08	0.2779467
36	0xbe0bd60c	-0.13655871
37	0x3e583d29	0.21117081
38	0x3e3d12a4	0.18464142
39	0xbe27d1df	-0.16388653
40	0xbe41f855	-0.18942387
41	0xbe2f7409	-0.17134108
42	0x3e8e7653	0.2782465
43	0x3e6f1a45	0.23349865
44	0x3e29db87	0.1658765
45	0x3e5eb279	0.2174777
46	0xbdd50f23	-0.10403278
47	0x3d152020	0.03640759
48	0xbe17d4ee	-0.1482732
49	0xbac49204	-0.0014997129
50	0x3df443b9	0.119269796
51	0xbe19adb6	-0.15007672
52	0x3da08689	0.078381605
53	0x3c30027a	0.010742778
54	0xbe6a5348	-0.22883332
55	0xbdc00509	-0.093759604
56	0xbd84d421	-0.06485773
57	0x3d0b3902	0.033989914
58	0x3ddee256	0.10883014
59	0xbe3a7900	-0.1821022
60	0xbe15f632	-0.14644697
61	0xbd81f777	-0.06346028
62	0x3da35033	0.07974281
63	0x3e15d736	0.14632878
64	0x000557ff	4.90745e-40
65	0x00055a2c	4.91525e-40
66	0x0005675f	4.9626e-40
67	0x00056911	4.96868e-40
68	0x0005626d	4.94486e-40
69	0x80056f2e	-4.99061e-40
70	0x00055d65	4.92681e-40
71	0x00059c6d	5.15292e-40
72	0x800569ad	-4.97087e-40
73	0x80056b19	-4.97597e-40
74	0x0006475b	5.7661e-40
75	0x00056e9c	4.98857e-40
76	0x80056301	-4.94693e-40
77	0x800557f2	-4.90726e-40
78	0x0005656d	4.95562e-40
79	0x80055a93	-4.9167e-40
80	0x000568db	4.96793e-40
81	0x000559b4	4.91357e-40
82	0x00055c76	4.92346e-40
83	0x000565c3	4.95683e-40
84	0x00055eb0	4.93145e-40
85	0x00056353	4.94808e-40
86	0x80055ebf	-4.93166e-40
87	0x0006cd2d	6.24616e-40
88	0x0005e4d8	5.41271e-40
89	0x80058080	-5.05275e-40
90	0x00056d2a	4.98338e-40
91	0x80056cae	-4.98164e-40
92	0x00058010	5.05118e-40
93	0x00056cda	4.98226e-40
94	0x000562fb	4.94685e-40
95	0x80059e23	-5.15906e-40
96	0x800567d7	-4.96428e-40
97	0x00058b54	5.09159e-40
98	0x800564a9	-4.95288e-40
99	0x80056e04	-4.98644e-40
100	0x80058130	-5.05521e-40
101	0x00055ea3	4.93127e-40
102	0x8005adba	-5.21499e-40
103	0x80056356	-4.94813e-40
104	0x0005667d	4.95943e-40
105	0x000568cc	4.96772e-40
106	0x00056462	4.95188e-40
107	0x00056972	4.97004e-40
108	0x80056fe1	-4.99312e-40
109	0x00055a88	4.91654e-40
110	0x0005672b	4.96187e-40
111	0x0005645a	4.95177e-40
112	0x00055ea2	4.93125e-40
113	0x80065efa	-5.85084e-40
114	0x00055846	4.90844e-40
115	0x00057f29	5.04794e-40
116	0x000561fa	4.94325e-40
117	0x00056da3	4.98508e-40
118	0x0005667d	4.95943e-40
119	0x80056cbb	-4.98183e-40
120	0x800577b4	-5.02119e-40
121	0x00055fb9	4.93516e-40
122	0x00056710	4.9615e-40
123	0x8005afe4	-5.22275e-40
124	0x80056558	-4.95533e-40
125	0x8005c267	-5.28916e-40
126	0x0005e6fc	5.42039e-40
127	0x00056987	4.97034e-40
128	0x3d163c5b	0.036678653
129	0x3d1de783	0.038550865
130	0xbc4890bf	-0.012241541
131	0xbd00f027	-0.031479027
132	0x3d3d77fc	0.046257004
133	0xbcf280b1	-0.02960238
134	0xbcc521b0	-0.024063915
135	0xbd0c68cd	-0.034279633
136	0xbcf53db5	-0.02993665
137	0xbcee0cf6	-0.029058915
138	0x3cf5173f	0.029918311
139	0xbcff4f29	-0.031165676
140	0xbce94a39	-0.028477775
141	0x3ca7ac1c	0.02046781
142	0x3d0d7616	0.034536444
143	0x3ce70c63	0.028204149
144	0xbd251d94	-0.04031141
145	0xbd16dd27	-0.036832
146	0xbd055324	-0.032549992
147	0x3cd35099	0.025795268
148	0x3ce2158e	0.027598169
149	0x3cd5d7b7	0.026103837
150	0xbd3ccd97	-0.046094503
151	0x3d016aa4	0.03159584
152	0xbd3a0029	-0.04541031
153	0x3d066a16	0.032816015
154	0xbcbcc180	-0.023041487
155	0xbcf4026e	-0.029786315
156	0xbd078704	-0.033087745
157	0xbd2ae9ca	-0.041726865
158	0x3cdf5ef9	0.027266966
159	0xbd2b95a1	-0.041890744
160	0x3c8d78ec	0.017269574
161	0xbcc1d142	-0.023659352
162	0xbcd378e1	-0.025814475
163	0xbd30506e	-0.043045454
164	0x3cd4caba	0.025975574
165	0x3d1492de	0.036272876
166	0xbcd97f60	-0.026549995
167	0x3d479735	0.048728187
168	0x3cdd9bfd	0.02705192
169	0xbd100d69	-0.03516904
170	0xbd2e218e	-0.04251247
171	0xbd25226a	-0.040316023
172	0xbccf6c45	-0.025320182
173	0x3d06f03d	0.032943953
174	0x3d07a02c	0.033111736
175	0x3cccde21	0.025008263
176	0xbd258545	-0.0404103
177	0xbce06ae6	-0.027394723
178	0x3d05e77f	0.032691475
179	0x3cbcf752	0.02306715
180	0xbd444a18	-0.047922224
181	0x3d1b2a03	0.037881862
182	0xbd25ae15	-0.04044922
183	0xbce3e1b9	-0.027817594
184	0x3c6da7e3	0.014505359
185	0x3d474747	0.04865196
186	0x3d2f5362	0.04280413
187	0xbd37eebe	-0.044905417
188	0xbd42823c	-0.047487482
189	0x3ce2ae62	0.027671043
190	0xbcf8f2ea	-0.030389268
191	0x3c1b16c9	0.009465882
192	0x00055fc8	4.93537e-40
193	0x00055cf1	4.92519e-40
194	0x800567a4	-4.96357e-40
195	0x80055d5d	-4.9267e-40
196	0x00056afa	4.97553e-40
197	0x00056f89	4.99189e-40
198	0x00055967	4.91249e-40
199	0x000565fd	4.95764e-40
200	0x00056e35	4.98712e-40
201	0x00055c65	4.92322e-40
202	0x00055d88	4.9273e-40
203	0x00055c33	4.92252e-40
204	0x80056540	-4.95499e-40
205	0x80055ee5	-4.93219e-40
206	0x800567a5	-4.96358e-40
207	0x80056017	-4.93648e-40
208	0x80058feb	-5.10806e-40
209	0x000570a1	4.99581e-40
210	0x000563e7	4.95016e-40
211	0x8005747e	-5.00967e-40
212	0x80055d36	-4.92615e-40
213	0x0005bd3e	5.27065e-40
214	0x0005620c	4.9435e-40
215	0x80056a88	-4.97394e-40
216	0x80055f4b	-4.93362e-40
217	0x00056075	4.9378e-40
218	0x80069c87	-6.07164e-40
219	0x0005728c	5.00269e-40
220	0x000570f1	4.99693e-40
221	0x80055f10	-4.9328e-40
222	0x800557f6	-4.90732e-40
223	0x00055cf9	4.9253e-40
224	0x80056945	-4.96941e-40
225	0x000565e5	4.9573e-40
226	0x80055a13	-4.9149e-40
227	0x80056274	-4.94496e-40
228	0x00055c32	4.92251e-40
229	0x8005895b	-5.08451e-40
230	0x80056a10	-4.97226e-40
231	0x000586cc	5.07533e-40
232	0x80056be7	-4.97886e-40
233	0x8005573d	-4.90473e-40
234	0x0005a556	5.18489e-40
235	0x00056fe5	4.99318e-40
236	0x80056a20	-4.97248e-40
237	0x000591ff	5.11551e-40
238	0x80055a56	-4.91584e-40
239	0x8006d30c	-6.26722e-40
240	0x00055aae	4.91707e-40
241	0x80056967	-4.96989e-40
242	0x00055ec5	4.93174e-40
243	0x80055fb7	-4.93513e-40
244	0x00058379	5.06341e-40
245	0x000569a6	4.97077e-40
246	0x80057555	-5.01268e-40
247	0x00055d03	4.92544e-40
248	0x00056714	4.96155e-40
249	0x800558e9	-4.91072e-40
250	0x00056c96	4.98131e-40
251	0x8005583a	-4.90827e-40
252	0x0005678b	4.96322e-40
253	0x80055d45	-4.92636e-40
254	0x8005d8e5	-5.36985e-40
255	0x80056c11	-4.97944e-40

embedding.atom_embedding_list.6.weight f4 [6, 64]
0	0x3e2ecdd1	0.170707
1	0xbea9784d	-0.33099595
2	0x3ed61b7c	0.41817844
3	0x3e5c9929	0.21542801
4	0x3b852291	0.0040629585
5	0x3d3c517b	0.045976143
6	0xbc94eff6	-0.018180829
7	0x3e5609b6	0.20902142
8	0x3eafc45f	0.34329507
9	0x3eb5ca64	0.35505974
10	0xbeccfdde	-0.40037435
11	0x3e80a552	0.2512613
12	0x3e028f73	0.12750034
13	0x3e35a4ff	0.17738722
14	0xbede3897	-0.4340255
15	0xbe45bca7	-0.19310246
16	0x3eb34d29	0.35019806
17	0x3cfa5e88	0.030562654
18	0xbe761088	-0.24029744
19	0xbde7aa60	-0.11311793
20	0x3d0f6590	0.035008967
21	0xbe29cc4f	-0.16581844
22	0x3cfd2894	0.030903138
23	0xbebcab41	-0.36849406
24	0x3e8ef278	0.27919364
25	0xbe21724a	-0.15766254
26	0xbe8a43b1	-0.2700477
27	0x3ecc2319	0.39870527
28	0x3de6cd8e	0.11269675
29	0xbdc64778	-0.096816
30	0x3cb37e82	0.02191091
31	0x3eac282d	0.33624402
32	0xbc926c32	-0.017873857
33	0x3de1dd04	0.110284835
34	0xbdf9f49f	-0.12204861
35	0x3e430dea	0.19048277
36	0xbe1f8dda	-0.15581456
37	0xbe413211	-0.18866755
38	0xbddc17da	-0.10746737
39	0xbee58c01	-0.44833377
40	0x3eaf3ce3	0.3422614
41	0x3ea592f5	0.32338682
42	0xbcf41f57	-0.0298001
43	0x3ef66f4d	0.4813179
44	0x3d22383c	0.03960441
45	0xbe48cf84	-0.19610411
46	0xbe9819e2	-0.29707247
47	0x3d2e42ad	0.042544056
48	0x3d58dbcb	0.052943986
49	0xbe5855f7	-0.21126543
50	0x3e507454	0.20356876
51	0xbe581dfa	-0.21105185
52	0x3c22ec26	0.0099439975
53	0xbe10461f	-0.14089249
54	0x3e4a3b07	0.1974908
55	0xbdcdf58e	-0.100566015
56	0x3dc34395	0.095343746
57	0xbe794967	-0.24344407
58	0xbe9bb4bd	-0.3041133
59	0x3ebf9893	0.37421092
60	0x3d2e1bb7	0.0425069
61	0xbde10c46	-0.10988669
62	0xbc327c2c	-0.010893863
63	0xbe9e5a80	-0.3092842
64	0x3e80cfb8	0.25158477
65	0xbe8b744e	-0.2723717
66	0xbe12e183	-0.14343838
67	0x3df026e5	0.117261685
68	0x3de4fdd2	0.11181225
69	0xbe8327f6	-0.25616425
70	0x3ce5201d	0.027969414
71	0xbddee9ff	-0.10884475
72	0xbac887b8	-0.0015299236
73	0xbd1f88d6	-0.038948856
74	0xbe94f7b1	-0.29095224
75	0x3cc06a16	0.023488086
76	0xbe3f71aa	-0.18695703
77	0x3d5dfe7f	0.054197785
78	0xbe18669c	-0.14882892
79	0xbe2fd005	-0.17169197
80	0x3e15c76c	0.14626855
81	0xbe430a18	-0.19046819
82	0x3e5c7d9d	0.21532293
83	0x3cf4b19a	0.029869843
84	0x3e31eab7	0.17374693
85	0x3d5223c2	0.051303633
86	0x3d734551	0.059392277
87	0x3d1008d6	0.035164677
88	0x3e613432	0.21992567
89	0xbc82a762	-0.015948955
90	0x3d1b8e3f	0.037977453
91	0xbe8dba46	-0.27681178
92	0x3e92521f	0.28578278
93	0x3e6b5531	0.22981717
94	0xbe636cf8	-0.22209537
95	0xbe836243	-0.25660905
96	0xbbc7a20e	-0.0060923165
97	0x3d380e85	0.044935722
98	0xbc323b64	-0.010878418
99	0xbd5c73b1	-0.05382127
100	0x3df411e4	0.11917475
101	0xbe2bb5cd	-0.1676857
102	0xbd0d5932	-0.03450889
103	0xbd929a38	-0.07158321
104	0x3d601a96	0.054712854
105	0x3c95b0e1	0.018272819
106	0x3d31afdf	0.043380614
107	0x3d594694	0.053045824
108	0x3d9c57ad	0.0763391
109	0xbd814784	-0.06312469
110	0x3af6da87	0.0018833437
111	0xbe175f27	-0.14782391
112	0x3e8ebc0c	0.27877843
113	0xbde76c9e	-0.11300014
114	0x3ebc3cb0	0.3676505
115	0xbd4711c6	-0.048600934
116	0xbd9f92aa	-0.07791646
117	0x3de3a615	0.11115662
118	0xbdb7e37e	-0.089789376
119	0xbe8b2e4b	-0.27183756
120	0xbd2f0ab5	-0.04273482
121	0x3dd52a29	0.10408432
122	0x3c973d96	0.018461984
123	0x3e3907bd	0.18069358
124	0x3ce63bd1	0.028104695
125	0xbe20161d	-0.15633436
126	0xbe358af3	-0.17728786
127	0xbd33ee80	-0.043928623
128	0xbeb934db	-0.36173138
129	0x3e7dc94c	0.2478382
130	0xbc748cee	-0.014926178
131	0xbed15a90	-0.40889406
132	0x3c8c8d42	0.0171572
133	0xbe00fbf6	-0.12596115
134	0x3b23c5fe	0.0024989839
135	0x3e869ac8	0.26289964
136	0xbd3843ef	-0.04498666
137	0x3eefd752	0.46843964
138	0x3e377549	0.17915834
139	0xbeaefe57	-0.3417842
140	0x3db02d1e	0.086023554
141	0xbd8c6b92	-0.06856455
142	0xbdaa0e72	-0.083035365
143	0x3e94af1e	0.29039854
144	0xbd37ec4b	-0.04490308
145	0xbde751f8	-0.11294931
146	0x3ddc8b7d	0.10768793
147	0xbd35e58a	-0.04440836
148	0xbeba629c	-0.36403358
149	0x3de5d3cc	0.11222038
150	0x3e222565	0.15834577
151	0xbd706c8b	-0.058697265
152	0x3db7ad22	0.08968569
153	0xbddc1cc3	-0.10747673
154	0x3da80da1	0.082057245
155	0x3ead7c59	0.33883932
156	0xbe1c8f5d	-0.15289064
157	0x3be41b1e	0.0069612404
158	0xbdcae667	-0.09907227
159	0x3e2a5fb2	0.16638067
160	0x3e11fb9d	0.14256139
161	0xbe0ad84b	-0.13559072
162	0xbe801543	-0.2501622
163	0x3b4f5dec	0.0031641675
164	0x3d796afa	0.060893036
165	0xbe1d8ec8	-0.15386498
166	0xbe39e12c	-0.18152303
167	0x3e8d3878	0.27582145
168	0x3e546529	0.20741715
169	0xbe473dd0	-0.19457173
170	0x3ec6c05f	0.38818642
171	0x3e97fc55	0.29684702
172	0xbd832ddf	-0.064052336
173	0x3da92b5d	0.08260224
174	0xbd2571e4	-0.040391818
175	0xbbd187cc	-0.006394362
176	0xbd107eda	-0.035277225
177	0x3e7b4826	0.24539241
178	0x3dbe7fcd	0.0930172
179	0x3d995ed7	0.074887924
180	0xbe97cea7	-0.2964985
181	0xbeb713c6	-0.35757273
182	0x3d10f1a7	0.035386708
183	0x3e783cd4	0.24241954
184	0xbdbab957	-0.09117382
185	0x3e001bb7	0.12510572
186	0xbe6f7720	-0.23385286
187	0x3dc6fc7f	0.097161286
188	0x3d583fad	0.0527951
189	0xbd51af11	-0.051192347
190	0xbe386654	-0.18007785
191	0xbe5a4d95	-0.21318658
192	0xbd1d467a	-0.03839729
193	0x3d6afa65	0.0573677
194	0xbbc9caaf	-0.006158195
195	0xbda52fc7	-0.080657534
196	0x3c3969d4	0.011316735
197	0x3d20e511	0.039280955
198	0xbbbf875a	-0.0058449926
199	0x3d39a4d5	0.04532321
200	0x3d8f3b2e	0.069937095
201	0x3d18bb18	0.0372878
202	0x3bd1d879	0.0064039794
203	0xbccf8021	-0.025329651
204	0xbbddd839	-0.0067701605
205	0xbba80dec	-0.0051286127
206	0xbceb99b2	-0.028759811
207	0xbc649e8f	-0.013953819
208	0xbd0c5416	-0.034259878
209	0x3d38a25f	0.045076724
210	0x3bb3473e	0.005471139
211	0x3d1b7d10	0.037961066
212	0xbc8fde89	-0.017562168
213	0x3d1d295e	0.03836953
214	0xbcb34124	-0.021881647
215	0x3c9cc0ae	0.019134846
216	0x3c9e24b6	0.019304615
217	0xbd0fc7ab	-0.035102528
218	0xbc13b36e	-0.009014947
219	0x3d9a05f8	0.0752067
220	0xbd157d03	-0.036496174
221	0xbc04037a	-0.0080574695
222	0xbc6ab516	-0.014325401
223	0x3ce4bb9e	0.027921494
224	0x3c2f5a63	0.010702702
225	0x3c14a3bf	0.009072243
226	0x3d86002c	0.065430015
227	0x3cbbde90	0.022933275
228	0x3cd84635	0.026400665
229	0xbb479c85	-0.0030458283
230	0xbc21ad34	-0.009867955
231	0xbd06cfbc	-0.032912955
232	0xbd023341	-0.03178716
233	0xbc8ccddd	-0.017188007
234	0x3c2ee0ff	0.01067376
235	0x3d6006e5	0.054694075
236	0x3c80bd88	0.015715376
237	0x3ca4c8bb	0.020115247
238	0xbc8e8453	-0.017397081
239	0x3d56eb74	0.05247064
240	0xbce14c4e	-0.027502205
241	0x3cac816d	0.021057809
242	0xbc1e1f70	-0.00965105
243	0xbd04d8ad	-0.0324332
244	0xbd474a4d	-0.048654843
245	0x3c8273a1	0.015924277
246	0xbba956e2	-0.005167828
247	0xbd040c0e	-0.03223806
248	0x3b57b266	0.003291273
249	0xbcb8207c	-0.022476427
250	0xbcf7ebcc	-0.030263804
251	0xbbc27fd1	-0.005935647
252	0xbbd908b0	-0.00662335
253	0x3c277a86	0.010222083
254	0x3ccddd6c	0.025129996
255	0xbd490f14	-0.049086645
