visualizations/best_model_std.pth (torch, 101558 bytes, 16 tensors)

embedding.atom_embedding_list.0.weight f4 [119, 64]
-4.96941e-40 4.99172e-40 4.95946e-40 -5.03613e-40 4.93452e-40 -5.15445e-40 -4.97375e-40 -5.23475e-40
4.93152e-40 5.14218e-40 5.24104e-40 5.00377e-40 -4.98796e-40 -5.18794e-40 -4.94085e-40 5.09352e-40
-4.99898e-40 4.95397e-40 4.93386e-40 4.98396e-40 5.3255e-40 5.66682e-40 -4.99201e-40 4.96623e-40
5.1181e-40 -4.94e-40 5.02595e-40 4.97574e-40 -5.04034e-40 4.95911e-40 4.90638e-40 -4.90827e-40
-4.96141e-40 4.93599e-40 4.96731e-40 -5.24125e-40 -6.2166e-40 4.97514e-40 5.15115e-40 4.98407e-40
-4.92725e-40 4.93977e-40 5.01535e-40 -5.00464e-40 -4.91954e-40 5.32607e-40 -5.2073e-40 4.97813e-40
-5.40593e-40 4.98146e-40 -4.97087e-40 -4.97073e-40 -4.90924e-40 -5.1172e-40 4.99748e-40 4.98103e-40
4.91081e-40 -5.01805e-40 4.93186e-40 5.1102e-40 4.90533e-40 -4.92811e-40 -4.96379e-40 -5.23285e-40
-5.12466e-40 -4.93267e-40 4.96106e-40 -4.913e-40 -4.9918e-40 -5.00998e-40 -4.96652e-40 -4.92718e-40
-5.17439e-40 5.01564e-40 4.94452e-40 5.01996e-40 -5.91492e-40 5.01791e-40 -4.97069e-40 -5.6968e-40
-5.13855e-40 4.9063e-40 4.99194e-40 5.05148e-40 -4.97373e-40 -4.9459e-40 -4.98984e-40 -6.06748e-40
-5.13203e-40 5.30258e-40 5.35646e-40 5.1335e-40 -4.9139e-40 -5.85419e-40 -5.18122e-40 -4.99934e-40
-4.94777e-40 -5.03192e-40 -5.14166e-40 5.07597e-40 -5.29929e-40 5.0783e-40 4.9556e-40 4.97573e-40
4.98593e-40 -5.75753e-40 -5.04919e-40 -5.1282e-40 -4.91517e-40 -4.97165e-40 -4.99703e-40 -5.05332e-40
-4.92139e-40 -5.10747e-40 -5.01015e-40 4.96054e-40 -4.94232e-40 5.06393e-40 5.24273e-40 -5.1255e-40
5.0059e-40 -5.18385e-40 -4.92698e-40 -5.31288e-40 5.09855e-40 4.9444e-40 -4.98352e-40 -5.08978e-40
-5.50356e-40 4.96075e-40 -5.01592e-40 4.95841e-40 -5.22916e-40 4.982e-40 -5.0044e-40 -4.91489e-40
-5.03635e-40 -5.14143e-40 -4.91185e-40 5.20655e-40 -5.02189e-40 -4.91655e-40 -4.9511e-40 4.98631e-40
-4.91717e-40 -5.18043e-40 4.9091e-40 4.9702e-40 4.96735e-40 4.927e-40 5.1428e-40 -5.21055e-40
-4.98362e-40 -5.00304e-40 4.94707e-40 -4.94375e-40 -4.91549e-40 -5.01575e-40 -4.93606e-40 5.31536e-40
-4.93417e-40 -4.9701e-40 -5.04172e-40 4.96371e-40 -4.94843e-40 -5.06285e-40 -4.90728e-40 -4.97279e-40
6.15086e-40 -5.16292e-40 -5.00426e-40 5.00987e-40 4.90878e-40 -4.91326e-40 -4.97968e-40 5.09352e-40
-4.96559e-40 5.28683e-40 5.02281e-40 5.06424e-40 5.02793e-40 -4.96514e-40 4.90808e-40 -4.92461e-40
-4.96648e-40 5.02363e-40 -4.9092e-40 -5.04634e-40 4.98966e-40 4.90907e-40 4.96395e-40 5.00017e-40
5.47347e-40 4.94698e-40 -4.91029e-40 4.91225e-40 4.93038e-40 -5.04086e-40 4.99874e-40 5.15518e-40
4.99113e-40 -4.97806e-40 -4.95969e-40 5.88806e-40 4.9544e-40 5.11428e-40 4.913e-40 -4.91096e-40
-5.07206e-40 5.01968e-40 4.9754e-40 4.90812e-40 4.95398e-40 -5.00862e-40 -4.99822e-40 -5.0013e-40
4.91746e-40 4.90488e-40 5.03693e-40 4.95592e-40 5.14551e-40 5.03386e-40 4.98646e-40 -4.92982e-40
4.95264e-40 4.97608e-40 5.15902e-40 -4.91937e-40 -4.92527e-40 -5.14376e-40 4.96226e-40 -4.95547e-40
4.95523e-40 -5.02762e-40 5.92085e-40 4.9769e-40 4.95789e-40 -5.04613e-40 4.95677e-40 -4.91297e-40
-4.90736e-40 -5.3563e-40 -5.37981e-40 -4.98773e-40 5.20016e-40 -4.90677e-40 4.95359e-40 -4.93383e-40
-5.79217e-40 5.06665e-40 5.0181e-40 4.92596e-40 -4.97207e-40 -5.00744e-40 -5.01015e-40 -4.97129e-40
00000000: 4569 0580 7d6f 0500 7f66 0500 de7b 0580
00000010: 8b5f 0500 da9c 0580 7b6a 0580 3cb3 0580
00000020: b55e 0500 6e99 0500 fdb4 0500 d972 0500
00000030: 716e 0580 30a6 0580 4f61 0580 de8b 0500
00000040: 8371 0580 f764 0500 5c5f 0500 536d 0500
00000050: 88cc 0500 ae2b 0600 926f 0580 6268 0500
00000060: b892 0500 1261 0580 0879 0500 096b 0500
00000070: 0b7d 0580 6666 0500 b357 0500 3a58 0580
00000080: 0a67 0580 f45f 0500 af68 0500 0cb5 0580
00000090: efc4 0680 de6a 0500 ee9b 0500 5b6d 0500
000000a0: 845d 0580 0261 0500 1376 0500 1773 0580
000000b0: 5e5b 0580 b1cc 0500 95ab 0580 b36b 0500
000000c0: f4e2 0580 a16c 0500 ad69 0580 a369 0580
000000d0: 7f58 0580 7892 0580 1871 0500 826c 0500
000000e0: ef58 0500 d476 0580 cd5e 0500 8490 0500
000000f0: 6857 0500 c25d 0580 b467 0580 b5b2 0580
00000100: 8c94 0580 075f 0580 f166 0500 8b59 0580
00000110: 836f 0580 9474 0580 7768 0580 7f5d 0580
00000120: 69a2 0580 2876 0500 5562 0500 5c77 0500
00000130: d770 0680 ca76 0500 a069 0580 0934 0680
00000140: 6b98 0580 ad57 0500 8d6f 0500 2680 0500
00000150: 796a 0580 b762 0580 f76e 0580 5e9b 0680
00000160: 9a96 0580 25c6 0500 2ad5 0500 0397 0500
00000170: cc59 0580 e95f 0680 50a4 0580 9d71 0580
00000180: 3d63 0580 b27a 0580 4999 0580 f986 0500
00000190: 3ac5 0580 a087 0500 6b65 0500 086b 0500
000001a0: e06d 0500 f744 0680 827f 0580 8995 0580
000001b0: 265a 0580 e569 0580 f870 0580 a980 0580
000001c0: e25b 0580 c18f 0580 a074 0580 cc66 0500
000001d0: b861 0580 9e83 0500 76b5 0500 c894 0580
000001e0: 7173 0500 0ca5 0580 715d 0580 04c9 0580
000001f0: 458d 0500 4c62 0500 346d 0580 d38a 0580
00000200: 2bfe 0580 db66 0500 3c76 0580 3466 0500
00000210: adb1 0580 c76c 0500 0673 0580 125a 0580
00000220: ee7b 0580 3999 0580 3959 0580 60ab 0500
00000230: e677 0580 895a 0580 2a64 0580 fb6d 0500
00000240: b55a 0580 18a4 0580 7558 0500 7d69 0500
00000250: b268 0500 725d 0500 9a99 0500 7dac 0580
00000260: 3b6d 0580 a572 0580 0b63 0500 1e62 0580
00000270: 3d5a 0580 3076 0580 f95f 0580 b5c9 0500
00000280: 725f 0580 7669 0580 6d7d 0580 ae67 0500
00000290: 6c63 0580 5183 0580 f357 0580 366a 0580
000002a0: 9cb2 0600 369f 0580 fc72 0580 8c74 0500
000002b0: 5e58 0500 9e59 0580 226c 0580 de8b 0500
000002c0: 3468 0580 c1c1 0500 2878 0500 b483 0500
000002d0: 9579 0500 1468 0580 2c58 0500 c85c 0580
000002e0: 7468 0580 6278 0500 7c58 0580 b77e 0580
000002f0: ea6e 0500 7358 0500 bf67 0500 d871 0500
00000300: c8f5 0500 0463 0500 ca58 0580 5659 0500
00000310: 645e 0500 307d 0580 7271 0500 0e9d 0500
00000320: 536f 0500 ae6b 0580 8f66 0580 5a69 0600
00000330: 1665 0500 a791 0500 8b59 0500 fa58 0580
00000340: e285 0580 4877 0500 f06a 0500 2f58 0500
00000350: f864 0500 3374 0580 4d71 0580 2972 0580
00000360: ca5a 0500 4857 0500 177c 0500 8265 0500
00000370: 5c9a 0500 3c7b 0500 066e 0500 3c5e 0580
00000380: 9864 0500 216b 0500 209e 0500 525b 0580
00000390: f75c 0580 df99 0580 4767 0500 6265 0580
000003a0: 5165 0500 7f79 0580 7e72 0600 5b6b 0500
000003b0: 0f66 0500 a87e 0580 bf65 0500 8959 0580
000003c0: f957 0580 1ed5 0580 acdb 0580 606e 0580
000003d0: 98a9 0500 cf57 0580 dc64 0500 5a5f 0580
000003e0: 9f4e 0680 6084 0500 d876 0500 285d 0500
000003f0: 036a 0580 df73 0580 a074 0580 cb69 0580

embedding.atom_embedding_list.1.weight f4 [5, 64]
0.27929273 0.16175057 -0.16075803 0.39395508 0.3881532 -0.25233734 -0.27955872 -0.24026452
-0.041032057 -0.10262288 -0.15014873 -0.038579855 -0.06526977 -0.049404714 -0.25436798 0.19414997
-0.15300865 -0.13788705 0.20481896 -0.112706766 0.3774597 -0.4158048 -0.00981698 -0.00039134422
0.39974415 -0.19673906 -0.41850227 0.1609527 0.04510692 0.004645216 -0.008651943 0.0008690731
0.010105239 -0.09028869 0.32245174 -0.17116411 0.19346406 0.2043642 -0.05754499 -0.17853785
-0.22052339 0.11014106 -0.0800109 0.120282724 0.27115616 0.012533513 -0.11888179 0.16052456
0.20301946 -0.10658225 -0.038594548 -0.06598476 0.13413095 0.16788039 -0.12308515 -0.2192669
0.2076009 -0.1450445 0.009651749 0.08208089 0.40075195 -0.25706628 -0.10918731 -0.37251195
-4.94957e-40 4.92328e-40 -5.00454e-40 -5.94686e-40 -4.97967e-40 -4.93673e-40 -4.97886e-40 -4.95331e-40
4.90977e-40 -4.95889e-40 -4.95676e-40 4.91475e-40 5.00987e-40 4.93457e-40 4.96788e-40 4.93366e-40
5.10838e-40 4.9745e-40 4.93286e-40 -4.98376e-40 -5.64493e-40 4.93783e-40 5.03754e-40 4.9735e-40
-5.00604e-40 4.9217e-40 4.9064e-40 4.9586e-40 5.01652e-40 4.97342e-40 4.97733e-40 -4.93477e-40
-4.9802e-40 4.93366e-40 -5.41516e-40 5.07221e-40 -5.68427e-40 4.93023e-40 4.94255e-40 4.91937e-40
-4.90763e-40 -5.02286e-40 -4.92608e-40 6.02497e-40 4.94939e-40 -4.9181e-40 -4.90478e-40 4.95831e-40
4.98162e-40 -4.91662e-40 5.1503e-40 4.92832e-40 -4.90464e-40 4.94329e-40 5.01457e-40 4.95781e-40
-4.96022e-40 5.0065e-40 4.94782e-40 4.965e-40 -4.9615e-40 -6.09776e-40 -4.97663e-40 4.99716e-40
-5.14494e-40 -5.31543e-40 -4.94532e-40 4.9966e-40 -4.94137e-40 -4.95632e-40 -4.90796e-40 -5.02274e-40
-5.10392e-40 -4.93897e-40 5.06173e-40 4.90746e-40 -5.60798e-40 -6.10955e-40 4.96851e-40 -5.07793e-40
4.96648e-40 -6.14457e-40 -4.96888e-40 -5.00869e-40 -5.01095e-40 -4.94043e-40 -4.9146e-40 5.03596e-40
4.93265e-40 4.90746e-40 -4.91716e-40 4.92743e-40 -4.96951e-40 6.2216e-40 4.92751e-40 4.93977e-40
4.96978e-40 -4.91976e-40 -4.93648e-40 -4.95377e-40 -5.0471e-40 4.93612e-40 -6.08423e-40 4.97496e-40
4.92884e-40 -4.91071e-40 4.97768e-40 -4.94078e-40 4.91043e-40 4.95855e-40 4.93418e-40 -4.95323e-40
4.9481e-40 4.98623e-40 4.93823e-40 -4.95341e-40 -5.18849e-40 4.93917e-40 4.95302e-40 4.9539e-40
4.93934e-40 6.11116e-40 -5.29328e-40 5.10635e-40 5.01902e-40 -4.93979e-40 -4.96104e-40 -4.91092e-40
-4.92227e-40 4.9153e-40 4.9775e-40 5.34127e-40 5.40834e-40 -4.91199e-40 -4.98033e-40 -4.93899e-40
-5.18217e-40 -4.98324e-40 5.157e-40 -4.94162e-40 -4.95942e-40 -4.93023e-40 4.98669e-40 5.49298e-40
-4.92949e-40 5.7757e-40 -4.98509e-40 4.92e-40 -4.94245e-40 -5.13664e-40 -4.90938e-40 -5.02789e-40
5.25467e-40 5.23602e-40 -4.94685e-40 -4.95436e-40 4.99099e-40 -4.93823e-40 -5.49975e-40 -5.9183e-40
4.92327e-40 -4.95446e-40 -4.91758e-40 4.95471e-40 4.94092e-40 -4.91765e-40 4.93456e-40 4.9218e-40
-4.9273e-40 -4.95587e-40 4.9375e-40 5.08649e-40 4.9665e-40 -5.25861e-40 5.02014e-40 4.96466e-40
-5.30246e-40 6.0109e-40 5.46212e-40 5.00371e-40 -5.03778e-40 -4.99267e-40 4.90546e-40 4.9791e-40
-5.10799e-40 -4.9907e-40 4.93722e-40 -4.94637e-40 4.98422e-40 4.96899e-40 -4.96704e-40 -5.27994e-40
00000000: 75ff 8e3e f1a1 253e c19d 24be 7bb4 c93e
00000010: 04bc c63e 5c32 81be 5222 8fbe e707 76be
00000020: 3b11 28bd f22b d2bd 97c0 19be e905 1ebd
00000030: 28ac 85bd 995c 4abd 853c 82be 40cf 463e
00000040: 4dae 1cbe 4332 0dbe 10bc 513e ced2 e6bd
00000050: 6642 c13e 5ee4 d4be 66d7 20bc 552d cdb9
00000060: 44ab cc3e f775 49be ee45 d6be c9d0 243e
00000070: 09c2 383d e536 983b e1c0 0dbc 82d2 633a
00000080: 7290 253c 47e9 b8bd 6518 a53e a545 2fbe
00000090: 711b 463e d944 513e 4cb4 6bbd a0d2 36be
000000a0: e2d0 61be a391 e13d c1dc a3bd ca56 f63d
000000b0: fbd4 8a3e 5d59 4d3c 4c78 f3bd 8d60 243e
000000c0: 55e4 4f3e cb47 dabd 5115 1ebd 0523 87bd
000000d0: a059 093e d6e8 2b3e 1114 fcbd 8187 60be
000000e0: 5595 543e 8c86 14be 5f22 1e3c 071a a83d
000000f0: 5c2f cd3e 319e 83be 999d dfbd e3b9 bebe
00000100: bd63 0580 695c 0500 1073 0580 be79 0680
00000110: 216c 0580 2960 0580 e76b 0580 c864 0580
00000120: a558 0500 5666 0580 be65 0580 085a 0500
00000130: 8c74 0500 8f5f 0500 d868 0500 4e5f 0500
00000140: 0290 0500 b06a 0500 155f 0500 456d 0580
00000150: 9425 0680 7760 0500 437c 0500 696a 0500
00000160: 7b73 0580 f85b 0500 b457 0500 4266 0500
00000170: 6776 0500 636a 0500 7a6b 0500 9d5f 0580
00000180: 476c 0580 4e5f 0500 87e5 0580 ed85 0500
00000190: 8b30 0680 595e 0500 c861 0500 525b 0500
000001a0: 0c58 0580 2b78 0580 315d 0580 848f 0600
000001b0: b063 0500 f75a 0580 4157 0580 2d66 0500
000001c0: ac6c 0500 8e5a 0580 b29b 0500 d15d 0500
000001d0: 3757 0580 fd61 0500 dc75 0500 0966 0500
000001e0: b566 0580 9c73 0500 4063 0500 0a68 0500
000001f0: 1067 0580 cfa3 0680 486b 0580 0171 0500
00000200: 339a 0580 bac9 0580 8e62 0580 d970 0500
00000210: 7461 0580 9f65 0580 2458 0580 2378 0580
00000220: c48e 0580 c960 0580 0183 0500 0058 0500
00000230: 471b 0680 18a7 0680 0569 0500 8587 0580
00000240: 7468 0500 dbb0 0680 1f69 0580 3874 0580
00000250: d974 0580 3161 0580 fe59 0580 d27b 0500
00000260: 065f 0500 0058 0500 b45a 0580 915d 0500
00000270: 4c69 0580 54c6 0600 975d 0500 0261 0500
00000280: 5f69 0500 6e5b 0580 1760 0580 e964 0580
00000290: ed7e 0580 fd5f 0500 09a0 0680 d16a 0500
000002a0: f65d 0500 e858 0580 936b 0500 4a61 0580
000002b0: d458 0500 3e66 0500 735f 0500 c264 0580
000002c0: 5463 0500 f56d 0500 9460 0500 cf64 0580
000002d0: 57a6 0580 d760 0500 b364 0500 f264 0500
000002e0: e360 0500 8ba7 0600 8dc3 0580 718f 0500
000002f0: 1977 0500 0361 0580 f066 0580 f758 0580
00000300: 215c 0580 305a 0500 866b 0500 eed0 0500
00000310: a0e3 0500 4359 0580 506c 0580 ca60 0580
00000320: 94a4 0580 206d 0580 909d 0500 8661 0580
00000330: 7c66 0580 595e 0580 166e 0500 38fb 0500
00000340: 245e 0580 084a 0600 a46d 0580 7f5b 0500
00000350: c161 0580 e397 0580 8958 0580 9279 0580
00000360: cab8 0500 97b3 0500 fb62 0580 1365 0580
00000370: 496f 0500 9460 0580 1bfd 0580 c871 0680
00000380: 685c 0500 1a65 0580 d25a 0580 2c65 0500
00000390: 5461 0500 d75a 0580 8e5f 0500 ff5b 0500
000003a0: 885d 0580 7f65 0580 6060 0500 e889 0500
000003b0: 7568 0500 e3b9 0580 6977 0500 f267 0500
000003c0: 1cc6 0580 988b 0600 9ef2 0500 d572 0500
000003d0: 547c 0580 c16f 0580 7157 0500 f86b 0500
000003e0: e68f 0580 346f 0580 4c60 0500 d962 0580
000003f0: 666d 0500 2769 0500 9c68 0580 d5bf 0580

embedding.atom_embedding_list.2.weight f4 [12, 64]
-4.90967e-40 -4.98966e-40 -5.83373e-40 4.95104e-40 -4.92971e-40 -5.00811e-40 -4.92409e-40 -4.95356e-40
4.93449e-40 4.9292e-40 5.00662e-40 -5.08534e-40 4.94185e-40 4.94088e-40 5.69223e-40 5.34028e-40
4.98959e-40 -5.03237e-40 4.92359e-40 5.74884e-40 -4.93686e-40 5.08193e-40 4.95414e-40 4.95988e-40
5.05251e-40 5.04964e-40 4.93714e-40 -4.90915e-40 -5.43096e-40 5.0588e-40 -5.42876e-40 4.92017e-40
-4.997e-40 4.94646e-40 5.71941e-40 -4.99591e-40 4.94302e-40 -4.97172e-40 4.97977e-40 -5.04645e-40
-4.91103e-40 -5.16656e-40 4.9871e-40 -4.97977e-40 -4.96523e-40 4.93443e-40 4.93442e-40 4.91723e-40
4.99088e-40 4.90766e-40 -4.96507e-40 4.92362e-40 4.95316e-40 4.90561e-40 4.95042e-40 5.4169e-40
5.52165e-40 -4.97426e-40 -4.99688e-40 5.73249e-40 5.10178e-40 4.96133e-40 4.98679e-40 4.95936e-40
0.18280919 0.07505543 -0.09878282 0.24616322 -0.0403379 -0.28628513 -0.3749414 -0.066887565
0.07625916 0.0012132275 -0.33543617 -0.026530553 -0.009587689 0.062371787 -0.08033046 0.24224435
0.023428744 0.06799181 0.20150682 0.13869925 0.19978377 -0.3222654 0.09599096 -0.116236106
0.39314854 -0.026110997 -0.19911739 0.20408611 0.1596097 -0.08876516 0.1711906 -0.28487095
0.015395122 0.18738471 0.41374785 -0.091159135 0.14721195 0.18626618 0.23724487 0.12933059
-0.027297499 0.094378464 0.18044621 0.11498341 0.5655437 -0.34369516 -0.07686924 0.12325015
-0.043895036 -0.21726944 0.0987328 -0.09374388 -0.22899564 -0.09936215 -0.11505672 -0.12606125
-0.15040505 -0.09669953 0.2349566 0.18643893 0.2832182 -0.14993668 -0.31892142 -0.2470451
-0.16509704 -0.57023335 -0.6180054 -0.013962832 0.889265 0.38292027 -0.06539699 -0.65281355
-0.037444964 -0.70001274 -0.2026011 -0.12249882 -1.0858984 -0.68307555 -0.95767695 -0.5506088
-0.7632191 -0.91608775 0.42680463 -0.5694286 0.320776 0.44739467 0.31364575 0.9867987
-0.41130915 -0.63721126 -0.7013537 -0.5263656 0.18284705 0.4152921 -0.861101 0.65597713
-0.9286289 -0.36574572 0.16619705 0.12126132 0.73056024 -0.8527735 -0.23906025 -1.0841645
-0.31239343 0.64621127 -0.11051378 0.72566897 -0.40678638 0.18402623 0.47195625 -0.18122569
0.60115093 0.10823013 -0.46284184 -0.6862454 0.8671185 0.09805205 -0.17237763 -0.81627494
0.6861806 -0.5522816 -0.23996148 0.27480957 -0.48607275 -0.45105025 0.22091474 -0.57716846
0.5483426 0.1651839 0.9833526 0.08727027 -0.42611954 0.26119626 0.37978074 0.053378824
0.007063858 0.09067487 -0.04555912 0.06159883 0.75640416 0.26190305 0.39935973 0.35863706
0.80240405 0.30235136 -0.54749334 0.46972394 0.02363889 -0.20588632 -0.29973093 -0.4523499
0.18850994 0.27916968 0.43792614 -0.028729541 -0.08436809 -0.18373036 0.40229815 -0.34357965
0.07603878 -0.043759916 -0.16546778 -0.61399776 -0.43896797 0.56413215 0.3061414 0.63678646
0.39014697 -0.2738026 -0.280663 -0.5131813 0.043833088 0.14600532 -0.36639348 -0.27690846
-0.49426508 -0.0814183 0.42147085 0.6967915 -0.26690936 -0.22902775 -0.36210808 0.21898952
-0.68953377 0.638018 0.0419235 0.15670368 0.3610774 0.049020085 -0.19507636 0.21070789
00000000: 9e58 0580 ea6e 0580 355a 0680 2664 0500
00000010: 345e 0580 0f74 0580 a35c 0580 da64 0580
00000020: 895f 0500 0f5e 0500 a473 0500 9689 0580
00000030: 9661 0500 5161 0500 c332 0600 a7d0 0500
00000040: e56e 0500 d27a 0580 7f5c 0500 8b42 0600
00000050: 3260 0580 a388 0500 0365 0500 9d66 0500
00000060: 6f80 0500 a27f 0500 4660 0500 7958 0580
00000070: eee9 0580 3082 0500 51e9 0580 8b5b 0500
00000080: f670 0580 df62 0500 573a 0600 a870 0580
00000090: ea61 0500 ea69 0580 286c 0500 bf7e 0580
000000a0: ff58 0580 3aa0 0580 336e 0500 286c 0580
000000b0: 1b68 0580 855f 0500 845f 0500 b95a 0500
000000c0: 416f 0500 0e58 0500 0f68 0580 815c 0500
000000d0: bd64 0500 7c57 0500 fa63 0500 03e6 0500
000000e0: 3603 0600 9f6a 0580 ed70 0580 fc3d 0600
000000f0: 2b8e 0500 0467 0500 1d6e 0500 7866 0500
00000100: 5532 3b3e a9b6 993d a64e cabd 3612 7c3e
00000110: 5b39 25bd f793 92be 52f8 bfbe 59fc 88bd
00000120: c32d 9c3d 2905 9f3a 4abe abbe 9a56 d9bc
00000130: af15 1dbc 8f79 7f3d 4c84 a4bd e70e 783e
00000140: a3ed bf3c 4a3f 8b3d ce57 4e3e 2d07 0e3e
00000150: 1e94 4c3e f8ff a4be e996 c43d 320d eebd
00000160: c44a c93e bbe6 d5bc 6ee5 4bbe f3fb 503e
00000170: ba70 233e 82ca b5bd 974c 2f3e 9bda 91be
00000180: d23b 7c3c c7e1 3f3e c2d6 d33e a4b1 babd
00000190: bbbe 163e 90bc 3e3e 52f0 723e 3d6f 043e
000001a0: 019f dfbc 7f49 c13d e4c6 383e 6c7c eb3d
000001b0: 79c7 103f d0f8 afbe 9f6d 9dbd 936a fc3d
000001c0: 48cb 33bd e17b 5ebe 6c34 ca3d cbfc bfbd
000001d0: d57d 6abe 627e cbbd dca2 ebbd 3316 01be
000001e0: c803 1abe 670a c6bd 7798 703e d9e9 3e3e
000001f0: fa01 913e 0089 19be ab49 a3be 64f9 7cbe
00000200: 330f 29be d0fa 11bf 9a35 1ebf 5dc4 64bc
00000210: dfa6 633f 200e c43e dbee 85bd ca1e 27bf
00000220: e45f 19bd 0934 33bf aa76 4fbe a9e0 fabd
00000230: b8fe 8abf 0ade 2ebf 512a 75bf b3f4 0cbf
00000240: 5462 43bf ba84 6abf 2386 da3e 13c6 11bf
00000250: c03c a43e ea10 e53e 2d96 a03e d79e 7c3f
00000260: 1d97 d2be 4720 23bf eb8b 33bf e5bf 06bf
00000270: 423c 3b3e 2ba1 d43e 1d71 5cbf 1eee 273f
00000280: a0ba 6dbf 0643 bbbe 8f2f 2a3e db57 f83d
00000290: ff05 3b3f 5d4f 5abf 36cc 74be e7c5 8abf
000002a0: 08f2 9fbe 1a6e 253f 0c55 e2bd 71c5 393f
000002b0: 4e46 d0be 5f71 3c3e 40a4 f13e 3a93 39be
000002c0: 07e5 193f c2a7 dd3d 9bf9 ecbe c7ad 2fbf
000002d0: 7afb 5d3f 83cf c83d c383 30be 65f7 50bf
000002e0: 88a9 2f3f 5462 0dbf 76b8 75be d7b3 8c3e
000002f0: 87de f8be 0ff0 e6be 7937 623e 50c1 13bf
00000300: 2e60 0c3f f825 293e ffbc 7b3f c1ba b23d
00000310: 572c dabe 84bb 853e 9f72 c23e c1a3 5a3d
00000320: f077 e73b bfb3 b93d 339c 3abd 0e4f 7c3d
00000330: b4a3 413f 2818 863e e178 cc3e 479f b73e
00000340: 5a6a 4d3f cccd 9a3e 8628 0cbf a87f f03e
00000350: 58a6 c13c ddd3 52be 5576 99be 689a e7be
00000360: c008 413e 54ef 8e3e db37 e03e 375a ebbc
00000370: 2dc9 acbd d023 3cbe 06fa cd3e ace9 afbe
00000380: 38ba 9b3d 993d 33bd 6370 29be f52e 1dbf
00000390: 69c0 e0be f76a 103f 91be 9c3e 7004 233f
000003a0: 58c1 c73e db2f 8cbe 10b3 8fbe da5f 03bf
000003b0: 538a 333d 6b82 153e ed97 bbbe f2c6 8dbe
000003c0: 5010 fdbe a3be a6bd 07cb d73e ee60 323f
000003d0: 58a8 88be 4086 6abe 3b66 b9be ca3e 603e
000003e0: 4985 30bf 2655 233f fab7 2b3d ee76 203e
000003f0: 23df b83e 49c9 483d 19c2 47be cfc3 573e

embedding.atom_embedding_list.3.weight f4 [12, 64]
-0.00024374803 0.0031415157 0.0075804414 -3.0786785e-05 0.024021512 0.023105461 -0.0025908984 -0.009069824
-0.00030218976 -0.014309286 -0.022404315 -0.0005072937 -0.0013711231 -0.030894276 -0.021059873 -0.00014083715
-0.005219563 -0.007245438 0.0002216244 0.0006811251 0.015939137 0.00020496985 0.0048340573 0.008394142
-0.0024567486 0.0004290049 -0.027874885 0.002191899 0.022956923 -0.002635823 -0.0012314727 -0.0045104735
-0.01648217 0.002402237 0.016457949 0.0002414385 0.013032791 -0.0012223517 0.0013535544 -0.0015612646
-0.021873772 0.010263892 -0.0015535161 0.021470271 0.037701964 -0.0046666223 0.0011546009 -0.001098422
0.0022754245 -0.005666624 -0.002823077 -0.01418826 -0.00025167907 -0.00030731419 -0.00032643753 -0.014476276
-0.003515995 3.4254828e-07 -0.00028740734 0.016061584 -0.00030285885 -0.013156509 -0.0062108785 -0.018751092
-0.026270626 -0.17786853 0.0076321824 -0.1487656 0.040124297 0.13533108 0.27332997 -0.015091954
0.006295143 -0.22195476 0.06674445 -0.011177404 -0.16521831 0.17672484 -0.06512277 -0.15505065
0.05133191 -0.06991135 -0.050422605 0.0018304895 -0.07924119 0.19821577 -0.09554156 0.10701171
-0.1069652 -0.14825416 0.036526166 -0.14638764 -0.2117274 0.07937212 -0.16515748 0.088240534
-0.12503065 -0.10468121 -0.062372442 -0.06993773 -0.019362507 -0.056260467 -0.11809156 -0.19734737
0.21276455 0.092890464 -0.036586057 0.012209194 -0.375659 0.24663052 0.034906663 -0.09576661
0.059836827 0.18822388 -0.09796595 0.025305593 0.23320073 0.019186957 -0.04261858 -0.10529622
0.12385125 0.15594068 -0.08957362 0.08687613 -0.09439519 0.20281297 0.32561097 0.022783816
0.11714885 -0.1679974 0.033673137 0.020322336 -0.18597159 0.0028052905 -0.094038 0.07152206
0.10874531 0.120796725 -0.23337476 -0.034385026 -0.009531628 0.27692866 0.061693735 -0.074217424
0.007739646 0.036201224 -0.059502188 -0.015316429 -0.028421596 -0.10606204 -0.0519747 -0.066861115
-0.08378885 -0.16653697 0.1499469 -0.065026306 0.10249172 0.061606627 -0.02613044 -0.06841919
-0.062098183 0.079601 0.14778803 -0.080217086 -0.07334989 -0.0005840161 -0.048904117 -0.062276162
0.091532946 -0.115030974 0.0025572525 0.088757165 0.13082232 -0.042598642 -0.012141211 0.00948619
-0.12758575 -0.15069029 0.010554176 0.08622494 -0.036531422 0.18321045 -0.14387335 -0.228542
0.04650752 -0.13749431 0.06868069 0.11055637 -0.18382424 0.06363348 -0.046990905 -0.0612089
-0.06926839 -0.0635751 0.2997843 -0.056946505 0.02776827 0.31642854 -0.106306136 0.031050531
-0.103512816 0.31970614 0.070970975 0.05532881 0.17975071 -0.153081 0.045723356 0.02474447
0.02388563 0.020340826 -0.007468731 0.0035320902 -0.10242925 0.025772106 0.1572722 -0.07410399
-0.023115523 0.08649554 0.11803674 0.22794254 0.18140635 -0.012118707 0.0961397 0.15032002
-0.06702101 -0.030296264 -0.10562661 0.15108795 0.009847372 0.05788765 0.20033897 0.12976967
-0.0511709 0.018407008 0.12598148 0.09207774 0.103359535 -0.3026113 0.122635104 -0.11549062
-0.051597018 -0.0034209418 0.006774307 0.13614638 -0.12562613 -0.1272689 0.10579357 0.16161716
-0.14398909 -0.0110778315 -0.010201702 -0.055121034 0.039764777 -0.14680949 -0.15020198 0.06463029
00000000: 9d96 7fb9 e3e1 4d3b 5a65 f83b 0f21 01b8
00000010: c3c8 c43c aa47 bd3c 10cc 29bb 9999 14bc
00000020: 396f 9eb9 7f71 6abc 4189 b7bc e7fb 04ba
00000030: 42b7 b3ba fe15 fdbc c185 acbc afad 13b9
00000040: de08 abbb 246b edbb d963 6839 888d 323a
00000050: cb92 823c 2ded 5639 0367 9e3b 9587 093c
00000060: 6701 21bb 10ec e039 df59 e4bc f7a5 0f3b
00000070: 2810 bc3c c6bd 2cbb 5e69 a1ba 98cc 93bb
00000080: 9e05 87bc d96e 1d3b d2d2 863c a72a 7d39
00000090: 7d87 553c 5137 a0ba c069 b13a 59a3 ccba
000000a0: a030 b3bc e229 283c 5a9f cbba 6ce2 af3c
000000b0: 606d 1a3d 77ea 98bb fa55 973a edf8 8fba
000000c0: 4a1f 153b 16af b9bb 5f03 39bb e075 68bc
000000d0: cbf3 83b9 031f a1b9 b425 abb9 e72d 6dbc
000000e0: 9c6c 66bb 7ae7 b734 29af 96b9 9593 833c
000000f0: 07c9 9eb9 668e 57bc a084 cbbb e49b 99bc
00000100: 7f35 d7bc 2b23 36be 6317 fa3b 0256 18be
00000110: 6059 243d 3b94 0a3e e8f1 8b3e 3e44 77bc
00000120: 7d47 ce3b 1c48 63be 50b1 883d 6e21 37bc
00000130: fd2e 29be 5bf7 343e 165f 85bd 99c5 1ebe
00000140: 6941 523d af2d 8fbd ef87 4ebd 09ed ef3a
00000150: 3449 a2bd 13f9 4a3e 4bab c3bd f528 db3d
00000160: 9210 dbbd f0cf 17be 769c 153d a4e6 15be
00000170: 11cf 58be da8d a23d 0b1f 29be 74b7 b43d
00000180: 0908 00be 1a63 d6bd 3f7a 7fbd 833b 8fbd
00000190: 1f9e 9ebc 6071 66bd fdd9 f1bd 6e15 4abe
000001a0: f3de 593e 5b3d be3d 43db 15bd 1209 483c
000001b0: 6056 c0be b68c 7c3e 4afa 0e3d 4921 c4bd
000001c0: 7617 753d c3bd 403e 5fa2 c8bd ad4d cf3c
000001d0: 2ccc 6e3e f72d 9d3c d290 2ebd 8ba5 d7bd
000001e0: b9a5 fd3d eaae 1f3e 6072 b7bd 1dec b13d
000001f0: 4452 c1bd 34ae 4f3e 7bb6 a63e 20a5 ba3c
00000200: bceb ef3d 8307 2cbe d8ec 093d 077b a63c
00000210: 566f 3ebe f7d8 373b ff96 c0bd 287a 923d
00000220: dcb5 de3d 4664 f73d cbf9 6ebe 50d7 0cbd
00000230: 8c2a 1cbc 98c9 8d3e 92b2 7c3d 4eff 97bd
00000240: db9c fd3b bc47 143d 91b8 73bd c2f1 7abc
00000250: 68d4 e8bc 0e37 d9bd 6ce3 54bd 7bee 88bd
00000260: 7d99 abbd ab88 2abe ae8b 193e 832c 85bd
00000270: 2ee7 d13d 3b57 7c3d 810f d6bc 5c1f 8cbd
00000280: aa5a 7ebd d905 a33d bf55 173e db48 a4bd
00000290: 7838 96bd a818 19ba af4f 48bd 4a15 7fbd
000002a0: a075 bb3d 5c95 ebbd 9497 273b 51c6 b53d
000002b0: 49f6 053e ea7b 2ebd eeeb 46bc f76b 1b3c
000002c0: d7a5 02be 8e4e 1abe 6ceb 2c3c b496 b03d
000002d0: f9a1 15bd 859b 3b3e 8953 13be ea06 6abe
000002e0: ab7e 3e3d 4fcb 0cbe 76a8 8c3d 616b e23d
000002f0: 6c3c 3cbe 4552 823d 8979 40bd 2fb6 7abd
00000300: 96dc 8dbd a933 82bd 547d 993e bd40 69bd
00000310: 487a e33c ec02 a23e 08b7 d9bd af5d fe3c
00000320: 87fe d3bd 86b0 a33e 3b59 913d 76a0 623d
00000330: 9210 383e 44c1 1cbe 6a48 3b3d eab4 ca3c
00000340: ccab c33c cea1 a63c 42bc f4bb a47a 673b
00000350: 6dc6 d1bd 0620 d33c f70b 213e d5c3 97bd
00000360: c45c bdbc 9324 b13d 3fbd f13d c569 693e
00000370: 96c2 393e 8b8d 46bc e4e4 c43d 7eed 193e
00000380: 5042 89bd df2f f8bc c452 d8bd cdb6 1a3e
00000390: df56 213c 9a1b 6d3d a925 4d3e 57e2 043e
000003a0: 9498 51bd 4bca 963c 4a01 013e 4193 bc3d
000003b0: 2aae d33d deef 9abe 1d28 fb3d 5986 ecbd
000003c0: 6557 53bd e131 60bb 02fb dd3b f569 0b3e
000003d0: 23a4 00be c752 02be 4daa d83d f87e 253e
000003e0: e071 13be cb7f 35bc 0a25 27bc 98c6 61bd
000003f0: 64e0 223d 3a55 16be 8cce 19be e35c 843d

embedding.atom_embedding_list.4.weight f4 [10, 64]
0.15946145 -0.11160735 -0.027339479 0.090506904 0.4897626 0.36754975 0.11791091 -0.49871102
-0.25376162 0.17576654 0.12354247 0.06311166 -0.13248675 -0.85540426 0.040151488 -0.3727903
-0.40397966 -0.6334792 0.097704604 -0.21008447 0.3508951 0.06415195 0.3274352 0.23730783
-0.37877998 0.049073625 -0.17584524 -0.21913955 0.4432115 0.16185433 0.012566641 0.37063393
-0.16655941 -0.094235286 -0.014009134 0.18743797 0.37812564 -0.16375253 0.06223057 0.08307476
-0.46578968 0.23083203 -0.15558246 -0.18768147 -0.042086754 -0.33011726 0.6062824 -0.3765004
-0.023053383 -0.43603027 -0.19796565 -0.19242717 0.16337642 -0.14018992 -0.09011828 0.09976216
-0.16066246 -0.020873597 -0.1459837 0.0034555322 -0.24425726 -0.41810527 -0.400479 0.11419263
-0.15554637 0.012508424 0.25660256 -0.77007437 -0.6280711 -0.25007668 -0.08951537 0.6569173
0.6832125 -0.41260186 -0.2939073 -0.2363962 0.19115186 1.0479186 -0.14805101 -0.02887482
0.14106965 0.5062853 -0.27277032 0.23128566 -0.5762043 0.37436917 -0.63069665 -0.099050544
-0.26177868 0.2639709 -0.10743985 -0.026508195 -0.19756825 -0.5416215 0.09842479 -0.5133355
0.16021152 0.19294205 -0.019710734 -0.109138675 -0.083900474 0.039735705 -0.009569572 0.021258948
0.5642987 -0.27401948 -0.19506133 0.3068173 -0.03179479 -0.01239292 -0.87395805 0.3952348
-0.53301036 0.14610067 -0.07704917 0.11616499 -0.72073704 0.4597128 0.06508917 -0.3588577
-0.06703398 0.33161974 0.46408346 0.24309738 -0.30971092 0.850033 0.56263787 -0.18890543
-0.14112224 0.2432037 -0.17775698 0.35720882 0.24409069 -0.015611359 -0.43945396 -0.13819277
0.16382521 0.0019768167 -0.5502511 0.35167578 -0.1353681 0.0073232464 -0.17913096 -0.123431265
0.2548291 -0.381996 -0.30474547 -0.009671527 0.3694962 -0.51594186 0.42886323 0.28642946
0.40058678 -0.6032341 -0.029683927 0.5427492 -0.16906911 0.5569106 -0.5661114 -0.57705224
-0.27399454 0.14247611 0.8947356 -0.24107565 -0.16166474 0.114277735 0.07171273 -0.7438166
-0.46374622 0.06080468 0.47647473 0.25633255 0.5447587 0.061686914 0.1786323 -0.2716629
0.6552146 -0.5256604 -0.46403918 -0.3057636 0.15592787 -0.3023644 0.4142453 -0.1923309
0.28187037 -0.53788745 -0.6950264 0.56005466 0.26801488 -0.22160247 -0.14189439 -0.25169334
0.3223389 -0.05268348 -0.33086833 0.61445284 0.15661664 -0.26845095 -0.22650653 -0.43485847
-0.3135501 0.1961393 0.46019614 -0.0840264 0.0821729 -0.34910893 0.2506674 0.52945685
-0.23601364 0.23504087 0.27450126 -0.30699453 0.35562444 -0.22523469 -0.09782286 -0.30186167
0.77634954 0.14185384 -0.0145148365 -0.080412276 -0.057439994 -0.0280762 0.23740095 0.57506794
0.32063228 -0.3724869 -0.43189767 -0.02763214 0.112783164 0.22723055 -0.03965581 0.40075386
-0.16490263 -0.23699132 -0.15270154 -0.37345806 -0.36713195 -0.14212132 0.24470451 -0.07359327
0.004349741 0.3357259 0.48377138 0.33716455 0.2682315 -0.075185336 -0.17296113 0.29492182
-0.0741363 0.14139754 0.13758335 -0.52788216 0.7275872 -0.13607493 0.17587993 -0.051020686
00000000: dd49 233e 6592 e4bd 0bf7 dfbc af5b b93d
00000010: 2ac2 fa3e 7b2f bc3e 467b f13d 0d57 ffbe
00000020: 0bed 81be 25fc 333e d603 fd3d b040 813d
00000030: 9baa 07be c6fb 5abf e375 243d 5fde bebe
00000040: 6cd6 cebe b12b 22bf 5a19 c83d 6220 57be
00000050: 86a8 b33e 1962 833d 96a5 a73e d300 733e
00000060: 73ef c1be 6d01 493d c610 34be 1e66 60be
00000070: 9eec e23e 24bd 253e 50e4 4d3c bbc3 bd3e
00000080: 8d8e 2abe 6efe c0bd 9186 65bc bdef 3f3e
00000090: af99 c13e beae 27be 7be5 7e3d 1a23 aa3d
000000a0: fc7b eebe 3b5f 6c3e 0251 1fbe 922f 40be
000000b0: 2963 2cbd 2105 a9be 5335 1b3f a9c4 c0be
000000c0: 73da bcbc 5c3f dfbe 82b7 4abe a10b 45be
000000d0: 264c 273e f28d 0fbe ef8f b8bd 1a50 cc3d
000000e0: b384 24be 1bff aabc c07c 15be 3676 623b
000000f0: 931e 7abe e511 d6be 950b cdbe d3dd e93d
00000100: 8c47 1fbe 22f0 4c3c 6961 833e 9823 45bf
00000110: 45c9 20bf 0d0a 80be d653 b7bd bb2b 283f
00000120: 04e7 2e3f 8d40 d3be 057b 96be d811 72be
00000130: 50bd 433e 3222 863f af9a 17be e38a ecbc
00000140: 9074 103e ea9b 013f 8da8 8bbe 26d6 6c3e
00000150: 2082 13bf 51ad bf3e 5675 21bf 03db cabd
00000160: db07 86be 3227 873e 6d09 dcbd b727 d9bc
00000170: 554f 4abe b5a7 0abf f092 c93d f569 03bf
00000180: 7d0e 243e 9a92 453e 6878 a1bc 1984 dfbd
00000190: 03d4 abbd e8c1 223d b2c9 1cbc 3f27 ae3c
000001a0: e175 103f 484c 8cbe 28be 47be 2817 9d3e
000001b0: 413b 02bd ad0b 4bbc b7bb 5fbf 375c ca3e
000001c0: 5e73 08bf 6a9b 153e f5cb 9dbd e9e7 ed3d
000001d0: 3982 38bf 7a5f eb3e 794d 853d 32bc b7be
000001e0: 1c49 89bd 10ca a93e 599c ed3e 85ee 783e
000001f0: 6e92 9ebe c39b 593f 0909 103f 6d70 41be
00000200: 5982 10be 640a 793e ed05 36be 13e4 b63e
00000210: e9f2 793e c9c6 7fbc 1c00 e1be 6882 0dbe
00000220: ccc1 273e 7b8d 013b 42dd 0cbf d90e b43e
00000230: ef9d 0abe d8f7 ef3b 1b6e 37be 88c9 fcbd
00000240: f678 823e fb94 c3be 9907 9cbe 5375 1ebc
00000250: 9b2e bd3e c414 04bf f693 db3e e2a6 923e
00000260: b619 cd3e 8d6d 1abf b52b f3bc 9df1 0a3f
00000270: 7420 2dbe b191 0e3f adec 10bf b2b9 13bf
00000280: 0349 8cbe 42e5 113e 640d 653f 89dc 76be
00000290: 718b 25be 720a ea3d 20de 923d c46a 3ebf
000002a0: 2570 edbe 540e 793d 7ff4 f33e 053e 833e
000002b0: 4e75 0b3f 6bab 7c3d 63eb 363e 6617 8bbe
000002c0: 25bc 273f ae91 06bf 8b96 edbe 0c8d 9cbe
000002d0: 8eab 1f3e 82cf 9abe f617 d43e 64f2 44be
000002e0: 5051 903e feb2 09bf 40ed 31bf be5f 0f3f
000002f0: 3f39 893e c2eb 62be c34c 11be f3dd 80be
00000300: 9b09 a53e a2ca 57bd 9367 a9be c84c 1d3f
00000310: 1d60 203e 6772 89be 54f1 67be c5a5 debe
00000320: a489 a0be bed8 483e d49e eb3e 0916 acbd
00000330: 444a a83d 68be b2be 7a57 803e 7c8a 073f
00000340: 8fad 71be 8eae 703e 6e8b 8c3e 632e 9dbe
00000350: 6814 b63e eca3 66be 5a57 c8bd 9d8d 9abe
00000360: d8be 463f 2242 113e a3cf 6dbc 31af a4bd
00000370: 3346 6bbd 0f00 e6bc 3c19 733e a737 133f
00000380: ea29 a43e 9ab6 bebe b121 ddbe cc5c e2bc
00000390: dcfa e63d 20af 683e 216e 22bd 9c2f cd3e
000003a0: 3cdc 28be daad 72be cb5d 1cbe e535 bfbe
000003b0: b8f8 bbbe 4088 11be d293 7a3e 11b8 96bd
000003c0: 4688 8e3b 44e4 ab3e e2b0 f73e d5a0 ac3e
000003d0: a455 893e c5fa 99bd b91c 31be feff 963e
000003e0: c6d4 97bd 84ca 103e a6e2 0c3e 4923 07bf
000003f0: 2843 3a3f 3a57 0bbe de19 343e 11fb 50bd

embedding.atom_embedding_list.5.weight f4 [6, 64]
0.32396832 0.023560012 -0.1764014 0.39124453 0.39138672 -0.27217835 -0.46225616 -0.26565534
0.14465182 -0.09766301 -0.122668594 -0.026364474 -0.0731239 -0.1771082 -0.27457017 0.14672343
-0.26949605 -0.2914841 0.17902654 -0.16529182 0.3028849 -0.31513652 0.16813584 0.12075285
0.27805382 -0.22280452 -0.42549673 0.104301766 -0.037944287 0.015829286 -0.010286868 -0.12850082
0.0852812 -0.10822551 0.3650487 -0.06311828 0.029795792 0.20004655 0.0068066115 -0.1938224
-0.29872766 -0.066041954 0.092838556 0.18765007 0.2856484 0.054096658 -0.077966 0.12314449
0.08984851 -0.094540946 0.08482843 -0.15622054 0.0918146 0.087829314 -0.21682608 -0.33653256
0.11848741 -0.15784141 0.08232463 0.010390015 0.276781 -0.21249707 -0.0070147705 -0.31343368
4.90745e-40 4.91525e-40 4.9626e-40 4.96868e-40 4.94486e-40 -4.99061e-40 4.92681e-40 5.15292e-40
-4.97087e-40 -4.97597e-40 5.7661e-40 4.98857e-40 -4.94693e-40 -4.90726e-40 4.95562e-40 -4.9167e-40
4.96793e-40 4.91357e-40 4.92346e-40 4.95683e-40 4.93145e-40 4.94808e-40 -4.93166e-40 6.24616e-40
5.41271e-40 -5.05275e-40 4.98338e-40 -4.98164e-40 5.05118e-40 4.98226e-40 4.94685e-40 -5.15906e-40
-4.96428e-40 5.09159e-40 -4.95288e-40 -4.98644e-40 -5.05521e-40 4.93127e-40 -5.21499e-40 -4.94813e-40
4.95943e-40 4.96772e-40 4.95188e-40 4.97004e-40 -4.99312e-40 4.91654e-40 4.96187e-40 4.95177e-40
4.93125e-40 -5.85084e-40 4.90844e-40 5.04794e-40 4.94325e-40 4.98508e-40 4.95943e-40 -4.98183e-40
-5.02119e-40 4.93516e-40 4.9615e-40 -5.22275e-40 -4.95533e-40 -5.28916e-40 5.42039e-40 4.97034e-40
-0.0058383658 0.002211638 -0.0046690935 -0.00036448444 0.0044931853 1.0039362e-06 0.0030427382 -1.931262e-06
0.0037247257 -0.0043030595 -0.000190595 0.0001735645 4.7486836e-05 -0.0019972601 -0.0003823753 -0.0031705832
-2.2421554e-10 0.00017067663 0.00052649755 4.354529e-05 -0.0002184359 4.374518e-16 -0.0014141658 0.0074654194
6.139049e-09 1.5710127e-08 -0.00031383615 0.00011099484 -0.00013809932 -0.00030758543 -0.008173865 -1.1868915e-07
-0.00354684 -0.00039576698 3.3072008e-06 0.00044756217 -0.0006333053 -0.004285033 4.624804e-16 -0.002277417
-0.005583296 0.00043912127 0.00037718637 0.005959973 1.1877679e-06 0.004689443 -5.4033855e-05 0.0013509522
0.0044313646 3.809766e-05 -0.00638153 7.287425e-08 0.0046953694 -0.00056851027 0.00505898 0.00030538166
0.00229976 -0.00012005691 -0.005571261 0.000723708 -0.000498933 -8.886475e-13 0.003818135 0.00039549547
4.93537e-40 4.92519e-40 -4.96357e-40 -4.9267e-40 4.97553e-40 4.99189e-40 4.91249e-40 4.95764e-40
4.98712e-40 4.92322e-40 4.9273e-40 4.92252e-40 -4.95499e-40 -4.93219e-40 -4.96358e-40 -4.93648e-40
-5.10806e-40 4.99581e-40 4.95016e-40 -5.00967e-40 -4.92615e-40 5.27065e-40 4.9435e-40 -4.97394e-40
-4.93362e-40 4.9378e-40 -6.07164e-40 5.00269e-40 4.99693e-40 -4.9328e-40 -4.90732e-40 4.9253e-40
-4.96941e-40 4.9573e-40 -4.9149e-40 -4.94496e-40 4.92251e-40 -5.08451e-40 -4.97226e-40 5.07533e-40
-4.97886e-40 -4.90473e-40 5.18489e-40 4.99318e-40 -4.97248e-40 5.11551e-40 -4.91584e-40 -6.26722e-40
4.91707e-40 -4.96989e-40 4.93174e-40 -4.93513e-40 5.06341e-40 4.97077e-40 -5.01268e-40 4.92544e-40
4.96155e-40 -4.91072e-40 4.98131e-40 -4.90827e-40 4.96322e-40 -4.92636e-40 -5.36985e-40 -4.97944e-40
00000000: 2ddf a53e ed00 c13c 92a2 34be 3451 c83e
00000010: d763 c83e f65a 8bbe d7ac ecbe fa03 88be
00000020: 9b1f 143e 8b03 c8bd ac39 fbbd 4ffa d7bc
00000030: fcc1 95bd da5b 35be 7694 8cbe ab3e 163e
00000040: 63fb 89be 673d 95be bc52 373e 4242 29be
00000050: bb13 9b3e 9359 a1be cd2b 2c3e 454d f73d
00000060: 125d 8e3e de26 64be b5da d9be 2a9c d53d
00000070: 786b 1bbd 6bac 813c 408a 28bc b895 03be
00000080: e9a7 ae3d 56a5 ddbd aae7 ba3e 2844 81bd
00000090: 4e16 f43c 01d9 4c3e ff09 df3b 6179 46be
000000a0: d5f2 98be 0141 87bd 2422 be3d 5727 403e
000000b0: 8240 923e 7594 5d3d a3ac 9fbd 2e33 fc3d
000000c0: 7f02 b83d af9e c1bd 87ba ad3d 47f8 1fbe
000000d0: 4b09 bc3d dbdf b33d a807 5ebe ff4d acbe
000000e0: 87a9 f23d 2ea1 21be d199 a83d e23a 2a3c
000000f0: 3db6 8d3e d598 59be 29dc e5bb 617a a0be
00000100: ff57 0500 2c5a 0500 5f67 0500 1169 0500
00000110: 6d62 0500 2e6f 0580 655d 0500 6d9c 0500
00000120: ad69 0580 196b 0580 5b47 0600 9c6e 0500
00000130: 0163 0580 f257 0580 6d65 0500 935a 0580
00000140: db68 0500 b459 0500 765c 0500 c365 0500
00000150: b05e 0500 5363 0500 bf5e 0580 2dcd 0600
00000160: d8e4 0500 8080 0580 2a6d 0500 ae6c 0580
00000170: 1080 0500 da6c 0500 fb62 0500 239e 0580
00000180: d767 0580 548b 0500 a964 0580 046e 0580
00000190: 3081 0580 a35e 0500 baad 0580 5663 0580
000001a0: 7d66 0500 cc68 0500 6264 0500 7269 0500
000001b0: e16f 0580 885a 0500 2b67 0500 5a64 0500
000001c0: a25e 0500 fa5e 0680 4658 0500 297f 0500
000001d0: fa61 0500 a36d 0500 7d66 0500 bb6c 0580
000001e0: b477 0580 b95f 0500 1067 0500 e4af 0580
000001f0: 5865 0580 67c2 0580 fce6 0500 8769 0500
00000200: c34f bfbb 21f1 103b 32ff 98bb 4618 bfb9
00000210: 923b 933b fcbe 8635 ad68 473b d49a 01b6
00000220: 871a 743b ae00 8dbb 75da 47b9 defe 3539
00000230: 9a2c 4738 77e4 02bb 8b79 c8b9 8fc9 4fbb
00000240: 1087 76af a9f7 3239 a704 0a3a 66a4 3638
00000250: f10b 65b9 7e2c fc25 885b b9ba 7aa0 f43b
00000260: a5ef d231 eff2 8632 608a a4b9 e7c5 e838
00000270: c1ce 10b9 6b43 a1b9 adeb 05bc 0de2 feb3
00000280: 1a72 68bb f27e cfb9 47f1 5d36 c7a6 ea39
00000290: 6604 26ba 7669 8cbb 084d 0526 b840 15bb
000002a0: 15f4 b6bb dc39 e639 19c1 c539 e14b c33b
000002b0: 656b 9f35 e6a9 993b 69a2 62b8 6f12 b13a
000002c0: fb34 913b 0dcb 1f38 271c d1bb 0b7f 9c33
000002d0: 9ddb 993b 1408 15ba cdc5 a53b a21b a039
000002e0: 92b7 163b 10c7 fbb8 208f b6bb 39b7 3d3a
000002f0: d4ca 02ba cd21 7aab ad39 7a3b 815a cf39
00000300: c85f 0500 f15c 0500 a467 0580 5d5d 0580
00000310: fa6a 0500 896f 0500 6759 0500 fd65 0500
00000320: 356e 0500 655c 0500 885d 0500 335c 0500
00000330: 4065 0580 e55e 0580 a567 0580 1760 0580
00000340: eb8f 0580 a170 0500 e763 0500 7e74 0580
00000350: 365d 0580 3ebd 0500 0c62 0500 886a 0580
00000360: 4b5f 0580 7560 0500 879c 0680 8c72 0500
00000370: f170 0500 105f 0580 f657 0580 f95c 0500
00000380: 4569 0580 e565 0500 135a 0580 7462 0580
00000390: 325c 0500 5b89 0580 106a 0580 cc86 0500
000003a0: e76b 0580 3d57 0580 56a5 0500 e56f 0500
000003b0: 206a 0580 ff91 0500 565a 0580 0cd3 0680
000003c0: ae5a 0500 6769 0580 c55e 0500 b75f 0580
000003d0: 7983 0500 a669 0500 5575 0580 035d 0500
000003e0: 1467 0500 e958 0580 966c 0500 3a58 0580
000003f0: 8b67 0500 455d 0580 e5d8 0580 116c 0580

embedding.atom_embedding_list.6.weight f4 [6, 64]
0.17306513 1.0701355 -0.106714845 -0.038455904 0.47506112 -0.44216767 0.6759679 -0.51411253
-0.040772993 -1.265163 0.1009622 -0.28087148 0.029544326 -0.5178629 0.3802904 -0.08016934
0.04945033 -0.3920709 -0.5311129 0.00834627 0.26469743 0.12228178 -0.39849868 0.76852274
-0.41388223 0.78539187 -0.49979404 -0.95548296 -0.0012504134 -0.40298706 -0.111453265 -0.73128664
0.02978838 0.15637323 -0.12612797 -0.34956348 -0.06183741 -0.22185956 -0.33180752 0.113528244
-0.47873825 0.3691282 -0.9504931 -0.59778047 0.67979085 1.0477425 -0.304711 0.0855074
0.21898402 -0.6089059 -0.34988946 -0.033939056 0.5561129 0.03692535 -0.287902 -0.09804313
-0.02630142 0.703731 0.46312714 -0.212763 -0.36507326 0.38676733 0.113969184 0.26376495
0.4291174 -0.5589538 -0.2703767 0.1786068 -0.15469293 -0.49482948 -0.027909288 0.057035062
0.054940753 -0.06444319 -0.26220474 -0.10064257 -0.42936516 0.45891207 -0.21466793 -0.10850745
0.0044076955 -0.11368892 0.32649484 -0.004912803 0.19567308 -0.12231814 0.00506983 -0.22997151
0.116706185 -0.45124465 0.03847832 -0.5070291 -0.045431223 0.25926787 0.06404108 -0.07895471
0.2176682 0.21511212 0.16220795 -0.2020574 0.18084177 0.061078817 -0.27518216 -0.04884949
0.409468 -0.090509586 0.0435322 -0.030425215 -0.21193375 0.004941655 -0.058075048 0.06487307
-0.11061279 -0.0309764 0.3627247 -0.19850232 -0.06641205 0.43416345 -0.5416093 -0.5207721
0.015314281 0.023814688 0.27467608 0.2526971 0.027814986 -0.0037583932 0.050442677 -0.3258995
-0.38192615 0.29072866 -0.07068996 0.05545124 0.6168969 0.18347546 -0.6594469 -0.13691907
-0.027557999 0.5476119 0.06371046 0.1305688 0.13613401 -0.7226991 -0.47269154 0.31484923
-0.256798 -0.25020114 0.47704473 -0.25801966 0.020859268 -0.1360429 0.5597921 0.01840239
0.6084263 -0.1348352 -0.38847968 1.0808845 0.32935178 0.15682217 -0.24221028 0.3615361
-0.10761512 -0.5061519 -0.014931941 0.33107904 0.25041547 -0.16753185 0.40225405 0.051353976
-0.57357484 -0.021017972 0.6789716 0.52211726 0.21144561 -0.5761975 0.13356565 -0.08426602
0.5369203 0.18068269 0.055010192 -0.010786562 -0.21045266 -0.645081 0.5926816 0.29964396
0.012616899 -0.4280342 -0.72225755 -0.037770774 0.51874936 -0.6911713 -0.37563577 -0.26063564
0.3281603 0.023022547 0.5205151 0.10536367 -0.17329895 0.15254943 0.24092497 -0.075590186
-0.121917665 -0.06416247 0.24491237 0.011101239 0.14373994 0.19954243 0.2532934 0.124906726
0.36183673 -0.00018832946 -0.21494052 0.091538504 0.17619665 -0.0935951 -0.04538783 -0.20590155
0.08992023 0.033926986 0.20597036 -0.112056576 -0.15203947 -0.008843702 0.23815505 -0.07248837
0.0919383 0.06629883 -0.15120292 -0.4135 -0.15518992 0.44893625 -0.015421851 0.31969288
0.27838346 -0.11271824 -0.24012576 -0.47721016 -0.18088089 0.21265702 -0.008098705 -0.17519596
-0.2330699 0.06566475 0.10546274 0.37154335 -0.0457254 -0.06430756 -0.15136299 0.0730009
-0.3837115 0.40421692 0.050888184 0.06670974 0.27349272 0.06399064 0.022755923 0.055031415
00000000: fc37 313e 33fa 883f 508d dabd f083 1dbd
00000010: 363b f33e cd63 e2be 3b0c 2d3f e19c 03bf
00000020: 9501 27bd dcf0 a1bf 45c5 ce3d 63ce 8fbe
00000030: f106 f23c aa92 04bf 6cb5 c23e d32f a4bd
00000040: 6e8c 4a3d 84bd c8be 04f7 07bf cbbe 083c
00000050: 6c86 873e df6e fa3d 0508 ccbe e8bd 443f
00000060: 5fe8 d3be 710f 493f 01e5 ffbe 889a 74bf
00000070: e9e4 a3ba 5254 cebe 9c41 e4bd 9a35 3bbf
00000080: c306 f43c 4e20 203e b127 01be fcf9 b2be
00000090: 3949 7dbd 272f 63be ade2 a9be 7f81 e83d
000000a0: 2e1d f5be 5ffe bc3e 8453 73bf 2408 19bf
000000b0: c606 2e3f 6d1c 863f 1503 9cbe 811e af3d
000000c0: 593d 603e 42e1 1bbf b624 b3be ae03 0bbd
000000d0: 6a5d 0e3f 093f 173d e467 93be d6ca c8bd
000000e0: 1376 d7bc b727 343f 001f ed3e 8bde 59be
000000f0: e2ea babe 5e06 c63e ad68 e93d 330c 873e
00000100: 47b5 db3e 9917 0fbf d16e 8abe b3e4 363e
00000110: d367 1ebe 4a5a fdbe 05a2 e4bc 999d 693d
00000120: 8e09 613d cbfa 83bd b33f 86be b11d cebd
00000130: c0d5 dbbe 86f6 ea3e e9d1 5bbe 2739 debd
00000140: 6e6e 903b bdd5 e8bd 552a a73e 94fb a0bb
00000150: 865e 483e ef81 fabd d120 a63b a77d 6bbe
00000160: a703 ef3d 8a09 e7be 719b 1d3d a9cc 01bf
00000170: 1716 3abd c2be 843e f827 833d 02b3 a1bd
00000180: 6ae4 5e3e 5a46 5c3e d719 263e 23e8 4ebe
00000190: 962e 393e c82d 7a3d ade4 8cbe 6716 48bd
000001a0: caa5 d13e 175d b9bd d24e 323d 4d3e f9bc
000001b0: 2905 59be 9bed a13b 1ae0 6dbd 2cdc 843d
000001c0: f588 e2bd 38c2 fdbc 0db7 b93e 3144 4bbe
000001d0: 0a03 88bd ac4a de3e e8a6 0abf 5251 05bf
000001e0: c0e8 7a3c 0517 c33c 58a2 8c3e 8461 813e
000001f0: 41dc e33c 604f 76bb fb9c 4e3d 4ddc a6be
00000200: d38b c3be 63da 943e e6c5 90bd d720 633d
00000210: f5ec 1d3f fee0 3b3e 83d1 28bf 8334 0cbe
00000220: 50c1 e1bc 4b30 0c3f a17a 823d d4b3 053e
00000230: b766 0b3e cf02 39bf a004 f2be eb33 a13e
00000240: 077b 83be 5d1a 80be 353f f43e 271b 84be
00000250: 0ee1 aa3c d44e 0bbe 894e 0f3f 9cc0 963c
00000260: d3c1 1b3f 3d12 0abe cfe6 c6be 6c5a 8a3f
00000270: cca0 a83e fe95 203e f905 78be 421b b93e
00000280: 5165 dcbd 2c93 01bf 1aa5 74bc 3183 a93e
00000290: 7536 803e 788d 2bbe 3ef4 cd3e 8c58 523d
000002a0: cdd5 12bf e22d acbc 15d1 2d3f 7aa9 053f
000002b0: 3385 583e ae81 13bf 6fc5 083e aa93 acbd
000002c0: 9c73 093f e204 393e 5e52 613d 1fba 30bc
000002d0: e780 57be 0724 25bf fbb9 173f ef6a 993e
000002e0: 1cb7 4e3c 4c27 dbbe dfe5 38bf 87b5 1abd
000002f0: c2cc 043f 9af0 30bf 5553 c0be 0972 85be
00000300: a004 a83e c899 bc3c 7a40 053f e8c8 d73d
00000310: 4875 31be eb35 1c3e 09b5 763e 07cf 9abd
00000320: f8af f9bd 9d67 83bd 4fca 7a3e f9e1 353c
00000330: 9030 133e da54 4c3e acaf 813e 19cf ff3d
00000340: aa42 b93e 4e7a 45b9 5e19 5cbe 8a78 bb3d
00000350: e56c 343e caae bfbd 97e8 39bd dbd7 52be
00000360: 1928 b83d 06f7 0a3d e5e9 523e eb7d e5bd
00000370: 3cb0 1bbe 2de5 10bc ebde 733e c874 94bd
00000380: 264a bc3d aec7 873d f0d4 1abe 46b6 d3be
00000390: 1bea 1ebe f9da e53e eeab 7cbc c9ae a33e
000003a0: 4788 8e3e d2d8 e6bd 87e3 75be e454 f4be
000003b0: d738 39be c3c2 593e 6eb0 04bc 9266 33be
000003c0: e0a9 6ebe 3e7b 863d d9fc d73d ee3a be3e
000003d0: 8f4a 3bbd afb3 83bd e6fe 1abe 7f81 953d
000003e0: d575 c4be 85f5 ce3e 2170 503d 1e9f 883d
000003f0: 3d07 8c3e 860d 833d a16a ba3c 9f68 613d

embedding.atom_embedding_list.7.weight f4 [2, 64]
-0.28265715 0.27068654 0.14439917 -0.07745882 0.5787609 0.12904312 0.34277138 -0.29649845
0.42613533 -0.30835873 -0.3136269 0.08499909 0.11587613 -0.4313255 -0.08514366 -0.4136531
0.11687342 0.04138207 -0.0045311456 0.36307085 0.2314226 -0.30446586 -0.23159817 0.5184923
0.1471857 0.02604962 -0.2705155 0.3429072 -0.06018519 -0.3719236 -0.41387072 -0.37255234
-0.44045007 -0.24015015 0.31547117 -0.2556614 -0.21286988 -0.053430185 0.015394546 -0.06662559
-0.3213306 0.28991616 0.091592215 0.19764914 -0.08785082 0.26567054 0.038467556 0.14744247
0.48730206 -0.11088541 -0.47306952 0.21549024 -0.036185455 -0.23437458 0.4566203 0.09469817
-0.20417602 0.19787078 -0.42983794 0.6206007 -0.0018300076 -0.03059937 -0.063009836 0.20675558
0.5274031 -0.085340686 -0.46425688 0.19558468 -0.4380307 -0.36348194 -0.8121366 -0.08855269
-0.33911094 0.5274406 0.18641469 -0.08335819 -0.3725535 0.19874044 -0.14206418 0.5727989
-0.28669572 -0.04396832 -0.15905805 -0.5554682 0.35697496 0.035501316 0.37733737 -0.4460392
0.15555811 -0.010734849 -0.0970872 -0.28732306 0.11260914 0.30075833 0.43399337 0.17841196
0.5158063 0.29951063 -0.28049952 0.116235115 0.17995359 0.13699028 0.018295523 0.067786306
0.26570368 -0.18144335 -0.024697717 -0.17464781 0.09158897 -0.5480354 0.22475715 0.21296524
-0.4018227 -0.17431924 0.47189227 -0.43472242 0.046119098 0.4645999 -0.61022645 -0.46770844
0.08035711 -0.5453298 0.56455046 -0.79487485 0.2686211 0.20114379 -0.33964998 -0.66841424
00000000: 70b8 90be 6d97 8a3e 60dd 133e bba2 9ebd
00000010: ad29 143f e123 043e bb7f af3e a5ce 97be
00000020: 692e da3e 32e1 9dbe b493 a0be 0114 ae3d
00000030: 7750 ed3d b2d6 dcbe cd5f aebd 57ca d3be
00000040: 555b ef3d 3f80 293d 017a 94bb 6ce4 b93e
00000050: 0cfa 6c3e f3e2 9bbe 1228 6dbe e9bb 043f
00000060: d9b7 163e 0366 d53c 0281 8abe 8891 af3e
00000070: bf84 76bd c56c bebe dde6 d3be 2ebf bebe
00000080: ac82 e1be ece9 75be 7085 a13e 0de6 82be
00000090: 90fa 59be 9cd9 5abd 6839 7c3c ff72 88bd
000000a0: 7285 a4be e46f 943e b394 bb3d 8964 4a3e
000000b0: 21eb b3bd f805 883e 2890 1d3d 29fb 163e
000000c0: a87f f93e e417 e3bd 2b36 f2be 79a9 5c3e
000000d0: 3337 14bd e4ff 6fbe 23ca e93e 1df1 c13d
000000e0: 8513 51be a39e 4a3e b813 dcbe b0df 1e3f
000000f0: dedc efba 88ab fabc 4d0b 81bd bcb7 533e
00000100: e403 073f 19c7 aebd 14b3 edbe 5a47 483e
00000110: 8f45 e0be 4e1a babe 2fe8 4fbf 1d5b b5bd
00000120: f39f adbe 5906 073f 7ee3 3e3e b3b7 aabd
00000130: 55bf bebe 9d82 4b3e 4679 11be f3a2 123f
00000140: c8c9 92be 2018 34bd 1de0 22be 2a33 0ebf
00000150: 6cc5 b63e d469 113d 5d32 c13e 405f e4be
00000160: a04a 1f3e 38e1 2fbc a7d5 c6bd 021c 93be
00000170: 9f9f e63d fffc 993e 6134 de3e a0b1 363e
00000180: e20b 043f 7559 993e a29d 8fbe ad0c ee3d
00000190: c145 383e 2e47 0c3e 7ee0 953c 8cd3 8a3d
000001a0: 500a 883e 49cc 39be de52 cabc e0d6 32be
000001b0: ff92 bb3d 0c4c 0cbf bd26 663e 8f13 5a3e
000001c0: b4bb cdbe be80 32be dd9b f13e f093 debe
000001d0: 61e7 3c3d 0ae0 ed3e cd37 1cbf 7b77 efbe
000001e0: 4592 a43d bc9a 0bbf 6186 103f eb7c 4bbf
000001f0: b488 893e a3f8 4d3e 9ae6 adbe 321d 2bbf

embedding.atom_embedding_list.8.weight f4 [2, 64]
-0.25076646 0.021338813 0.03457981 -0.13981661 -0.08087238 0.22828959 0.18505311 -0.061835688
-0.39105716 0.11342158 0.19469509 0.2186413 -0.04511976 0.24879584 0.33911318 -0.093524784
0.46256852 -0.034276325 -0.28634015 0.039838295 0.040142246 -0.05072821 0.28721714 -0.018400127
0.18099913 0.06046182 0.24116094 0.32533678 -0.16680972 0.3364834 0.19420494 -0.225542
0.14205678 0.3661978 0.059108652 0.09111557 -0.31649452 0.5052285 0.119862124 -0.30013874
0.4284298 0.30280992 0.18891338 -0.41971108 0.009483095 0.1004896 0.07981653 -0.105351105
0.0978032 -0.013212846 -0.3302304 0.024881452 0.25898224 -0.2275469 0.40282765 0.33567038
-0.013795259 0.15600476 0.24794443 -0.0850507 0.40043542 0.3746404 0.37843052 0.1641969
0.44304785 0.27055854 -0.4234562 0.2877869 0.36674467 -0.16304843 -0.6838396 -0.43022063
0.45171937 -0.17665733 -0.39950663 -0.124948494 -0.1328358 -0.3735976 -0.37945428 0.28748754
-0.53738177 0.02010727 0.51391023 -0.04411605 0.5514339 -0.3969675 -0.26700604 -0.008712236
0.051985677 -0.2555669 -0.8047507 -0.02025006 0.48153698 -0.3803349 -0.055450857 0.43167105
-0.27980563 -0.78437054 0.20602775 -0.32574806 0.19304258 -0.28764698 -0.1389668 0.26861638
-0.68534666 -0.235621 -0.3317319 0.57124996 0.07496265 0.044892963 -0.26770058 0.24248774
-0.07951289 -0.24963039 0.33948812 -0.20159328 -0.072068766 0.31888473 -0.4527342 -0.70302016
0.36484578 -0.57737124 -0.61851126 0.12962376 -0.20781474 -0.3917745 -0.1517107 -0.45703006
00000000: 7664 80be bcce ae3c 8fa3 0d3d 162c 0fbe
00000010: 6ba0 a5bd bfc4 693e 907e 3d3e 6b47 7dbd
00000020: a538 c8be 9349 e83d 265e 473e 81e3 5f3e
00000030: 7fcf 38bd 56c4 7e3e 3ea0 ad3e ec89 bfbd
00000040: c8d5 ec3e 5565 0cbd 2d9b 92be 7b2d 233d
00000050: 326c 243d 62c8 4fbd 200e 933e ddbb 96bc
00000060: d657 393e d0a6 773d e5f2 763e 8b92 a63e
00000070: 2bd0 2abe 8d47 ac3e a9dd 463e 7bf4 66be
00000080: 5577 113e 477e bb3e ea1b 723d cd9a ba3d
00000090: 920b a2be a856 013f 467a f53d c9ab 99be
000000a0: 275b db3e e709 9b3e 8272 413e 5fe4 d6be
000000b0: fc5e 1b3c 7ecd cd3d d976 a33d 52c2 d7bd
000000c0: 0b4d c83d b17a 58bc f613 a9be 30d4 cb3c
000000d0: 5299 843e 0e02 69be 6d3f ce3e fddc ab3e
000000e0: 8305 62bc b6bf 1f3e 25e5 7d3e 102f aebd
000000f0: df05 cd3e ded0 bf3e a5c1 c13e 3b23 283e
00000100: 2bd7 e23e a686 8a3e 40cf d8be ce58 933e
00000110: f5c5 bb3e 2bf6 26be 1d10 2fbf e145 dcbe
00000120: c347 e73e a9e5 34be 228c ccbe ffe4 ffbd
00000130: 1c06 08be 2f48 bfbe d547 c2be 9131 933e
00000140: da91 09bf 00b8 a43c 9f8f 033f 08b3 34bd
00000150: c62a 0d3f 533f cbbe 04b5 88be c4bd 0ebc
00000160: efee 543d aad9 82be 2404 4ebf 74e3 a5bc
00000170: 048c f63e 42bb c2be 7020 63bd fd03 dd3e
00000180: af42 8fbe 82cc 48bf f0f8 523e 73c8 a6be
00000190: f4ac 453e 7746 93be 504d 0ebe 1688 893e
000001a0: e172 2fbf a246 71be c3d8 a9be 703d 123f
000001b0: 0586 993d afe1 373d 0d10 89be b54e 783e
000001c0: a7d7 a2bd 1c9f 7fbe 63d1 ad3e 786e 4ebe
000001d0: ca98 93bd dc44 a33e c7cc e7be 21f9 33bf
000001e0: 11cd ba3e 9ace 13bf c156 1ebf 17bc 043e
000001f0: 63cd 54be ab96 c8be 0d5a 1bbe d8ff e9be
