visualizations/best_model_median.pth (torch, 102410 bytes, 16 tensors)

embedding.atom_embedding_list.0.weight f4 [119, 64]
0.028062085 0.016100392 0.040269434 0.02933971 -0.0005320853 -0.033381954 -0.0007730001 -0.0022283976
0.048936848 0.023792606 -0.005737329 0.004853016 0.026215615 -0.001728256 -0.0027088828 -0.016423525
0.044461668 -0.00027653834 0.010749889 0.013108639 0.014220061 -0.027089747 0.049204223 -0.06233185
0.0038048949 0.028802479 1.4842124e-05 0.013397549 -0.017575286 -0.024420435 0.03823017 0.009606646
0.02413399 0.0039684707 0.0035925463 -1.706655e-05 -0.001266337 0.03254824 -0.03210439 -0.009561728
-0.02959009 -0.00499086 -0.000617773 0.0044769715 -0.012125186 -0.050529655 0.00264987 0.03139474
-0.00020773124 -0.008866108 0.048199438 -0.0013643752 -0.004020879 0.05403539 -0.018849725 -0.020445852
-0.0403307 -0.034996875 0.019384375 -3.1401734e-05 0.0267146 -0.04151758 -0.019395413 0.0008469352
-5.12466e-40 -4.93267e-40 4.96106e-40 -4.913e-40 -4.9918e-40 -5.00998e-40 -4.96652e-40 -4.92718e-40
-5.17439e-40 5.01564e-40 4.94452e-40 5.01996e-40 -5.91492e-40 5.01791e-40 -4.97069e-40 -5.6968e-40
-5.13855e-40 4.9063e-40 4.99194e-40 5.05148e-40 -4.97373e-40 -4.9459e-40 -4.98984e-40 -6.06748e-40
-5.13203e-40 5.30258e-40 5.35646e-40 5.1335e-40 -4.9139e-40 -5.85419e-40 -5.18122e-40 -4.99934e-40
-4.94777e-40 -5.03192e-40 -5.14166e-40 5.07597e-40 -5.29929e-40 5.0783e-40 4.9556e-40 4.97573e-40
4.98593e-40 -5.75753e-40 -5.04919e-40 -5.1282e-40 -4.91517e-40 -4.97165e-40 -4.99703e-40 -5.05332e-40
-4.92139e-40 -5.10747e-40 -5.01015e-40 4.96054e-40 -4.94232e-40 5.06393e-40 5.24273e-40 -5.1255e-40
5.0059e-40 -5.18385e-40 -4.92698e-40 -5.31288e-40 5.09855e-40 4.9444e-40 -4.98352e-40 -5.08978e-40
-0.053788394 -0.29935503 -0.2998141 0.022483384 0.07242202 0.27851838 0.21302862 -0.20891573
-0.30028242 -0.1900196 -0.096610434 -0.05406736 -0.09991064 -0.30484828 0.23213452 0.004694566
-0.44255453 -0.27151197 0.1378881 0.22385195 0.09558742 0.17900792 -0.45764437 0.43774468
-0.26071465 0.09232807 -0.075298786 -0.18065804 0.2757577 0.22462665 -0.28543213 -0.343673
-0.35721982 -0.32405907 0.25923434 -0.3253214 -0.099605754 -0.28079197 0.28999996 0.16733295
0.16340166 0.09022669 -0.31868076 -0.053596895 0.20029786 0.38967168 -0.25260288 -0.22418444
0.099460326 -0.13034081 -0.35941565 0.27934796 0.1572997 -0.3702 0.023044879 0.07511162
0.3664612 0.26809454 -0.17129229 0.15571591 -0.41639066 0.31331825 0.04553575 0.2699035
5.47347e-40 4.94698e-40 -4.91029e-40 4.91225e-40 4.93038e-40 -5.04086e-40 4.99874e-40 5.15518e-40
4.99113e-40 -4.97806e-40 -4.95969e-40 5.88806e-40 4.9544e-40 5.11428e-40 4.913e-40 -4.91096e-40
-5.07206e-40 5.01968e-40 4.9754e-40 4.90812e-40 4.95398e-40 -5.00862e-40 -4.99822e-40 -5.0013e-40
4.91746e-40 4.90488e-40 5.03693e-40 4.95592e-40 5.14551e-40 5.03386e-40 4.98646e-40 -4.92982e-40
4.95264e-40 4.97608e-40 5.15902e-40 -4.91937e-40 -4.92527e-40 -5.14376e-40 4.96226e-40 -4.95547e-40
4.95523e-40 -5.02762e-40 5.92085e-40 4.9769e-40 4.95789e-40 -5.04613e-40 4.95677e-40 -4.91297e-40
-4.90736e-40 -5.3563e-40 -5.37981e-40 -4.98773e-40 5.20016e-40 -4.90677e-40 4.95359e-40 -4.93383e-40
-5.79217e-40 5.06665e-40 5.0181e-40 4.92596e-40 -4.97207e-40 -5.00744e-40 -5.01015e-40 -4.97129e-40
00000000: 75e2 e53c f8e4 833c 90f1 243d d559 f03c
00000010: a47b 0bba 84bb 08bd 29a3 4aba 4f0a 12bb
00000020: 0172 483d b6e8 c23c 3400 bcbb 0d06 9f3b
00000030: 21c2 d63c a686 e2ba 8387 31bb a18a 86bc
00000040: 701d 363d 59fc 90b9 4d20 303c 9ec5 563c
00000050: 42fb 683c 51eb ddbc 5e8a 493d af4f 7fbd
00000060: 8b5b 793b 2df3 eb3c 7002 7937 6581 5b3c
00000070: 0cfa 8fbc 5d0d c8bc 3d97 1c3d 3265 1d3c
00000080: a5b4 c53c f209 823b ed70 6b3b 232a 8fb7
00000090: 38fb a5ba 4e51 053d e57f 03bd cba8 1cbc
000000a0: eb66 f2bc 5e8a a3bb 0bf2 21ba 8fb3 923b
000000b0: b7a8 46bc 2ff8 4ebd 71a9 2d3b c597 003d
000000c0: 6ed2 59b9 2743 11bc c66c 453d d6d4 b2ba
000000d0: 94c1 83bb 3754 5d3d bd6a 9abc 0f7e a7bc
000000e0: ce31 25bd e258 0fbd fbcb 9e3c 5bb5 03b8
000000f0: 94d8 da3c 570e 2abd 21e3 9ebc dc04 5e3a
00000100: 8c94 0580 075f 0580 f166 0500 8b59 0580
00000110: 836f 0580 9474 0580 7768 0580 7f5d 0580
00000120: 69a2 0580 2876 0500 5562 0500 5c77 0500
00000130: d770 0680 ca76 0500 a069 0580 0934 0680
00000140: 6b98 0580 ad57 0500 8d6f 0500 2680 0500
00000150: 796a 0580 b762 0580 f76e 0580 5e9b 0680
00000160: 9a96 0580 25c6 0500 2ad5 0500 0397 0500
00000170: cc59 0580 e95f 0680 50a4 0580 9d71 0580
00000180: 3d63 0580 b27a 0580 4999 0580 f986 0500
00000190: 3ac5 0580 a087 0500 6b65 0500 086b 0500
000001a0: e06d 0500 f744 0680 827f 0580 8995 0580
000001b0: 265a 0580 e569 0580 f870 0580 a980 0580
000001c0: e25b 0580 c18f 0580 a074 0580 cc66 0500
000001d0: b861 0580 9e83 0500 76b5 0500 c894 0580
000001e0: 7173 0500 0ca5 0580 715d 0580 04c9 0580
000001f0: 458d 0500 4c62 0500 346d 0580 d38a 0580
00000200: 3851 5cbd 1045 99be 3c81 99be 132f b83c
00000210: ff51 943d f699 8e3e 2d24 5a3e 01ee 55be
00000220: 9ebe 99be 7f94 42be b1db c5bd bc75 5dbd
00000230: f39d ccbd 1315 9cbe acb4 6d3e e0d4 993b
00000240: 8296 e2be 9e03 8bbe 8a32 0d3e 7239 653e
00000250: 56c3 c33d da4d 373e 5d50 eabe 1220 e03e
00000260: 647c 85be 8016 bd3d 4036 9abd 6cfe 38be
00000270: 1d30 8d3e 8704 663e 2924 92be e8f5 afbe
00000280: 84e5 b6be 12eb a5be 5dba 843e 8790 a6be
00000290: 1afe cbbd f7c3 8fbe e07a 943e 5459 2b3e
000002a0: c452 273e c5c8 b83d 202a a3be 6b88 5bbd
000002b0: e21a 4d3e 0c83 c73e 2a55 81be 9b90 65be
000002c0: dbb1 cb3d 1078 05be 5405 b8be b206 8f3e
000002d0: 2c13 213e db8a bdbe 9dc8 bc3c 1fd4 993d
000002e0: cda0 bb3e b043 893e 3f67 2fbe fe73 1f3e
000002f0: 2831 d5be 406b a03e b283 3a3d cb30 8a3e
00000300: c8f5 0500 0463 0500 ca58 0580 5659 0500
00000310: 645e 0500 307d 0580 7271 0500 0e9d 0500
00000320: 536f 0500 ae6b 0580 8f66 0580 5a69 0600
00000330: 1665 0500 a791 0500 8b59 0500 fa58 0580
00000340: e285 0580 4877 0500 f06a 0500 2f58 0500
00000350: f864 0500 3374 0580 4d71 0580 2972 0580
00000360: ca5a 0500 4857 0500 177c 0500 8265 0500
00000370: 5c9a 0500 3c7b 0500 066e 0500 3c5e 0580
00000380: 9864 0500 216b 0500 209e 0500 525b 0580
00000390: f75c 0580 df99 0580 4767 0500 6265 0580
000003a0: 5165 0500 7f79 0580 7e72 0600 5b6b 0500
000003b0: 0f66 0500 a87e 0580 bf65 0500 8959 0580
000003c0: f957 0580 1ed5 0580 acdb 0580 606e 0580
000003d0: 98a9 0500 cf57 0580 dc64 0500 5a5f 0580
000003e0: 9f4e 0680 6084 0500 d876 0500 285d 0500
000003f0: 036a 0580 df73 0580 a074 0580 cb69 0580

embedding.atom_embedding_list.1.weight f4 [5, 64]
0.06444195 0.15074201 0.040466018 0.17774361 0.14640346 0.009994489 0.18492047 0.07504887
-0.32363603 -0.046374943 0.09010442 0.08755202 0.13994953 0.16079696 -0.079747945 0.038850028
0.056015875 0.10102378 0.11944656 0.0016659147 0.04606121 -0.20795737 -0.20128499 -0.12766492
0.16048358 -0.007722275 -0.06947831 0.20183156 0.0063972147 0.10445181 0.07478511 0.19987728
-0.021075824 -0.0025410668 0.0796024 -0.04389555 0.26136208 0.24043174 -0.06802671 -0.14254767
-0.048070576 0.20054644 -0.22669473 0.042785827 0.1926074 0.11890547 -0.16899969 0.16347449
0.02387965 -0.0740157 -0.19891629 0.09117658 0.15958647 0.31212807 0.0018403529 0.22301051
0.2598655 0.051377185 -0.050710447 0.1208313 0.21172354 -0.19452488 -0.16868897 -0.019195458
-4.94957e-40 4.92328e-40 -5.00454e-40 -5.94686e-40 -4.97967e-40 -4.93673e-40 -4.97886e-40 -4.95331e-40
4.90977e-40 -4.95889e-40 -4.95676e-40 4.91475e-40 5.00987e-40 4.93457e-40 4.96788e-40 4.93366e-40
5.10838e-40 4.9745e-40 4.93286e-40 -4.98376e-40 -5.64493e-40 4.93783e-40 5.03754e-40 4.9735e-40
-5.00604e-40 4.9217e-40 4.9064e-40 4.9586e-40 5.01652e-40 4.97342e-40 4.97733e-40 -4.93477e-40
-4.9802e-40 4.93366e-40 -5.41516e-40 5.07221e-40 -5.68427e-40 4.93023e-40 4.94255e-40 4.91937e-40
-4.90763e-40 -5.02286e-40 -4.92608e-40 6.02497e-40 4.94939e-40 -4.9181e-40 -4.90478e-40 4.95831e-40
4.98162e-40 -4.91662e-40 5.1503e-40 4.92832e-40 -4.90464e-40 4.94329e-40 5.01457e-40 4.95781e-40
-4.96022e-40 5.0065e-40 4.94782e-40 4.965e-40 -4.9615e-40 -6.09776e-40 -4.97663e-40 4.99716e-40
-5.14494e-40 -5.31543e-40 -4.94532e-40 4.9966e-40 -4.94137e-40 -4.95632e-40 -4.90796e-40 -5.02274e-40
-5.10392e-40 -4.93897e-40 5.06173e-40 4.90746e-40 -5.60798e-40 -6.10955e-40 4.96851e-40 -5.07793e-40
4.96648e-40 -6.14457e-40 -4.96888e-40 -5.00869e-40 -5.01095e-40 -4.94043e-40 -4.9146e-40 5.03596e-40
4.93265e-40 4.90746e-40 -4.91716e-40 4.92743e-40 -4.96951e-40 6.2216e-40 4.92751e-40 4.93977e-40
4.96978e-40 -4.91976e-40 -4.93648e-40 -4.95377e-40 -5.0471e-40 4.93612e-40 -6.08423e-40 4.97496e-40
4.92884e-40 -4.91071e-40 4.97768e-40 -4.94078e-40 4.91043e-40 4.95855e-40 4.93418e-40 -4.95323e-40
4.9481e-40 4.98623e-40 4.93823e-40 -4.95341e-40 -5.18849e-40 4.93917e-40 4.95302e-40 4.9539e-40
4.93934e-40 6.11116e-40 -5.29328e-40 5.10635e-40 5.01902e-40 -4.93979e-40 -4.96104e-40 -4.91092e-40
-4.92227e-40 4.9153e-40 4.9775e-40 5.34127e-40 5.40834e-40 -4.91199e-40 -4.98033e-40 -4.93899e-40
-5.18217e-40 -4.98324e-40 5.157e-40 -4.94162e-40 -4.95942e-40 -4.93023e-40 4.98669e-40 5.49298e-40
-4.92949e-40 5.7757e-40 -4.98509e-40 4.92e-40 -4.94245e-40 -5.13664e-40 -4.90938e-40 -5.02789e-40
5.25467e-40 5.23602e-40 -4.94685e-40 -4.95436e-40 4.99099e-40 -4.93823e-40 -5.49975e-40 -5.9183e-40
4.92327e-40 -4.95446e-40 -4.91758e-40 4.95471e-40 4.94092e-40 -4.91765e-40 4.93456e-40 4.9218e-40
-4.9273e-40 -4.95587e-40 4.9375e-40 5.08649e-40 4.9665e-40 -5.25861e-40 5.02014e-40 4.96466e-40
-5.30246e-40 6.0109e-40 5.46212e-40 5.00371e-40 -5.03778e-40 -4.99267e-40 4.90546e-40 4.9791e-40
-5.10799e-40 -4.9907e-40 4.93722e-40 -4.94637e-40 4.98422e-40 4.96899e-40 -4.96704e-40 -5.27994e-40
00000000: 24fa 833d 1d5c 1a3e b2bf 253d 6c02 363e
00000010: caea 153e edbf 233c cb5b 3d3e 39b3 993d
00000020: 9fb3 a5be a7f3 3dbd ab88 b83d 794e b33d
00000030: ee4e 0f3e f5a7 243e e452 a3bd 3521 1f3d
00000040: e770 653d 8ee5 ce3d 66a0 f43d d25a da3a
00000050: aeaa 3c3d c7f2 54be a71d 4ebe 98ba 02be
00000060: cf55 243e 230b fdbb a54a 8ebd efac 4e3e
00000070: ba9f d13b d5ea d53d f028 993d a1ac 4c3e
00000080: 35a7 acbc 0788 26bb 9506 a33d d2cb 33bd
00000090: 40d1 853e bd33 763e 9651 8bbd 04f8 11be
000000a0: a7e5 44bd 0c5c 4d3e aa22 68be 3140 2f3d
000000b0: e03a 453e b684 f33d 410e 2dbe db65 273e
000000c0: 419f c33c 8b95 97bd b6b0 4bbe c9ba ba3d
000000d0: a36a 233e 40cf 9f3e ff37 f13a de5c 643e
000000e0: 170d 853e e270 523d c2b5 4fbd 6776 f73d
000000f0: 0ece 583e 8831 47be cdbc 2cbe cb3f 9dbc
00000100: bd63 0580 695c 0500 1073 0580 be79 0680
00000110: 216c 0580 2960 0580 e76b 0580 c864 0580
00000120: a558 0500 5666 0580 be65 0580 085a 0500
00000130: 8c74 0500 8f5f 0500 d868 0500 4e5f 0500
00000140: 0290 0500 b06a 0500 155f 0500 456d 0580
00000150: 9425 0680 7760 0500 437c 0500 696a 0500
00000160: 7b73 0580 f85b 0500 b457 0500 4266 0500
00000170: 6776 0500 636a 0500 7a6b 0500 9d5f 0580
00000180: 476c 0580 4e5f 0500 87e5 0580 ed85 0500
00000190: 8b30 0680 595e 0500 c861 0500 525b 0500
000001a0: 0c58 0580 2b78 0580 315d 0580 848f 0600
000001b0: b063 0500 f75a 0580 4157 0580 2d66 0500
000001c0: ac6c 0500 8e5a 0580 b29b 0500 d15d 0500
000001d0: 3757 0580 fd61 0500 dc75 0500 0966 0500
000001e0: b566 0580 9c73 0500 4063 0500 0a68 0500
000001f0: 1067 0580 cfa3 0680 486b 0580 0171 0500
00000200: 339a 0580 bac9 0580 8e62 0580 d970 0500
00000210: 7461 0580 9f65 0580 2458 0580 2378 0580
00000220: c48e 0580 c960 0580 0183 0500 0058 0500
00000230: 471b 0680 18a7 0680 0569 0500 8587 0580
00000240: 7468 0500 dbb0 0680 1f69 0580 3874 0580
00000250: d974 0580 3161 0580 fe59 0580 d27b 0500
00000260: 065f 0500 0058 0500 b45a 0580 915d 0500
00000270: 4c69 0580 54c6 0600 975d 0500 0261 0500
00000280: 5f69 0500 6e5b 0580 1760 0580 e964 0580
00000290: ed7e 0580 fd5f 0500 09a0 0680 d16a 0500
000002a0: f65d 0500 e858 0580 936b 0500 4a61 0580
000002b0: d458 0500 3e66 0500 735f 0500 c264 0580
000002c0: 5463 0500 f56d 0500 9460 0500 cf64 0580
000002d0: 57a6 0580 d760 0500 b364 0500 f264 0500
000002e0: e360 0500 8ba7 0600 8dc3 0580 718f 0500
000002f0: 1977 0500 0361 0580 f066 0580 f758 0580
00000300: 215c 0580 305a 0500 866b 0500 eed0 0500
00000310: a0e3 0500 4359 0580 506c 0580 ca60 0580
00000320: 94a4 0580 206d 0580 909d 0500 8661 0580
00000330: 7c66 0580 595e 0580 166e 0500 38fb 0500
00000340: 245e 0580 084a 0600 a46d 0580 7f5b 0500
00000350: c161 0580 e397 0580 8958 0580 9279 0580
00000360: cab8 0500 97b3 0500 fb62 0580 1365 0580
00000370: 496f 0500 9460 0580 1bfd 0580 c871 0680
00000380: 685c 0500 1a65 0580 d25a 0580 2c65 0500
00000390: 5461 0500 d75a 0580 8e5f 0500 ff5b 0500
000003a0: 885d 0580 7f65 0580 6060 0500 e889 0500
000003b0: 7568 0500 e3b9 0580 6977 0500 f267 0500
000003c0: 1cc6 0580 988b 0600 9ef2 0500 d572 0500
000003d0: 547c 0580 c16f 0580 7157 0500 f86b 0500
000003e0: e68f 0580 346f 0580 4c60 0500 d962 0580
000003f0: 666d 0500 2769 0500 9c68 0580 d5bf 0580

embedding.atom_embedding_list.2.weight f4 [12, 64]
0.049850967 0.05986765 0.0017329765 0.13167849 -0.107790254 -0.04217333 -0.46000358 0.09193807
-0.1295591 -0.20678991 0.059131533 -0.26218778 -0.27022284 0.36582315 0.13304748 0.25215682
0.04846118 0.086386204 0.15357602 0.048853945 -0.08256739 0.18355568 0.08436593 0.2678005
0.07263866 -0.37618276 0.20811024 -0.2696885 0.076226115 0.0044305003 0.010868075 -0.24535005
-0.08306023 0.35809228 0.034738794 0.03457694 0.26970556 0.10985003 0.061405648 0.10651656
-0.078852 -0.336137 0.049558952 0.013328684 0.27304322 0.24924669 0.020399863 -0.03496099
-0.29838938 0.0054390663 0.13631508 -0.07046922 -0.2172147 0.08806471 -0.2016464 -0.12682289
0.106633216 0.009352934 0.2183272 -0.14409575 0.073071055 -0.030970918 -0.09976022 -0.27716893
0.23256852 0.033899587 0.081362784 0.3328528 0.20951883 0.0015854301 0.049078062 -0.13195445
-0.08586316 0.40427557 -0.31727445 0.08603588 0.3294186 -0.13544449 0.046322387 -0.36252737
-0.029866198 0.009806122 0.29827732 0.11014565 0.42577556 -0.038676947 -0.07042949 0.1349376
0.15569602 0.3675381 -0.011731444 0.11642933 0.27988598 0.11452462 0.080048695 -0.38138902
-0.5306652 -0.005778332 0.25780487 -0.18729194 0.18713915 0.2627151 0.11234592 -0.0033261604
-0.40794656 0.42275727 0.27649164 0.31060085 0.44530216 -0.15720877 -0.21259727 -0.16950423
0.09347557 -0.71418935 -0.111424394 0.1499238 -0.28866848 0.059362218 -0.15004246 -0.15739408
-0.06828493 -0.028398458 -0.01167857 0.5489144 -0.037004944 -0.074367225 -0.4915266 -0.09026798
-0.169266 -0.3959114 -0.27798662 -0.24518554 0.23876882 0.3159649 0.22783914 -0.15426137
-0.07492951 -0.3418476 -0.08552342 -0.15887275 -0.21858007 -0.29636446 0.025478208 0.0970106
-0.34082285 -0.118088 -0.040729877 0.14816177 -0.18755208 0.40795133 -0.34102756 0.39336172
-0.08950285 0.09512442 0.1921928 -0.17694913 0.0018896257 0.2672411 -0.36969343 -0.038266923
-0.36310154 -0.29324278 -0.0041891863 -0.22196364 0.033836443 -0.4960937 0.42295486 -0.03761636
0.38627315 0.091283046 -0.47162384 -0.12286723 0.08016547 0.37734815 -0.12184752 -0.17639104
0.15747364 0.22953525 -0.199662 0.241063 0.26066703 -0.37354913 0.08678704 0.040628314
0.25123417 0.025691962 -0.12373095 0.09985947 -0.42012912 0.059209894 0.32767472 0.0988131
0.21601251 0.12931995 0.19408499 0.08460472 -0.3123305 -0.3515687 0.1986943 -0.03613934
-0.05794919 -0.036270306 -0.10117304 -0.16458865 0.25701153 0.1097506 -0.08134414 0.31435633
0.50606734 -0.027417064 -0.3084174 0.10809691 -0.03239462 -0.14618501 0.12592761 -0.3748253
0.09157342 0.14827918 0.011233605 0.078046255 -0.3677069 -0.1235861 0.17468788 0.22719131
0.1731835 0.10318778 -0.34958705 -0.24425715 0.08968328 0.15236913 -0.030113922 -0.037345964
0.15029836 -0.028414581 -0.037579857 -0.16142595 -0.071224146 -0.10080881 0.019533142 -0.011415589
-0.007557459 0.32046697 0.49300075 0.12389157 0.0269013 0.0498597 -0.17233755 -0.0641819
-0.2944294 0.074202165 0.414438 0.07707523 0.34139633 -0.25007322 -0.24471799 -0.011517797
00000000: 8730 4c3d c837 753d 0b25 e33a bad6 063e
00000010: 23c1 dcbd f1bd 2cbd 9785 ebbe 074a bc3d
00000020: 24ab 04be bcc0 53be e833 723d 7a3d 86be
00000030: a65a 8abe 2c4d bb3e 993d 083e b31a 813e
00000040: 3b7f 463d 40eb b03d 0843 1d3e 131b 483d
00000050: 1719 a9bd 05f6 3b3e 0bc8 ac3d 261d 893e
00000060: 94c3 943d 079b c0be da1a 553e 9c14 8abe
00000070: 701c 9c3d bb2d 913b 0310 323c 0b3d 7bbe
00000080: 7b1b aabd df57 b73e 444a 0e3d 8da0 0d3d
00000090: d916 8a3e 0df9 e03d 7d84 7b3d 5b25 da3d
000000a0: 287d a1bd 261a acbe 54fe 4a3d 8d60 5a3c
000000b0: 52cc 8b3e 863a 7f3e 9d1d a73c 4133 0fbd
000000c0: 7ec6 98be 323a b23b 2e96 0b3e 2b52 90bd
000000d0: 886d 5ebe 455b b43d 657c 4ebe dcdd 01be
000000e0: 8462 da3d 0c3d 193c 2a91 5f3e d68d 13be
000000f0: 47a6 953d b9b6 fdbc 164f ccbd 16e9 8dbe
00000100: 7126 6e3e 4bda 0a3d 88a1 a63d af6b aa3e
00000110: 1b8c 563e 35ce cf3a 1406 493d 111f 07be
00000120: 06d9 afbd 35fd ce3e cc71 a2be 9433 b03d
00000130: 8ea9 a83e f6b1 0abe 8bbc 3d3d 309d b9be
00000140: f5a9 f4bc dba9 203c ceb7 983e 0b94 e13d
00000150: 41ff d93e b86b 1ebd 563d 90bd 152d 0a3e
00000160: c76e 1f3e f42d bc3e 3e35 40bc 8072 ee3d
00000170: 374d 8f3e e28b ea3d 92f0 a33d 6c45 c3be
00000180: add9 07bf 2958 bdbb 00ff 833e 75c9 3fbe
00000190: 68a1 3f3e 9882 863e 9e15 e63d b6fb 59bb
000001a0: 5fde d0be a473 d83e 5090 8d3e 1307 9f3e
000001b0: a5fe e33e 56fb 20be 19b3 59be 8492 2dbe
000001c0: 1f70 bf3d 1dd5 36bf 7932 e4bd a085 193e
000001d0: 5bcc 93be cc25 733d bba4 19be ea2b 21be
000001e0: f8d8 8bbd e2a3 e8bc 7957 3fbc a785 0c3f
000001f0: 7f92 17bd d84d 98bd 60a9 fbbe 6bde b8bd
00000200: 1154 2dbe e6b4 cabe 4354 8ebe eb11 7bbe
00000210: d07f 743e 27c6 a13e aa4e 693e b1f6 1dbe
00000220: a574 99bd a606 afbe e726 afbd 8aaf 22be
00000230: 74d3 5fbe 15bd 97be adb7 d03c 7ead c63d
00000240: 5580 aebe 1fd8 f1bd 5fd4 26bd b8b7 173e
00000250: a70d 40be ffde d03e 2a9b aebe b566 c93e
00000260: 454d b7bd 98d0 c23d 30ce 443e 2732 35be
00000270: 51ad f73a d3d3 883e 7548 bdbe c7bd 1cbd
00000280: 72e8 b9be eb23 96be 7145 89bb 704a 63be
00000290: 1598 0a3d feff fdbe 8a8d d83e 9d13 1abd
000002a0: 98c5 c53e 9bf2 ba3d ae78 f1be d0a1 fbbd
000002b0: cb2d a43d c733 c13e 318b f9bd da9f 34be
000002c0: c540 213e 4a0b 6b3e 3274 4cbe 38d9 763e
000002d0: 2676 853e d541 bfbe 67bd b13d e069 263d
000002e0: c4a1 803e f377 d23c a766 fdbd 1f83 cc3d
000002f0: 2a1b d7be 1386 723d fbc4 a73e 865e ca3d
00000300: 6232 5d3e 736c 043e 37be 463e 3d45 ad3d
00000310: c9e9 9fbe d000 b4be 8576 4b3e d806 14bd
00000320: 215c 6dbd 2c90 14bd d033 cfbd ed89 28be
00000330: 0497 833e ecc4 e03d c297 a6bd 50f3 a03e
00000340: a18d 013f c099 e0bc e3e8 9dbe ea61 dd3d
00000350: 39b0 04bd 86b1 15be 2bf3 003e 1ae9 bfbe
00000360: d88a bb3d 7fd6 173e 280d 383c b7d6 9f3d
00000370: 1444 bcbe b61a fdbd 61e1 323e d7a4 683e
00000380: 0457 313e 1d54 d33d 13fd b2be 8c1e 7abe
00000390: deab b73d a706 1c3e 79b1 f6bc 15f8 18bd
000003a0: d0e7 193e b2c5 e8bc 56ed 19bd d84c 25be
000003b0: f7dd 91bd d974 cebd f803 a03c 7308 3bbc
000003c0: 90a4 f7bb 3f14 a43e 986a fc3e ddba fd3d
000003d0: 1d60 dc3c af39 4c3d 4179 30be cd71 83bd
000003e0: 73bf 96be 4ef7 973d 3831 d43e 9ed9 9d3d
000003f0: 80cb ae3e 9909 80be 5a97 7abe 24b5 3cbc

embedding.atom_embedding_list.3.weight f4 [12, 64]
-0.0052289465 0.008823452 3.50194e-07 -0.0036001338 7.058489e-05 0.003281511 9.025572e-06 0.005547449
0.000853171 0.00960536 0.008032496 -9.4416066e-08 0.0056905914 4.2921863e-05 1.956066e-08 0.0001264974
0.0018729011 0.0030057237 -0.00012259037 -0.010791764 -0.0005288915 -0.0018706857 0.002694014 -0.002220616
0.0021960568 0.0013818115 8.2530125e-05 0.0031053994 -6.095017e-05 0.0006813982 6.303499e-06 0.00018807982
-2.3441055e-05 0.0013227845 -0.0030321656 0.007423949 1.3211993e-05 -2.2596225e-08 -0.00012689625 0.0002137388
-0.0026777857 4.5457215e-05 0.010282629 -1.5146766e-07 -7.2954185e-06 -0.0001364351 0.0036063585 0.0017862916
0.0008478097 0.002265071 -0.00032055413 -6.052437e-07 -0.0009467107 -0.0011703144 0.0028793605 0.0037878975
-4.7725894e-06 1.9519561e-07 -0.00257225 -0.002083861 0.0050382456 -4.2947836e-09 0.0021457865 -0.0038095093
0.06626353 -0.062159482 0.031207597 0.029002113 -0.017891368 -0.107456625 0.0431303 -0.03382539
0.079649515 -0.026263008 -0.033693533 -0.0028919664 0.0061503565 -0.045242712 -0.016776638 0.04496092
0.09350043 -0.073749624 -0.041987095 0.053844206 0.027548226 -0.05714627 0.08962603 -0.2142406
-0.07908037 0.05401105 -0.026166987 -0.023145333 -0.084738694 -0.07900456 0.045715433 0.09341805
0.11435146 -0.048912212 -0.02618326 -0.077300705 -0.053000987 -0.021093214 -0.036294155 0.007036721
0.0889876 -0.022414701 -0.13184038 -0.0392266 -0.068154015 -0.07031467 0.028214619 0.047353774
-0.0077934144 0.020241398 0.16151483 0.039734796 0.07260125 0.06872709 -0.03142513 0.014722755
-0.07638848 -0.012486131 0.06895053 -0.009114906 -0.009802512 -0.076635264 0.012653363 0.06609545
-0.019420806 0.014910949 0.024141174 0.033342816 0.0009851434 0.004417379 0.004110707 0.020615691
0.06663974 0.0047713653 0.024708515 -0.0075040027 0.053691298 -0.029169565 0.013564605 0.012987144
-0.04214934 -0.017529523 0.069335766 -0.0052918536 -0.007601995 0.0042774095 -0.022574458 0.007286262
0.011075592 0.059311647 0.02542069 -0.011130272 0.011090151 -0.010078741 0.030659338 -0.008111322
0.0018757122 0.005856893 0.0723254 -0.026883127 0.003988993 -0.0015100274 -0.024570547 0.06536689
-0.055815876 -0.0435264 -0.02090582 -0.03560291 -0.007750367 0.018867265 -0.018709902 0.020982357
0.00038430007 0.00083165674 0.005829085 -0.014865983 -0.030018596 0.010756332 0.001168968 0.025327759
-0.0030217634 -0.015308862 0.00057345716 -0.018850397 0.00269978 0.00287189 0.043389812 0.0015043631
0.07585819 -0.079487994 -0.04821134 -0.004179061 -0.036135342 -0.010528873 -0.030128205 -0.065552294
-0.09469378 -0.09138709 -0.025101453 -0.048862215 -0.07856474 0.04089609 -0.03329304 0.012250224
-0.023038127 -0.05693156 -0.06970523 0.053441573 0.050566737 0.05988967 0.037942607 -0.03434276
-0.021891482 -0.055203054 -0.039716914 0.012589006 0.009979711 0.018831618 -0.0023690485 0.0016288907
0.04333704 -0.0498821 -0.06949124 -0.047581084 0.030350115 -0.028392859 0.001981398 -0.043438997
0.1063669 0.036647573 -0.10424546 0.013742818 -0.010587721 0.0563391 -0.009190822 -0.05939378
-0.030610608 0.007453105 0.03711086 0.03691779 0.08470636 0.042687014 -0.057638325 -0.07484963
0.027337177 -0.00037414502 0.061202135 0.015018489 -0.057324365 -0.046391666 -0.050850708 0.02074216
00000000: 9557 abbb 3d90 103c 4c02 bc34 39f0 6bbb
00000010: f906 9438 9e0e 573b 896c 1737 60c7 b53b
00000020: 56a7 5f3a cd5f 1d3c bb9a 033c c8c1 cab3
00000030: 2478 ba3b 0007 3438 5906 a832 63a4 0439
00000040: 227c f53a adfb 443b 9a8b 00b9 f0cf 30bc
00000050: 4fa5 0aba cc31 f5ba 0e8e 303b c187 11bb
00000060: b8eb 0f3b e61d b53a 0614 ad38 f583 4b3b
00000070: bfa4 7fb8 dc9f 323a a582 d336 4b37 4539
00000080: 48a3 c4b7 4861 ad3a 4cb7 46bb 9944 f33b
00000090: 14a9 5d37 a019 c2b2 740f 05b9 121f 6039
000000a0: ca7d 2fbb 50a9 3e38 7978 283c 1da3 22b4
000000b0: 2bcb f4b6 0510 0fb9 a858 6c3b 0022 ea3a
000000c0: 8c3f 5e3a 9671 143b 0c10 a8b9 0878 22b5
000000d0: ae2c 78ba 3c65 99ba a7b3 3c3b 603e 783b
000000e0: 3b24 a0b6 f696 5134 3293 28bb 6391 08bb
000000f0: de17 a53b 5191 93b1 53a0 0c3b f6a8 79bb
00000100: 2cb5 873d f19a 7ebd 13a7 ff3c d795 ed3c
00000110: eb90 92bc 3812 dcbd 66a9 303d 7e8c 0abd
00000120: 491f a33d 8525 d7bc 3b02 0abd 2587 3dbb
00000130: ee88 c93b 6c50 39bd 296f 89bc f128 383d
00000140: 277d bf3d 0b0a 97bd a9fa 2bbd be8b 5c3d
00000150: d1ac e13c 3512 6abd da8d b73d e361 5bbe
00000160: e4f4 a1bd b13a 5d3d 265c d6bc 489b bdbc
00000170: 7b8b adbd 25cd a1bd 1b40 3b3d f651 bf3d
00000180: 1931 ea3d 2c58 48bd 477e d6bc d54f 9ebd
00000190: 9017 59bd adcb acbc 2ea9 14bd 4b94 e63b
000001a0: 213f b63d 099f b7bc 2a01 07be 12ac 20bd
000001b0: 5594 8bbd 2301 90bd 5822 e73c 08f6 413d
000001c0: e65f ffbb 4ad1 a53c 2564 253e f4c0 223d
000001d0: f7af 943d cac0 8c3d a3b7 00bd b637 713c
000001e0: 9071 9cbd a192 4cbc ef35 8d3d b056 15bc
000001f0: b79a 20bc f3f2 9cbd 0d50 4f3c 0d5d 873d
00000200: 6218 9fbc 0e4d 743c b6c3 c53c 7a92 083d
00000210: ed1f 813a a9bf 903b 1cb3 863b 3de2 a83c
00000220: 6a7a 883d 1d59 9c3b 8369 ca3c 23e4 f5bb
00000230: 68eb 5b3d 03f5 eebc 143e 5e3c 08c8 543c
00000240: c9a4 2cbd 139a 8fbc e9ff 8d3d 4967 adbb
00000250: 281a f9bb 8329 8c3b 12ee b8bc 99c1 ee3b
00000260: 6676 353c c5f0 723d 0d3f d03c bf5b 36bc
00000270: 77b3 353c 4e21 25bc 4b29 fb3c 5ae5 04bc
00000280: 75da f53a 2eeb bf3b 571f 943d 013a dcbc
00000290: 19b6 823b 1dec c5ba 2c48 c9bc 13df 853d
000002a0: 309f 64bd bd48 32bd af42 abbc 5bd4 11bd
000002b0: caf6 fdbb 868f 9a3c 8245 99bc 31e3 ab3c
000002c0: e27b c939 8a03 5a3a e901 bf3b 7490 73bc
000002d0: 8fe9 f5bc 543b 303c 0f38 993a 297c cf3c
000002e0: c708 46bb 05d2 7abc 0f54 163a 266c 9abc
000002f0: cbee 303b 5236 3c3b 84b9 313d 0d2e c53a
00000300: 8a5b 9b3d 9aca a2bd 4179 45bd 81f0 88bb
00000310: a702 14bd 4b81 2cbc 6dcf f6bc 4840 86bd
00000320: d0ee c1bd 2829 bbbd 90a1 cdbc bf23 48bd
00000330: 8de6 a0bd a982 273d 485e 08bd 2ab5 483c
00000340: 74ba bcbc 1131 69bd 9ec1 8ebd 8de5 5a3d
00000350: 111f 4f3d df4e 753d b569 1b3d feaa 0cbd
00000360: c455 b3bc 991c 62bd 34ae 22bd 1e42 4e3c
00000370: f181 233c c444 9a3c 0a42 1bbb 8180 d53a
00000380: 2e82 313d 2c51 4cbd 6c51 8ebd 62e4 42bd
00000390: cea0 f83c 2498 e8bc 58da 013b 17ed 31bd
000003a0: e4d6 d93d c41b 163d a57e d5bd 8e29 613c
000003b0: 1f78 2dbc d4c3 663d 1a95 16bc e446 73bd
000003c0: 19c3 fabc 2d39 f43b 8f01 183d 1c37 173d
000003d0: 877a ad3d 94d8 2e3d 2a16 6cbd c34a 99bd
000003e0: 37f2 df3c e528 c4b9 17af 7a3d 1c10 763c
000003f0: f4cc 6abd 3005 3ebd d548 50bd 76eb a93c

embedding.atom_embedding_list.4.weight f4 [10, 64]
0.29773062 0.21762028 0.10711567 -0.21346478 0.15253904 -0.07912472 0.5856724 -0.22198106
0.014560234 -0.024605658 0.2928879 -0.03186531 0.4120372 -0.3851116 0.23729154 -0.32427332
-0.2983942 -0.5487013 -0.2585973 0.16082318 0.013820335 0.026091885 -0.14174514 0.0789387
-0.49671882 0.7714589 -0.13927977 -0.15803796 0.07404597 -0.0017812785 0.105539665 -0.29580954
0.03760057 -0.26675078 -0.21967982 -0.17033735 -0.0305999 0.13493967 -0.015340249 0.20937592
-0.18834712 0.084892124 -0.48439583 -0.15082438 -0.23104312 -0.1721299 0.33434713 -0.19518849
-0.21401322 -0.095281005 -0.20416535 0.38354406 0.0047810315 0.039995532 0.19251084 0.19973695
-0.17523578 0.2633166 0.18724796 -0.090138815 -0.24066764 0.081189096 -0.14030348 0.45189452
-0.4276966 -0.3757848 -0.041900504 -0.33182424 -0.31655738 0.027596004 -0.9329354 0.4311915
0.30309013 0.14538698 -0.35885853 -0.12334924 -0.52609754 0.6763406 -0.41651642 -0.1624489
0.0742969 0.60975605 -0.081266835 -0.16561082 -0.119519055 0.381735 -0.02209523 -0.07000856
0.43121645 -0.72877127 -0.25229022 0.31630757 0.23255262 -0.09285026 -0.21574806 0.3037824
-0.08108885 0.29789472 0.109262355 0.45326996 0.38369942 -0.20138259 0.070750006 -0.24778208
0.23422761 -0.19914126 0.3201677 0.12531768 0.13718024 -0.35427645 -0.45546103 -0.024649104
-0.254662 -0.2909424 -0.08355168 -0.39679617 -0.21290413 0.19264309 -0.113317996 -0.40069422
0.15906258 -0.31584722 -0.30340484 0.28949425 0.013580674 0.17687409 0.14568305 -0.84335124
0.035883967 0.3898598 0.03124586 0.038761113 -0.16253376 -0.017287893 -0.052677263 0.03936648
0.12927894 0.12293508 -0.09870507 0.08089742 0.03812514 0.0052200044 0.42896965 0.23891664
0.37573117 -0.18410309 -0.09171527 -0.060753964 0.08901098 -0.14445126 0.37223724 -0.09945168
-0.2349485 0.04440306 0.49915913 -0.15132822 -0.38111135 0.065858714 0.08044931 -0.363077
0.09116276 0.25820193 0.09400277 -0.1310567 0.08474681 0.3787171 0.024799703 -0.118179776
-0.32017794 -0.28257635 0.09938781 -0.2504315 0.24644674 -0.33912912 0.33331946 -0.08875447
0.15249263 -0.23108304 -0.028946837 -0.23879099 -0.51151675 0.2055268 0.06456853 0.095182285
-0.07512857 0.031274844 -0.08059245 0.07252537 0.01856396 0.1008875 -0.0019997035 0.22471413
-0.042355835 -0.25497437 -0.14052832 0.07629885 0.22218257 0.22197652 0.169668 -0.3001337
-0.16697468 -0.24532634 0.13563406 0.16306816 0.14273259 -0.26575473 0.12835963 0.18532819
-0.20460042 -0.10609181 -0.18246983 -0.16843194 0.08390447 0.15817854 -0.267878 0.18419293
-0.18813422 0.2163657 0.012481178 -0.20613363 0.009071429 0.1928727 -0.15403946 -0.099147126
-0.16274132 -0.25904685 -0.14793622 -0.31930208 0.07176497 -0.19282565 0.2959242 0.1525007
0.06812945 -0.0028875417 -0.124200694 -0.013957729 -0.11392906 0.0081074415 0.068869546 -0.20607738
0.08288239 0.05634506 -0.009751254 0.24686098 0.13740362 -0.18012339 0.17031652 0.18576716
-0.05231265 0.4111269 -0.17816824 -0.07582461 -0.24505943 0.14900385 0.27141625 0.16463964
00000000: 2670 983e dad7 5e3e 765f db3d 8396 5abe
00000010: 3233 1c3e 240c a2bd a0ee 153f 014f 63be
00000020: 0c8e 6e3c ce91 c9bc 67f5 953e 3385 02bd
00000030: 8af6 d23e 592d c5be 8efc 723e 2707 a6be
00000040: 20c7 98be b077 0cbf de66 84be d5ae 243e
00000050: b06e 623c a6be d53c a325 11be 9daa a13d
00000060: ee51 febe 557e 453f 5b9f 0ebe b4d4 21be
00000070: 6aa5 973d ca79 e9ba 2e25 d83d 5974 97be
00000080: 0e03 1a3d 8f93 88be bff3 60be ea6c 2ebe
00000090: a4ac fabc a02d 0a3e ab55 7bbc a466 563e
000000a0: 11de 40be ecdb ad3d bb02 f8be b571 1abe
000000b0: 9196 6cbe d242 30be 8c2f ab3e 7edf 47be
000000c0: 4826 5bbe b022 c3bd b910 51be e35f c43e
000000d0: 33aa 9c3b 5bd2 233d 9021 453e d887 4c3e
000000e0: 0271 33be 6fd1 863e eebd 3f3e b39a b8bd
000000f0: 9471 76be 7846 a63d b7ab 0fbe b85e e73e
00000100: 0cfb dabe de66 c0be dd9f 2bbd dee4 a9be
00000110: cf13 a2be 0411 e23c dbd4 6ebf 22c5 dc3e
00000120: a12e 9b3e 53e0 143e 4ebc b7be 879e fcbd
00000130: 54ae 06bf a824 2d3f a441 d5be 0159 26be
00000140: f928 983d f918 1c3f 3a6f a6bd e295 29be
00000150: 68c6 f4bd c572 c33e 0e01 b5bc a660 8fbd
00000160: 67c8 dc3e c190 3abf 2f2c 81be 11f3 a13e
00000170: 4622 6e3e 4728 bebd 0fed 5cbe 5e89 9b3e
00000180: e911 a6bd a885 983e f1c4 df3d 0013 e83e
00000190: 4074 c43e 3d37 4ebe 61e5 903d 96ba 7dbe
000001a0: 5dd9 6f3e b0eb 4bbe 05ed a33e 4753 003e
000001b0: fa78 0c3e b963 b5be 3032 e9be ebec c9bc
000001c0: 0f63 82be 67f6 94be 251d abbd de28 cbbe
000001d0: 8a03 5abe 3b44 453e 4413 e8bd cb27 cdbe
000001e0: 4de1 223e bab6 a1be e157 9bbe 9738 943e
000001f0: 7a81 5e3c 7b1e 353e f02d 153e dee5 57bf
00000200: 11fb 123d b49b c73e 51f7 ff3c f9c3 1e3d
00000210: 406f 26be 579f 8dbc 1dc4 57bd bf3e 213d
00000220: b361 043e 63c5 fb3d e225 cabd 8cad a53d
00000230: 1b29 1c3d 920c ab3b e9a1 db3e 90a6 743e
00000240: d65f c03e 8585 3cbe 37d5 bbbd 26d9 78bd
00000250: 644b b63d 08eb 13be e195 be3e 53ad cbbd
00000260: 5796 70be fcdf 353d c991 ff3e c9f5 1abe
00000270: 0721 c3be efe0 863d 9cc2 a43d 3be5 b9be
00000280: 8bb3 ba3d 0b33 843e 8684 c03d ba33 06be
00000290: bc8f ad3d 35e7 c13e bf28 cb3c 3d08 f2bd
000002a0: 5dee a3be d9ad 90be d68b cb3d 8f38 80be
000002b0: 895c 7c3e 55a2 adbe d9a8 aa3e e7c4 b5bd
000002c0: 0727 1c3e 08a1 6cbe eb21 edbc a085 74be
000002d0: c3f2 02bf 9e75 523e 813c 843d eeee c23d
000002e0: 02dd 99bd 0d1a 003d a80d a5bd 2e88 943d
000002f0: 7213 983c 1b9e ce3d 750d 03bb 761b 663e
00000300: 507d 2dbd 008c 82be a8e6 0fbe 9242 9c3d
00000310: d483 633e d04d 633e 73bd 2d3e 20ab 99be
00000320: 69fb 2abe d436 7bbe a8e3 0a3e 57fb 263e
00000330: 7e28 123e 0111 88be b570 033e acc6 3d3e
00000340: c682 51be aa46 d9bd 5fd9 3abe 6c79 2cbe
00000350: 1bd6 ab3d 8ef9 213e 4e27 89be 129d 3c3e
00000360: 42a6 40be f88e 5d3e db7d 4c3c b214 53be
00000370: 55a0 143c 6c80 453e 85bc 1dbe a60d cbbd
00000380: a9a5 26be caa1 84be 987c 17be 907b a3be
00000390: 83f9 923d 1674 45be 6083 973e 2529 1c3e
000003a0: 7487 8b3d e93c 3dbb ef5c febd f5ae 64bc
000003b0: a453 e9bd 13d5 043c 7a0b 8d3d f305 53be
000003c0: 3ebe a93d 14ca 663d b9c3 1fbc 20c9 7c3e
000003d0: 89b3 0c3e 4472 38be 7467 2e3e bf39 3e3e
000003e0: ca45 56bd 3a7f d23e bc71 36be ef49 9bbd
000003f0: dcf0 7abe 7794 183e 12f7 8a3e 4b97 283e

embedding.atom_embedding_list.5.weight f4 [6, 64]
0.21639597 -0.25781578 0.0032609254 0.17410517 0.14921513 -0.050420452 -0.20716517 0.032027774
0.18144237 -0.027827514 0.18943647 0.14448087 0.13213235 -0.06925655 -0.124317974 -0.102144524
-0.19752757 -0.19229208 0.050886042 -0.13599485 -0.11309367 0.13054805 0.16550171 0.18874352
-0.27228612 -0.06294843 -0.08491559 0.03321682 -0.19966887 0.12377952 0.075273894 -0.208817
0.15535462 -0.05698346 0.17322917 0.25950122 -0.11725212 0.23841621 0.17651555 -0.18112615
-0.20480748 -0.19736649 0.26353452 0.21725555 0.24416034 0.21514426 -0.09513573 0.061851434
-0.18347713 -0.047880836 0.14029917 -0.11581414 0.061737325 0.072930254 -0.32080898 -0.11737934
-0.02635133 0.021105485 0.14418624 -0.182977 -0.20889509 -0.10884991 0.03751838 0.16775419
4.90745e-40 4.91525e-40 4.9626e-40 4.96868e-40 4.94486e-40 -4.99061e-40 4.92681e-40 5.15292e-40
-4.97087e-40 -4.97597e-40 5.7661e-40 4.98857e-40 -4.94693e-40 -4.90726e-40 4.95562e-40 -4.9167e-40
4.96793e-40 4.91357e-40 4.92346e-40 4.95683e-40 4.93145e-40 4.94808e-40 -4.93166e-40 6.24616e-40
5.41271e-40 -5.05275e-40 4.98338e-40 -4.98164e-40 5.05118e-40 4.98226e-40 4.94685e-40 -5.15906e-40
-4.96428e-40 5.09159e-40 -4.95288e-40 -4.98644e-40 -5.05521e-40 4.93127e-40 -5.21499e-40 -4.94813e-40
4.95943e-40 4.96772e-40 4.95188e-40 4.97004e-40 -4.99312e-40 4.91654e-40 4.96187e-40 4.95177e-40
4.93125e-40 -5.85084e-40 4.90844e-40 5.04794e-40 4.94325e-40 4.98508e-40 4.95943e-40 -4.98183e-40
-5.02119e-40 4.93516e-40 4.9615e-40 -5.22275e-40 -4.95533e-40 -5.28916e-40 5.42039e-40 4.97034e-40
-0.053410325 -0.050956417 -0.07343891 -0.04378622 -0.0034540733 0.059408706 0.03183802 -0.008050271
-0.078360446 -0.057898156 0.0063533755 -0.026479824 -0.051093023 0.009244503 0.02623032 0.04224053
-0.10557257 -0.009002389 -0.011247833 -0.00858667 -0.037440635 0.050008375 -0.12679614 0.12465873
-0.024555372 -0.056683253 0.009871043 -0.053130653 0.030479627 0.03244772 -0.08916152 -0.031971112
-0.05535576 -0.031884238 0.018087804 -0.012505279 -0.018636622 -0.0737922 0.07707252 0.025700599
0.059039265 0.02029166 -0.040602595 -0.029277131 0.020990133 0.09969815 -0.022975875 -0.06540887
0.02032459 0.034446172 -0.09924377 0.026686585 0.037400324 -0.12253963 0.042047024 0.03645498
0.08245019 0.0805333 -0.044607725 -0.0072156023 -0.08447859 0.080466606 0.04704594 0.014038944
4.93537e-40 4.92519e-40 -4.96357e-40 -4.9267e-40 4.97553e-40 4.99189e-40 4.91249e-40 4.95764e-40
4.98712e-40 4.92322e-40 4.9273e-40 4.92252e-40 -4.95499e-40 -4.93219e-40 -4.96358e-40 -4.93648e-40
-5.10806e-40 4.99581e-40 4.95016e-40 -5.00967e-40 -4.92615e-40 5.27065e-40 4.9435e-40 -4.97394e-40
-4.93362e-40 4.9378e-40 -6.07164e-40 5.00269e-40 4.99693e-40 -4.9328e-40 -4.90732e-40 4.9253e-40
-4.96941e-40 4.9573e-40 -4.9149e-40 -4.94496e-40 4.92251e-40 -5.08451e-40 -4.97226e-40 5.07533e-40
-4.97886e-40 -4.90473e-40 5.18489e-40 4.99318e-40 -4.97248e-40 5.11551e-40 -4.91584e-40 -6.26722e-40
4.91707e-40 -4.96989e-40 4.93174e-40 -4.93513e-40 5.06341e-40 4.97077e-40 -5.01268e-40 4.92544e-40
4.96155e-40 -4.91072e-40 4.98131e-40 -4.90827e-40 4.96322e-40 -4.92636e-40 -5.36985e-40 -4.97944e-40
00000000: e896 5d3e 6e00 84be 40b5 553b a048 323e
00000010: dacb 183e ad85 4ebd 1b23 54be 8e2f 033d
00000020: 07cc 393e 87f6 e3bc a2fb 413e cbf2 133e
00000030: b44d 073e 61d6 8dbd 6c9a febd 2631 d1bd
00000040: ab44 4abe 37e8 44be e26d 503d 3c42 0bbe
00000050: a79d e7bd 63ae 053e 4879 293e fb45 413e
00000060: 1669 8bbe 1beb 80bd 3ae8 adbd 5c0e 083d
00000070: ff75 4cbe 1e80 fd3d 3329 9a3d 20d4 55be
00000080: 4815 1f3e 7d67 69bd fd62 313e 58dd 843e
00000090: e121 f0bd 6123 743e 7ec0 343e 2279 39be
000000a0: 0db9 51be 711a 4abe ffed 863e 3d78 5e3e
000000b0: 2b05 7a3e c74e 5c3e 86d6 c2bd ee57 7d3d
000000c0: 6ee1 3bbe b21e 44bd 96aa 0f3e f72f edbd
000000d0: 47e0 7c3d 755c 953d 1341 a4be 9464 f0bd
000000e0: bfde d7bc 69e5 ac3c 8fa5 133e 535e 3bbe
000000f0: 98e8 55be b4ec debd dfac 193d c1c7 2b3e
00000100: ff57 0500 2c5a 0500 5f67 0500 1169 0500
00000110: 6d62 0500 2e6f 0580 655d 0500 6d9c 0500
00000120: ad69 0580 196b 0580 5b47 0600 9c6e 0500
00000130: 0163 0580 f257 0580 6d65 0500 935a 0580
00000140: db68 0500 b459 0500 765c 0500 c365 0500
00000150: b05e 0500 5363 0500 bf5e 0580 2dcd 0600
00000160: d8e4 0500 8080 0580 2a6d 0500 ae6c 0580
00000170: 1080 0500 da6c 0500 fb62 0500 239e 0580
00000180: d767 0580 548b 0500 a964 0580 046e 0580
00000190: 3081 0580 a35e 0500 baad 0580 5663 0580
000001a0: 7d66 0500 cc68 0500 6264 0500 7269 0500
000001b0: e16f 0580 885a 0500 2b67 0500 5a64 0500
000001c0: a25e 0500 fa5e 0680 4658 0500 297f 0500
000001d0: fa61 0500 a36d 0500 7d66 0500 bb6c 0580
000001e0: b477 0580 b95f 0500 1067 0500 e4af 0580
000001f0: 5865 0580 67c2 0580 fce6 0500 8769 0500
00000200: c9c4 5abd adb7 50bd 2467 96bd 2e59 33bd
00000210: bc5d 62bb 8b56 733d 9568 023d 49e5 03bc
00000220: 717b a0bd 9e26 6dbd fa2f d03b 37ec d8bc
00000230: eb46 51bd 4276 173c f8e0 d63c 6804 2d3d
00000240: 6e36 d8bd c27e 13bc d548 38bc 1baf 0cbc
00000250: 5a5b 19bd 95d5 4c3d d9d6 01be 144d ff3d
00000260: 5928 c9bc b32c 68bd 28ba 213c 879f 59bd
00000270: 69b0 f93c e7e7 043d 519a b6bd 24f4 02bd
00000280: b9bc 62bd 0c99 02bd e02c 943c f1e2 4cbc
00000290: d4ab 98bc 5d20 97bd 33d8 9d3d 108a d23c
000002a0: 28d3 713d b23a a63c e84e 26bd 98d6 efbc
000002b0: 80f3 ab3c 8b2e cc3d e737 bcbc 16f5 85bd
000002c0: c17f a63c 6e17 0d3d 5140 cbbd d39d da3c
000002d0: 1531 193d 0ff6 fabd 8039 2c3d d151 153d
000002e0: a5db a83d a5ee a43d 97b6 36bd dc70 ecbb
000002f0: 1c03 adbd adcb a43d 3eb3 403d 9903 663c
00000300: c85f 0500 f15c 0500 a467 0580 5d5d 0580
00000310: fa6a 0500 896f 0500 6759 0500 fd65 0500
00000320: 356e 0500 655c 0500 885d 0500 335c 0500
00000330: 4065 0580 e55e 0580 a567 0580 1760 0580
00000340: eb8f 0580 a170 0500 e763 0500 7e74 0580
00000350: 365d 0580 3ebd 0500 0c62 0500 886a 0580
00000360: 4b5f 0580 7560 0500 879c 0680 8c72 0500
00000370: f170 0500 105f 0580 f657 0580 f95c 0500
00000380: 4569 0580 e565 0500 135a 0580 7462 0580
00000390: 325c 0500 5b89 0580 106a 0580 cc86 0500
000003a0: e76b 0580 3d57 0580 56a5 0500 e56f 0500
000003b0: 206a 0580 ff91 0500 565a 0580 0cd3 0680
000003c0: ae5a 0500 6769 0580 c55e 0500 b75f 0580
000003d0: 7983 0500 a669 0500 5575 0580 035d 0500
000003e0: 1467 0500 e958 0580 966c 0500 3a58 0580
000003f0: 8b67 0500 455d 0580 e5d8 0580 116c 0580

embedding.atom_embedding_list.6.weight f4 [6, 64]
0.35082787 -0.006662829 0.35638812 0.19779453 0.05521875 0.020170243 0.2641091 -0.157439
0.29618725 0.100298814 -0.16149351 0.063959435 0.1485175 -0.39103448 -0.16937508 -0.07318843
0.11031614 -0.093383566 0.30726865 0.32062685 0.1043131 -0.08989044 0.020867892 -0.3530948
-0.0050490797 0.31285194 -0.019562839 0.016626116 -0.25830308 -0.14196305 -0.0059834947 0.11682849
0.17563708 -0.15815103 0.05572279 -0.037840918 -0.30546063 -0.12243529 -0.27906588 0.10002789
0.013175237 -0.23480397 -0.5820261 -0.030801522 -0.20265195 -0.13856368 0.09036432 0.24373274
-0.0036710717 -0.14834768 0.1975573 -0.03640675 -0.12620403 0.08977967 0.073428825 0.17910029
0.0006079051 -0.07014019 -0.021411998 -0.22439505 -0.09260986 -0.026823305 -0.009778646 0.25580403
0.28445676 -0.112793304 -0.031608585 0.05943139 0.18085629 -0.258544 0.35854313 -0.34795448
-0.053553913 0.061246358 -0.4308126 0.06836673 -0.10848607 -0.020934599 -0.06726272 -0.40898082
0.33168826 -0.2724008 0.13086656 0.25684315 0.20287569 -0.08638655 0.2618083 -0.100051664
0.060668584 0.09204254 0.121513546 -0.20821325 0.03261939 0.21642031 -0.16025408 -0.3510047
0.013864081 -0.15393193 -0.012178015 -0.04727413 -0.11996352 0.024867116 0.09702981 -0.2496588
0.05251925 0.2744226 0.12500808 0.27471018 0.078712404 -0.16041344 0.08180452 -0.16071616
0.41501433 -0.31048167 0.32066494 0.14494233 -0.0903544 0.10275792 -0.0059077614 -0.23306988
-0.11720259 0.12676099 -0.033322126 0.39103314 -0.13362981 -0.26349849 -0.35290176 0.13038385
-0.26496196 -0.0538043 -0.12318067 -0.23561546 0.06911083 -0.19472826 -0.31666726 0.37951592
0.083215564 0.24314196 0.16409107 -0.3144579 0.024478966 -0.06623006 -0.35642126 0.31485036
-0.066374764 0.0064716563 0.18373714 -0.30555075 -0.22913252 0.20927285 0.08955867 -0.104014
0.33764136 -0.18013765 -0.14860736 0.20886669 0.26751027 0.3029303 -0.15014356 0.20510557
0.039003212 -0.031902116 -0.282508 0.049656413 0.33576345 -0.36529088 -0.27575526 0.33929974
0.0513271 -0.29659116 0.35821882 0.17530063 0.0122796865 0.0590977 -0.29076946 0.11131827
-0.030065263 0.29294282 0.25598627 0.0010708049 -0.21282995 -0.24404134 -0.017258553 0.0744596
-0.023260394 -0.0058218925 -0.2729377 -0.014375284 0.09499028 -0.19131297 0.029227465 -0.45578086
-0.17466053 0.0767416 0.0074368957 -0.044891085 -0.11067304 0.0019312912 -0.29040107 0.24120012
0.014171821 -0.02744371 0.16857727 -0.17539409 -0.093896754 0.23027721 -0.067004554 0.15502931
0.02452435 0.121640556 0.104762554 -0.1361139 -0.15834656 0.10722355 0.04297524 -0.042126756
0.098702244 -0.2686055 0.0319534 -0.024379019 0.05354392 -0.039651122 -0.008208171 0.046302937
0.08094578 0.18929423 -0.049393628 0.05245081 0.21301602 0.03927522 -0.057658046 0.075027525
-0.08482647 -0.21682896 0.1626366 -0.0681943 0.053158257 0.0012562945 0.060116686 -0.07293707
-0.1559738 0.1281228 -0.052350182 -0.20376803 -0.14330386 0.050321862 -0.14786586 -0.024194539
0.001986882 -0.10827332 0.08728886 -0.11185607 0.12936074 0.046456415 -0.007413622 -0.21514335
00000000: b69f b33e dc53 dabb 8178 b63e a68a 4a3e
00000010: 0e2d 623d 113c a53c 4f39 873e b037 21be
00000020: dba5 973e 7769 cd3d 8e5e 25be 2afd 823d
00000030: f914 183e ac35 c8be a970 2dbe d1e3 95bd
00000040: 6eed e13d e23f bfbd 5152 9d3e 3429 a43e
00000050: 1ba2 d53d 7b18 b8bd 24f3 aa3c d7c8 b4be
00000060: c072 a5bb 212e a03e 3f42 a0bc 7e33 883c
00000070: 4d40 84be c35e 11be 3111 c4bb c643 ef3d
00000080: 35da 333e 58f2 21be 953d 643d 14ff 1abd
00000090: 5665 9cbe 5abf fabd b9e1 8ebe 6cdb cc3d
000000a0: f3dc 573c 7470 70be aaff 14bf 7953 fcbc
000000b0: fe83 4fbe a3e3 0dbe ee10 b93d 1395 793e
000000c0: 5d96 70bb 74e8 17be 764c 4a3e 3f1f 15bd
000000d0: a13b 01be 67de b73d da61 963d 1166 373e
000000e0: d25b 1f3a a9a5 8fbd 3768 afbc d1c7 65be
000000f0: 3daa bdbd 8cbc dbbc 9d36 20bc bff8 823e
00000100: 51a4 913e 2d00 e7bd 0178 01bd 546e 733d
00000110: 6432 393e e15f 84be f792 b73e 1727 b2be
00000120: 595b 5bbd 76dd 7a3d 7893 dcbe db03 8c3d
00000130: f22d debd 097f abbc 09c1 89bd ef65 d1be
00000140: 0bd3 a93e 1e78 8bbe e201 063e f280 833e
00000150: a5be 4f3e 6eeb b0bd bd0b 863e e3e7 ccbd
00000160: 9f7f 783d cd80 bc3d 18dc f83d db35 55be
00000170: e99b 053d 499d 5d3e a519 24be e3b6 b3be
00000180: 2c26 633c 55a0 1dbe 4c86 47bc 85a2 41bd
00000190: 6faf f5bd 1fb6 cb3c 91b7 c63d 8ea6 7fbe
000001a0: 6d1e 573d 1e81 8c3e 1e02 003e d0a6 8c3e
000001b0: f833 a13d 6c43 24be 2189 a73d c792 24be
000001c0: c27c d43e 74f7 9ebe 322e a43e c36b 143e
000001d0: ba0b b9bd bf72 d23d e595 c1bb dfa9 6ebe
000001e0: e907 f0bd a2cd 013e c87c 08bd 7f35 c83e
000001f0: 41d6 08be 46e9 86be 8aaf b4be 5883 053e
00000200: 18a9 87be e661 5cbd 2646 fcbd 2e45 71be
00000210: fb89 8d3d d866 47be 3622 a2be e94f c23e
00000220: ec6c aa3d 35fa 783e 7d07 283e a000 a1be
00000230: 1d88 c83c a0a3 87bd d97c b6be 1134 a13e
00000240: 7eef 87bd 3010 d43b 9725 3c3e 2671 9cbe
00000250: b7a1 6abe 9f4b 563e 896a b73d 4b05 d5bd
00000260: 54df ac3e 0176 38be 872c 18be 26e1 553e
00000270: 1bf7 883e ae19 9b3e 3cbf 19be 3207 523e
00000280: d5c1 1f3d cbab 02bd e3a4 90be 8664 4b3d
00000290: 30e9 ab3e 6807 bbbe cb2f 8dbe b2b8 ad3e
000002a0: 5d3c 523d ccda 97be 7568 b73e 0282 333e
000002b0: bd30 493c 6e10 723d bcdf 94be d5fa e33d
000002c0: 6d4b f6bc 9afc 953e a210 833e 405a 8c3a
000002d0: 18f0 59be f9e5 79be cf61 8dbc 467e 983d
000002e0: 958c bebc 93c5 bebb 7dbe 8bbe 5086 6bbc
000002f0: 448a c23d 8ce7 43be 706e ef3c 1c5c e9be
00000300: 36da 32be b32a 9d3d 34b1 f33b b7df 37bd
00000310: 8ca8 e2bd 6123 fd3a 73af 94be 2afd 763e
00000320: ed30 683c a2d1 e0bc 859f 2c3e 829a 33be
00000330: f14c c0bd cacd 6b3e af39 89bd 01c0 1e3e
00000340: 4ae7 c83c af1e f93d c08d d63d 7161 0bbe
00000350: 9a25 22be 0598 db3d ce06 303d 1b8d 2cbd
00000360: 6724 ca3d a986 89be 91e1 023d 82b6 c7bc
00000370: df50 5b3d 3769 22bd 917b 06bc 26a8 3d3d
00000380: e7c6 a53d 59d6 413e f950 4abd a9d6 563d
00000390: df20 5a3e 0edf 203d d82a 6cbd 08a8 993d
000003a0: 80b9 adbd 6908 5ebe 358a 263e 74a9 8bbd
000003b0: 79bc 593d 40aa a43a ea3c 763d 0860 95bd
000003c0: 99b7 1fbe a032 033e 256d 56bd 91a8 50be
000003d0: 3fbe 12be 4c1e 4e3d 266a 17be a033 c6bc
000003e0: 5936 023b 67be ddbd 80c4 b23d cc14 e5bd
000003f0: 2477 043e 1549 3e3d f8ed f2bb 8a4e 5cbe

embedding.atom_embedding_list.7.weight f4 [2, 64]
-0.1659442 0.24946727 0.05871893 -0.07501578 0.23202133 0.2013441 0.27327126 -0.12566368
0.22271775 0.37141863 -0.14016436 0.27818015 0.17676222 -0.28680897 0.078103 -0.34535998
0.18039575 0.37238187 -0.19509356 0.08822247 0.1717789 -0.27594748 -0.14320885 0.22577655
0.16402055 0.30067998 0.072303824 0.2711197 0.06213093 -0.14267457 -0.17793396 -0.320541
-0.34503153 0.028929116 -0.010557511 0.021184215 -0.303042 -0.031870645 0.2086919 -0.05142812
-0.18390138 0.2772135 0.34866884 0.18170232 -0.13760087 -0.13199797 0.12345296 0.29654673
0.24207129 -0.27463186 -0.29922763 0.13804506 -0.18161866 0.016483532 0.32668158 0.04247091
-0.2579998 -0.03458263 -0.256369 0.08790225 -0.08046958 0.1291206 -0.26394725 0.015523733
0.19507977 -0.041390393 -0.44081327 -0.14397076 -0.21364792 -0.3815249 -0.5963786 -0.08260207
-0.13054965 -0.36145133 -0.07634892 -0.422718 -0.48848566 0.108918674 -0.18067633 0.43114692
-0.32832196 -0.36116433 -0.29378843 0.022152752 0.24552572 0.4264607 0.29003885 -0.06183076
-0.22368787 -0.20531163 -0.21992901 -0.29152158 0.08318452 -0.0782013 0.061732307 -0.12709121
0.36142048 0.009278846 -0.3082626 -0.34281063 0.38692656 -0.086800076 -0.376732 0.24024661
0.3552345 -0.17086697 -0.335866 -0.29048136 0.006082219 -0.100517645 0.2983775 0.19268857
-0.28816923 -0.017647456 0.25624666 -0.2847889 0.23433676 0.39536676 -0.47102478 -0.30182883
0.11780603 -0.162974 0.33975944 -0.26510867 -0.09462189 0.19813897 -0.32773635 -0.2085078
00000000: 47ed 29be 5974 7f3e 4383 703d e0a1 99bd
00000010: 0097 6d3e 262d 4e3e 36ea 8b3e fbad 00be
00000020: 1f10 643e 952a be3e 3f87 0fbe a16d 8e3e
00000030: 2801 353e a0d8 92be 77f4 9f3d 06d3 b0be
00000040: aab9 383e d6a8 be3e 9bc6 47be fbad b43d
00000050: cfe6 2f3e fd48 8dbe 57a5 12be f831 673e
00000060: 01f5 273e baf2 993e 0714 943d 34d0 8a3e
00000070: 017d 7e3d 4819 12be 5234 36be f31d a4be
00000080: f9a7 b0be c1fc ec3c 69f9 2cbc 858a ad3c
00000090: 5228 9bbe cb8a 02bd 54b3 553e 4ba6 52bd
000000a0: a550 3cbe eeee 8d3e b984 b23e 2c10 3a3e
000000b0: 3ee7 0cbe 7a2a 07be e8d4 fc3d f9d4 973e
000000c0: 89e1 773e 8c9c 8cbe 5d34 99be af5b 0d3e
000000d0: 3efa 39be 7908 873c cf42 a73e faf5 2d3d
000000e0: 8d18 84be 84a6 0dbd cc42 83be 1806 b43d
000000f0: 3ccd a4bd 3138 043e 1824 87be 4157 7e3c
00000100: fec2 473e f988 29bd 47b2 e1be 126d 13be
00000110: 85c6 5abe 3b57 c3be 45ac 18bf 462b a9bd
00000120: cfae 05be 2610 b9be d35c 9cbd 7e6e d8be
00000130: cb1a fabe c110 df3d 3703 39be 4abf dc3e
00000140: d119 a8be 88ea b8be 706b 96be b079 b53c
00000150: 186b 7b3e 0f59 da3e f97f 943e 4042 7dbd
00000160: 6f0e 65be 363d 52be 1235 61be 5142 95be
00000170: a55c aa3d 0128 a0bd 04db 7c3d 3324 02be
00000180: 1b0c b93e 4d06 183c 98d4 9dbe e084 afbe
00000190: 3d1b c63e 3dc4 b1bd 04e3 c0be 3503 763e
000001a0: 4ce1 b53e c0f7 2ebe a1f6 abbe f9b9 94be
000001b0: 5a4d c73b 32dc cdbd f0c4 983e 2750 453e
000001c0: eb8a 93be 6691 90bc c332 833e dacf 91be
000001d0: faf5 6f3e 836d ca3e 292a f1be 4f89 9abe
000001e0: 4a44 f13d a8e2 26be f3f4 ad3e 53bc 87be
000001f0: 1fc9 c1bd f1e4 4a3e 0fcd a7be 1283 55be

embedding.atom_embedding_list.8.weight f4 [2, 64]
-0.21422866 0.077432975 -0.33390102 -0.20513937 -0.059201628 0.36662248 0.021748554 -0.035085734
-0.48746112 0.09099798 -0.12140012 0.083641715 -0.24212311 0.27555975 0.16377217 0.032008674
0.11922483 0.06701998 -0.31602532 -0.16618763 0.030686487 -0.0528684 0.07821595 0.11011999
0.036892507 0.030035459 -0.051787786 0.23963344 0.18844226 0.35318932 0.025921365 -0.03227075
-0.18853451 -0.12097862 -0.2728782 0.050065525 0.010230259 0.2154562 0.15734714 -0.23445134
0.21491416 0.21877569 0.25475726 -0.12863193 0.25186452 0.21612182 0.025755914 -0.20687242
-0.016489984 -0.15668839 -0.3589064 -0.095324606 0.1384738 -0.23976897 0.12399146 -0.05327495
0.4062408 -0.013202496 -0.23078252 0.1412146 0.06845949 0.35232586 0.02063358 -0.095839486
0.17170581 0.085953474 0.08297034 0.08169162 0.042433288 -0.10779657 -0.32431024 -0.23434913
0.38197702 -0.038426977 0.11121296 0.16208425 0.21386215 -0.1940945 0.19404365 0.08343845
0.09067509 0.077431366 0.22373806 0.4601279 0.31081703 -0.23768207 -0.026029145 -0.39297488
-0.08590505 0.019708492 -0.1563557 0.16456728 0.20618293 -0.37941992 0.29237995 0.26032013
0.019464087 -0.2090264 0.20191538 -0.33831477 -0.35075462 -0.011891448 -0.15829429 0.31405112
-0.22828476 -0.20880924 -0.4334493 -0.0044131503 -0.26805565 -0.07123599 -0.16667613 0.33045536
-0.1829703 -0.03155898 0.45689785 0.15301159 -0.037271768 0.49802274 -0.0033900898 -0.024998948
-0.022721274 -0.42329392 -0.11047602 -0.29798084 -0.070717745 -0.23069324 0.27351823 0.21220767
00000000: c25e 5bbe 2e95 9e3d 13f5 aabe 0e10 52be
00000010: 687d 72bd f1b5 bb3e 062a b23c 0fb6 0fbd
00000020: 8194 f9be 265d ba3d a0a0 f8bd 594c ab3d
00000030: 1fef 77be 2b16 8d3e e4b3 273e 871b 033d
00000040: 262c f43d c541 893d 12ce a1be 172d 2abe
00000050: 3a62 fb3c 898c 58bd af2f a03d 9786 e13d
00000060: 991c 173d ec0c f63c 6e1f 54bd 7862 753e
00000070: 02f7 403e 3bd5 b43e 0b59 d43c 552e 04bd
00000080: 310f 41be a4c3 f7bd b1b6 8bbe 8211 4d3d
00000090: d19c 273c 8da0 5c3e 9c1f 213e 0314 70be
000000a0: 7512 5c3e bc06 603e 8b6f 823e 17b8 03be
000000b0: 63f4 803e 0a4f 5d3e 11fe d23c 5dd6 53be
000000c0: 0116 87bc ec72 20be 94c2 b7be 8c39 c3bd
000000d0: 13cc 0d3e ff85 75be 3cef fd3d d536 5abd
000000e0: cbfe cf3e 484f 58bc 4152 6cbe 8f9a 103e
000000f0: 7d34 8c3d 0e64 b43e c107 a93c 7e47 c4bd
00000100: a6d3 2f3e 6008 b03d 5bec a93d f04d a73d
00000110: 87ce 2d3d 73c4 dcbd fe0b a6be 38f9 6fbe
00000120: 7e92 c33e 9b65 1dbd 9fc3 e33d 6af9 253e
00000130: aefe 5a3e b5c0 46be 61b3 463e c7e1 aa3d
00000140: ddb3 b93d 5694 9e3d 971b 653e e295 eb3e
00000150: 6923 9f3e ee62 73be 133b d5bc 0134 c9be
00000160: fdee afbd b473 a13c b51b 20be 5384 283e
00000170: 9e21 533e 5443 c2be d3b2 953e ae48 853e
00000180: 2673 9f3c 040b 56be e8c2 4e3e 9837 adbe
00000190: 1c96 b3be 59d4 42bc e617 22be 4fcb a03e
000001a0: 7bc3 69be 17d2 55be 11ed ddbe 309c 90bb
000001b0: 973e 89be 2de4 91bd 26ad 2abe 7231 a93e
000001c0: 915c 3bbe fd43 01bd 84ee e93e 12af 1c3e
000001d0: 48aa 18bd d6fc fe3e 452c 5ebb 98ca ccbc
000001e0: f721 babc fbb9 d8be 4041 e2bd f290 98be
000001f0: 77d4 90bd d93a 6cbe 950a 8c3e f84c 593e
