visualizations/best_model_sum.pth (torch, 101430 bytes, 16 tensors)

embedding.atom_embedding_list.0.weight f4 [119, 64]
00000000: 1b6a 7a9b f681 119c 9c54 f42b d47d c6b1
00000010: d48f da9a 1dad 549a a45f 8634 e36d 2619
00000020: 0285 f1ab 8266 dc26 9cf4 009e 45da d59b
00000030: f7f4 be1b a1bf 002b c4df 919e cf1b f3b1
00000040: 2ebf 3f9c fb06 879d 28d6 661b 7ff6 8f19
00000050: ee0f f598 7257 0c9c f2ca 02b1 7b84 179b
00000060: 2da3 ba9a 27be e99c a579 731b 55ec ba1b
00000070: 9f03 0a1b b925 d39a 5065 b69a 7a01 821d
00000080: 9ce8 fe2e 7243 25b5 4870 7fb2 9972 1b1b
00000090: 8b27 e39b e3b5 21a7 b379 b81b f511 3e2e
000000a0: a45d 1c28 5505 6a1b e107 279a c58e e6ac
000000b0: edbc a3b1 4904 101b e7df e79b 5748 739a
000000c0: f645 0e9b b536 d11b 35ea b724 2940 1331
000000d0: 3cb8 cb9b 6976 8024 c310 741c dfaa d29b
000000e0: c2eb 7f9b 2f33 2334 9076 8e1e 4d67 5c1a
000000f0: fcf9 bba3 2f66 d21c bb42 c7af db97 b72c
00000100: 8c94 0580 075f 0580 f166 0500 8b59 0580
00000110: 836f 0580 9474 0580 7768 0580 7f5d 0580
00000120: 69a2 0580 2876 0500 5562 0500 5c77 0500
00000130: d770 0680 ca76 0500 a069 0580 0934 0680
00000140: 6b98 0580 ad57 0500 8d6f 0500 2680 0500
00000150: 796a 0580 b762 0580 f76e 0580 5e9b 0680
00000160: 9a96 0580 25c6 0500 2ad5 0500 0397 0500
00000170: cc59 0580 e95f 0680 50a4 0580 9d71 0580
00000180: 3d63 0580 b27a 0580 4999 0580 f986 0500
00000190: 3ac5 0580 a087 0500 6b65 0500 086b 0500
000001a0: e06d 0500 f744 0680 827f 0580 8995 0580
000001b0: 265a 0580 e569 0580 f870 0580 a980 0580
000001c0: e25b 0580 c18f 0580 a074 0580 cc66 0500
000001d0: b861 0580 9e83 0500 76b5 0500 c894 0580
000001e0: 7173 0500 0ca5 0580 715d 0580 04c9 0580
000001f0: 458d 0500 4c62 0500 346d 0580 d38a 0580
00000200: e92a 29bb 2609 083e bb9a 9f3d 2a5b 7fbd
00000210: 938c 3f3e 3aeb 343d df7e 77bc f877 6a3c
00000220: e1df 2f3e 8a5e 9fbc 841b e03d c2d2 7cbd
00000230: 078f 6a3e 7aea 2cbe 51a7 14be 1148 873c
00000240: 88c8 0fbe 7a71 863d fd9d d73c db64 a83d
00000250: 0097 d8bc 7a4b 8dbd 316f 51bd 1149 063d
00000260: 5c95 c8be 2aca d33e c206 88bd ebbd 1b3e
00000270: 12a1 a6bc 0857 46be a015 853d 8b40 b7bd
00000280: 7e12 f13d b1a7 553d 2d01 b0be 0019 92bd
00000290: 6753 3fbd f826 763d 6436 8ebd 3244 fc3d
000002a0: cb48 c7be 987c 063e ce97 02be ea8c 9f3c
000002b0: 051a f5bc edff 9bbc f2c3 37bc 1aca 41bd
000002c0: bef3 92bd 0514 43bc 29f8 07bd 198a 863d
000002d0: 20a8 05be fb22 8b3d e030 dd3c 954b 523e
000002e0: a695 d0bd 79b0 a8bd 120e 70bb 6082 08be
000002f0: 0d49 e6bd a571 92bd 70cb 1b3e bf05 873d
00000300: c8f5 0500 0463 0500 ca58 0580 5659 0500
00000310: 645e 0500 307d 0580 7271 0500 0e9d 0500
00000320: 536f 0500 ae6b 0580 8f66 0580 5a69 0600
00000330: 1665 0500 a791 0500 8b59 0500 fa58 0580
00000340: e285 0580 4877 0500 f06a 0500 2f58 0500
00000350: f864 0500 3374 0580 4d71 0580 2972 0580
00000360: ca5a 0500 4857 0500 177c 0500 8265 0500
00000370: 5c9a 0500 3c7b 0500 066e 0500 3c5e 0580
00000380: 9864 0500 216b 0500 209e 0500 525b 0580
00000390: f75c 0580 df99 0580 4767 0500 6265 0580
000003a0: 5165 0500 7f79 0580 7e72 0600 5b6b 0500
000003b0: 0f66 0500 a87e 0580 bf65 0500 8959 0580
000003c0: f957 0580 1ed5 0580 acdb 0580 606e 0580
000003d0: 98a9 0500 cf57 0580 dc64 0500 5a5f 0580
000003e0: 9f4e 0680 6084 0500 d876 0500 285d 0500
000003f0: 036a 0580 df73 0580 a074 0580 cb69 0580
-2.07138e-22 -4.8144446e-22 1.7360727e-12 -5.7768634e-09 -9.0395054e-23 -4.3980412e-23 2.5029033e-07 8.60419e-24
-1.7160997e-12 1.5293351e-15 -6.826848e-21 -3.5378947e-22 3.1591168e-22 4.5740674e-13 -1.544502e-20 -7.0753923e-09
-6.3443693e-22 -3.574142e-21 1.9094352e-22 1.4885412e-23 -6.33471e-24 -4.6435135e-22 -1.903285e-09 -1.2533234e-22
-7.719142e-23 -1.54678e-21 2.0139794e-22 3.0923845e-22 1.1416262e-22 -8.73285e-23 -7.5437115e-23 3.441224e-21
1.15919024e-10 -6.1565436e-07 -1.4868483e-08 1.2858328e-22 -3.7579554e-22 -2.244184e-15 3.0518893e-22 4.3216947e-11
8.680045e-15 1.9357749e-22 -3.4541155e-23 -6.5528438e-12 -4.7654027e-09 1.1912785e-22 -3.8360438e-22 -5.0309658e-23
-1.176857e-22 3.4611503e-22 7.976036e-17 2.1427786e-09 -3.3702592e-22 5.5711746e-17 8.075449e-22 -3.4852009e-22
-2.1169283e-22 1.5199178e-07 1.5083871e-20 4.557838e-23 -2.0380453e-17 1.3923048e-21 -3.6245304e-10 5.218032e-12
-5.12466e-40 -4.93267e-40 4.96106e-40 -4.913e-40 -4.9918e-40 -5.00998e-40 -4.96652e-40 -4.92718e-40
-5.17439e-40 5.01564e-40 4.94452e-40 5.01996e-40 -5.91492e-40 5.01791e-40 -4.97069e-40 -5.6968e-40
-5.13855e-40 4.9063e-40 4.99194e-40 5.05148e-40 -4.97373e-40 -4.9459e-40 -4.98984e-40 -6.06748e-40
-5.13203e-40 5.30258e-40 5.35646e-40 5.1335e-40 -4.9139e-40 -5.85419e-40 -5.18122e-40 -4.99934e-40
-4.94777e-40 -5.03192e-40 -5.14166e-40 5.07597e-40 -5.29929e-40 5.0783e-40 4.9556e-40 4.97573e-40
4.98593e-40 -5.75753e-40 -5.04919e-40 -5.1282e-40 -4.91517e-40 -4.97165e-40 -4.99703e-40 -5.05332e-40
-4.92139e-40 -5.10747e-40 -5.01015e-40 4.96054e-40 -4.94232e-40 5.06393e-40 5.24273e-40 -5.1255e-40
5.0059e-40 -5.18385e-40 -4.92698e-40 -5.31288e-40 5.09855e-40 4.9444e-40 -4.98352e-40 -5.08978e-40
-0.002581293 0.1328474 0.07793184 -0.0623428 0.18705969 0.044169642 -0.015105932 0.014310829
0.17175247 -0.01945426 0.10942748 -0.06172443 0.22906123 -0.1688632 -0.14516951 0.016513856
-0.1404134 0.06564613 0.026320452 0.08222362 -0.02643919 -0.06899162 -0.05113143 0.032784525
-0.39176452 0.41365176 -0.06641914 0.15209167 -0.020340476 -0.19369137 0.06498265 -0.089478575
0.11771105 0.052161876 -0.34375897 -0.071336746 -0.046710398 0.060095757 -0.06943968 0.12317695
-0.38922724 0.13133466 -0.12753221 0.019476373 -0.029919634 -0.019042933 -0.011216151 -0.04731188
-0.071753964 -0.0119066285 -0.03319565 0.06569309 -0.13052416 0.06793781 0.027000844 0.20536645
-0.10184793 -0.082367845 -0.003662948 -0.13330984 -0.11244402 -0.07150582 0.15214324 0.06592893
5.47347e-40 4.94698e-40 -4.91029e-40 4.91225e-40 4.93038e-40 -5.04086e-40 4.99874e-40 5.15518e-40
4.99113e-40 -4.97806e-40 -4.95969e-40 5.88806e-40 4.9544e-40 5.11428e-40 4.913e-40 -4.91096e-40
-5.07206e-40 5.01968e-40 4.9754e-40 4.90812e-40 4.95398e-40 -5.00862e-40 -4.99822e-40 -5.0013e-40
4.91746e-40 4.90488e-40 5.03693e-40 4.95592e-40 5.14551e-40 5.03386e-40 4.98646e-40 -4.92982e-40
4.95264e-40 4.97608e-40 5.15902e-40 -4.91937e-40 -4.92527e-40 -5.14376e-40 4.96226e-40 -4.95547e-40
4.95523e-40 -5.02762e-40 5.92085e-40 4.9769e-40 4.95789e-40 -5.04613e-40 4.95677e-40 -4.91297e-40
-4.90736e-40 -5.3563e-40 -5.37981e-40 -4.98773e-40 5.20016e-40 -4.90677e-40 4.95359e-40 -4.93383e-40
-5.79217e-40 5.06665e-40 5.0181e-40 4.92596e-40 -4.97207e-40 -5.00744e-40 -5.01015e-40 -4.97129e-40

embedding.atom_embedding_list.1.weight f4 [5, 64]
00000000: 5d21 173d 72c9 303e 73a2 483d e443 4f3e
00000010: 4973 d93d 2d66 b13b 15ad 1c3e 3252 943d
00000020: ac88 6abe 83c9 dcbd ae7f 813d 1486 ad3d
00000030: 02fc 183e 6c94 003e c7ab 19be c9ca f13d
00000040: e592 5f3d ecb7 c83d 265c 193e 6c90 0ebd
00000050: bc1b e5bb 1027 52be 857a 3fbe 0dee a3bd
00000060: e039 1b3e df5e 9dbc 2625 97bd f1b7 573e
00000070: eb65 82bd 72da 423d bba4 883d 19ec 743e
00000080: 5d6d cf3c 24a1 e93c 803a 053d 804c 15bd
00000090: a3be 653e 847e 4e3e f478 92bd 2a60 0ebe
000000a0: ae15 eabd 6f98 153e 853c 7abe 4096 8d3d
000000b0: 2035 043e e6e2 e03d 8c50 48be 70fb 083e
000000c0: 8cf8 7f3d 3263 92bd c900 61be 06af 4c3d
000000d0: 476d 2b3e 6d79 973e 47cc 7d3d 3d50 6b3e
000000e0: fa98 4b3e 9ea0 5d3d 2015 cdbd dddf b33d
000000f0: d473 7b3e de14 27be 6b63 81bd 2626 89bd
00000100: bd63 0580 695c 0500 1073 0580 be79 0680
00000110: 216c 0580 2960 0580 e76b 0580 c864 0580
00000120: a558 0500 5666 0580 be65 0580 085a 0500
00000130: 8c74 0500 8f5f 0500 d868 0500 4e5f 0500
00000140: 0290 0500 b06a 0500 155f 0500 456d 0580
00000150: 9425 0680 7760 0500 437c 0500 696a 0500
00000160: 7b73 0580 f85b 0500 b457 0500 4266 0500
00000170: 6776 0500 636a 0500 7a6b 0500 9d5f 0580
00000180: 476c 0580 4e5f 0500 87e5 0580 ed85 0500
00000190: 8b30 0680 595e 0500 c861 0500 525b 0500
000001a0: 0c58 0580 2b78 0580 315d 0580 848f 0600
000001b0: b063 0500 f75a 0580 4157 0580 2d66 0500
000001c0: ac6c 0500 8e5a 0580 b29b 0500 d15d 0500
000001d0: 3757 0580 fd61 0500 dc75 0500 0966 0500
000001e0: b566 0580 9c73 0500 4063 0500 0a68 0500
000001f0: 1067 0580 cfa3 0680 486b 0580 0171 0500
00000200: 339a 0580 bac9 0580 8e62 0580 d970 0500
00000210: 7461 0580 9f65 0580 2458 0580 2378 0580
00000220: c48e 0580 c960 0580 0183 0500 0058 0500
00000230: 471b 0680 18a7 0680 0569 0500 8587 0580
00000240: 7468 0500 dbb0 0680 1f69 0580 3874 0580
00000250: d974 0580 3161 0580 fe59 0580 d27b 0500
00000260: 065f 0500 0058 0500 b45a 0580 915d 0500
00000270: 4c69 0580 54c6 0600 975d 0500 0261 0500
00000280: 5f69 0500 6e5b 0580 1760 0580 e964 0580
00000290: ed7e 0580 fd5f 0500 09a0 0680 d16a 0500
000002a0: f65d 0500 e858 0580 936b 0500 4a61 0580
000002b0: d458 0500 3e66 0500 735f 0500 c264 0580
000002c0: 5463 0500 f56d 0500 9460 0500 cf64 0580
000002d0: 57a6 0580 d760 0500 b364 0500 f264 0500
000002e0: e360 0500 8ba7 0600 8dc3 0580 718f 0500
000002f0: 1977 0500 0361 0580 f066 0580 f758 0580
00000300: 215c 0580 305a 0500 866b 0500 eed0 0500
00000310: a0e3 0500 4359 0580 506c 0580 ca60 0580
00000320: 94a4 0580 206d 0580 909d 0500 8661 0580
00000330: 7c66 0580 595e 0580 166e 0500 38fb 0500
00000340: 245e 0580 084a 0600 a46d 0580 7f5b 0500
00000350: c161 0580 e397 0580 8958 0580 9279 0580
00000360: cab8 0500 97b3 0500 fb62 0580 1365 0580
00000370: 496f 0500 9460 0580 1bfd 0580 c871 0680
00000380: 685c 0500 1a65 0580 d25a 0580 2c65 0500
00000390: 5461 0500 d75a 0580 8e5f 0500 ff5b 0500
000003a0: 885d 0580 7f65 0580 6060 0500 e889 0500
000003b0: 7568 0500 e3b9 0580 6977 0500 f267 0500
000003c0: 1cc6 0580 988b 0600 9ef2 0500 d572 0500
000003d0: 547c 0580 c16f 0580 7157 0500 f86b 0500
000003e0: e68f 0580 346f 0580 4c60 0500 d962 0580
000003f0: 666d 0500 2769 0500 9c68 0580 d5bf 0580
0.036897052 0.17264345 0.04898305 0.20240742 0.10617692 0.0054137916 0.153004 0.0724224
-0.22903699 -0.10780623 0.06323181 0.08472839 0.14939883 0.12556618 -0.15006934 0.11806256
0.05458345 0.09800705 0.14976558 -0.0348057 -0.0069918316 -0.20522714 -0.18699081 -0.08004389
0.15158796 -0.019210277 -0.073801324 0.21066262 -0.063670956 0.047571607 0.06672045 0.23918189
0.025320703 0.02851922 0.032526493 -0.03644991 0.22436003 0.2016545 -0.07151976 -0.13903871
-0.11429916 0.1460893 -0.24437149 0.069134235 0.1291089 0.109807774 -0.19561976 0.13377166
0.062492892 -0.07147826 -0.21972956 0.049971603 0.16740905 0.29584828 0.061962392 0.22979827
0.19882575 0.054108255 -0.10013795 0.08782933 0.24555904 -0.16316554 -0.063177906 -0.06696729
-4.94957e-40 4.92328e-40 -5.00454e-40 -5.94686e-40 -4.97967e-40 -4.93673e-40 -4.97886e-40 -4.95331e-40
4.90977e-40 -4.95889e-40 -4.95676e-40 4.91475e-40 5.00987e-40 4.93457e-40 4.96788e-40 4.93366e-40
5.10838e-40 4.9745e-40 4.93286e-40 -4.98376e-40 -5.64493e-40 4.93783e-40 5.03754e-40 4.9735e-40
-5.00604e-40 4.9217e-40 4.9064e-40 4.9586e-40 5.01652e-40 4.97342e-40 4.97733e-40 -4.93477e-40
-4.9802e-40 4.93366e-40 -5.41516e-40 5.07221e-40 -5.68427e-40 4.93023e-40 4.94255e-40 4.91937e-40
-4.90763e-40 -5.02286e-40 -4.92608e-40 6.02497e-40 4.94939e-40 -4.9181e-40 -4.90478e-40 4.95831e-40
4.98162e-40 -4.91662e-40 5.1503e-40 4.92832e-40 -4.90464e-40 4.94329e-40 5.01457e-40 4.95781e-40
-4.96022e-40 5.0065e-40 4.94782e-40 4.965e-40 -4.9615e-40 -6.09776e-40 -4.97663e-40 4.99716e-40
-5.14494e-40 -5.31543e-40 -4.94532e-40 4.9966e-40 -4.94137e-40 -4.95632e-40 -4.90796e-40 -5.02274e-40
-5.10392e-40 -4.93897e-40 5.06173e-40 4.90746e-40 -5.60798e-40 -6.10955e-40 4.96851e-40 -5.07793e-40
4.96648e-40 -6.14457e-40 -4.96888e-40 -5.00869e-40 -5.01095e-40 -4.94043e-40 -4.9146e-40 5.03596e-40
4.93265e-40 4.90746e-40 -4.91716e-40 4.92743e-40 -4.96951e-40 6.2216e-40 4.92751e-40 4.93977e-40
4.96978e-40 -4.91976e-40 -4.93648e-40 -4.95377e-40 -5.0471e-40 4.93612e-40 -6.08423e-40 4.97496e-40
4.92884e-40 -4.91071e-40 4.97768e-40 -4.94078e-40 4.91043e-40 4.95855e-40 4.93418e-40 -4.95323e-40
4.9481e-40 4.98623e-40 4.93823e-40 -4.95341e-40 -5.18849e-40 4.93917e-40 4.95302e-40 4.9539e-40
4.93934e-40 6.11116e-40 -5.29328e-40 5.10635e-40 5.01902e-40 -4.93979e-40 -4.96104e-40 -4.91092e-40
-4.92227e-40 4.9153e-40 4.9775e-40 5.34127e-40 5.40834e-40 -4.91199e-40 -4.98033e-40 -4.93899e-40
-5.18217e-40 -4.98324e-40 5.157e-40 -4.94162e-40 -4.95942e-40 -4.93023e-40 4.98669e-40 5.49298e-40
-4.92949e-40 5.7757e-40 -4.98509e-40 4.92e-40 -4.94245e-40 -5.13664e-40 -4.90938e-40 -5.02789e-40
5.25467e-40 5.23602e-40 -4.94685e-40 -4.95436e-40 4.99099e-40 -4.93823e-40 -5.49975e-40 -5.9183e-40
4.92327e-40 -4.95446e-40 -4.91758e-40 4.95471e-40 4.94092e-40 -4.91765e-40 4.93456e-40 4.9218e-40
-4.9273e-40 -4.95587e-40 4.9375e-40 5.08649e-40 4.9665e-40 -5.25861e-40 5.02014e-40 4.96466e-40
-5.30246e-40 6.0109e-40 5.46212e-40 5.00371e-40 -5.03778e-40 -4.99267e-40 4.90546e-40 4.9791e-40
-5.10799e-40 -4.9907e-40 4.93722e-40 -4.94637e-40 4.98422e-40 4.96899e-40 -4.96704e-40 -5.27994e-40

embedding.atom_embedding_list.2.weight f4 [12, 64]
00000000: 566e d0bd ff9d 15be 57d6 3bbe 5347 2f3e
00000010: a96b cdbb 8a1f 323e 8776 8cbe 7419 b8bc
00000020: 833f 253d 62b9 f0bd e450 80be 71e0 0f3e
00000030: 65a4 febd b53e 583d d123 083e 8dd8 7e3e
00000040: 76df 8a3e da4d b3bd 2aa7 973d 80bd f73c
00000050: 5bf6 a03d 713e 0cbd 95d9 d73d 2c28 06be
00000060: 2ea9 963c d74c 84be 2d22 10bd e733 cd3d
00000070: 5162 45bd 1f0d 543d 9141 a53d 8cd1 77bc
00000080: a608 7abe dcbd 283e 0856 333e f165 ddbd
00000090: d9df 763d 57e0 703c b9a7 a7bd ca68 48be
000000a0: 7660 07bd b5c1 79bb 75ca 023e cccf 0c3e
000000b0: 7651 143e acdb 33be 05b2 24bd 95a2 d93d
000000c0: f301 833e 2641 a0bc e7eb a13d 1780 4cbe
000000d0: adb8 13bd 4b8c 6dbc 78b3 fd3c 66b4 a1bd
000000e0: 1ddc dbbb f023 a3be 5482 40be db4d 6a3d
000000f0: 6598 35bb 27c4 43be ade5 823e 5d3e 27be
00000100: f512 033e 934b 3fbe a8b9 ce3e 3f39 513f
00000110: 1056 19bf 0453 c8bd cb5b 8cbf 79d8 073e
00000120: d093 fe3e e0d6 0cbf 1889 a4bf 81e9 f7bc
00000130: c088 983d 0e44 3ebe dde9 7f3e 6192 da3e
00000140: 0b96 d53e c7bb b73e 2c46 423e 7e2e d23e
00000150: 5412 883d 809a 95bd 9226 1d3d b335 3bbf
00000160: af28 333f e831 babe 4cda 78bd 2356 61bf
00000170: b4b9 0e3f 0587 a43e b011 b93e f185 02bf
00000180: 3c7e 22bf 7067 433f 21f8 6d3f 8dcd 92bd
00000190: eb88 973d 23ec 9cbe 765d b0bd b7e8 1cbf
000001a0: 9fb7 fabe d344 303d 6bb7 0a3f fa70 2b3f
000001b0: 3385 1b3f 9eb3 39bf 3380 d8be 219a 873d
000001c0: ffe1 31bf 307f 1bbf 4122 833f 8023 e83e
000001d0: 507c 0bbe 7272 123e efc8 b1be 68dc 1c3c
000001e0: 69e9 c2be 7100 08bf bda0 5dbe 7c43 a73e
000001f0: f434 5e3d c58a 00bf 1588 23bf 2f01 43be
00000200: 80cb 413e 6839 f5be 459c cabc 4bb2 0ebd
00000210: 681d 403f b758 9c3d 4787 143e 9fb2 c43c
00000220: e31b 353f cd35 70bf 67a0 b63d 7b66 85be
00000230: af03 0fbf b5cc c4be 5ffc 7cbe 3e89 db3c
00000240: db64 b8be b7c6 2abf fc69 f9bd c80c 03be
00000250: 6318 16be 21d8 a73e d540 043f 0929 3a3f
00000260: 3964 1cbf 2d73 223d c5b3 96be e601 f4be
00000270: 03a3 b93e 6dd4 03bf d464 1cbe 6ec9 a6be
00000280: b7b3 18bf 5afa f13e 7576 843d 6f49 7abf
00000290: f340 303e f738 68be 4c57 0cbf 23e7 c83d
000002a0: a182 adbe 5ef0 913d 2c3a ddbe 7bb3 d33e
000002b0: 4383 ac3e 2210 4a3c 4782 d43e 4e61 2cbe
000002c0: 461e 933c 663e e13d e0df 9a3c 226b 18bf
000002d0: dd72 3cbe 057d a13e 6e28 09bf b25d 83bd
000002e0: 841a 8f3e 5cee d1be 8e20 173e 37f9 25be
000002f0: bae1 8bbf f1c8 abbc 2362 0f3f 28e9 a6be
00000300: b661 6d3d e904 733e 7465 dd3e 68c0 a4bd
00000310: 6378 91be b8fa bd3d 41d3 b23e fde6 f2bd
00000320: 3782 94be 15b7 9a3e 7eaa c3bc 14dc bbbd
00000330: cd58 133f f321 013d 9ecf b5be 330f 8f3e
00000340: 2afe db3e 7a3f 5b3e ad65 73be 2fca bf3c
00000350: f871 a3bd 49c3 a5be 766e b7be 02c1 debd
00000360: c030 843e 6b46 bc3d 8a96 813d 1006 7a3e
00000370: 0c4f 17bf e413 8f3d d019 64bb 790e 6f3e
00000380: 8099 513e 7e77 5abe 34ed 00bf cc56 223d
00000390: 9399 76be c04e f63d 2c11 d43e fdf6 673e
000003a0: e9ef f23e 65d1 50be e6c2 2fbd f120 a3bd
000003b0: 4f76 91be 6c59 1b3e f146 33be 1fbf 8d3d
000003c0: f9fc 473e f022 d43e 6664 e33c 58dc df3e
000003d0: 97d6 803e f733 f2be a06f 813e 51ba 993b
000003e0: cfe8 90be c859 c63e 7fec 4a3e 2e82 8a3e
000003f0: 84d9 153f 4bcb 2ebb 91c2 94be 6f12 103e
-0.10177295 -0.14611052 -0.18343483 0.17117052 -0.0062689376 0.17394844 -0.2743418 -0.022473074
0.040343773 -0.11754109 -0.25061715 0.14050461 -0.124336995 0.052794177 0.13294913 0.24887295
0.27123612 -0.087550834 0.07404931 0.030241728 0.078594886 -0.034239236 0.10539547 -0.13101262
0.018391218 -0.25839874 -0.035188843 0.10019665 -0.048189465 0.051770326 0.080691464 -0.015125643
-0.24417362 0.16478676 0.17513287 -0.108104594 0.06027207 0.014701924 -0.081862874 -0.19571224
-0.033050977 -0.0038109843 0.12772544 0.13751143 0.144842 -0.17564267 -0.040208835 0.10626713
0.25587425 -0.019562315 0.07906323 -0.19970737 -0.036064792 -0.0144987805 0.030969366 -0.078957364
-0.006709589 -0.31863356 -0.18799716 0.057203155 -0.0027709242 -0.19117795 0.25565854 -0.16332383
0.128002 -0.18681173 0.4037602 0.81727976 -0.59896946 -0.09781459 -1.0965513 0.13266172
0.49722147 -0.55015373 -1.2854338 -0.03026271 0.07447958 -0.18580648 0.24991556 0.42689803
0.41716036 0.3588545 0.18972081 0.41051096 0.06644121 -0.07304859 0.03836686 -0.73128814
0.69983953 -0.363662 -0.06075506 -0.8802206 0.5575211 0.32134262 0.36146307 -0.5098563
-0.6347387 0.7632971 0.9295674 -0.07168112 0.07399162 -0.30648908 -0.08611576 -0.61292595
-0.48968217 0.043034386 0.54186124 0.66969264 0.6075012 -0.725397 -0.42285308 0.06621195
-0.6948547 -0.6074095 1.0244828 0.45339584 -0.1362164 0.1430147 -0.34723613 0.009574033
-0.38068703 -0.53125674 -0.21643348 0.32668674 0.05424972 -0.50211746 -0.6387952 -0.1904342
0.18925285 -0.4789536 -0.024732718 -0.034838002 0.7504487 0.076341085 0.14504729 0.024010954
0.70745677 -0.93832093 0.08917313 -0.2605475 -0.55864996 -0.3843743 -0.24705647 0.02679884
-0.36014447 -0.66709465 -0.12178418 -0.12797844 -0.1465774 0.3278208 0.51661426 0.72718865
-0.6109043 0.03966062 -0.29434028 -0.47657698 0.3625718 -0.5149601 -0.15272838 -0.32575554
-0.59649223 0.47261316 0.064679064 -0.977683 0.17212276 -0.2267798 -0.54820704 0.09809711
-0.33888724 0.071259245 -0.43208444 0.4134787 0.33693895 0.012332948 0.41505644 -0.16833994
0.017958771 0.1099823 0.01890558 -0.5953847 -0.18403192 0.31540695 -0.53577316 -0.06414355
0.27949917 -0.41002166 0.14758512 -0.16208349 -1.0928261 -0.02096984 0.5600912 -0.3259976
0.057954513 0.23732342 0.43241465 -0.08044511 -0.2841216 0.092763364 0.349268 -0.11860464
-0.29005596 0.30217806 -0.023885008 -0.09172836 0.57557374 0.031526517 -0.35509962 0.27941284
0.4296735 0.21410933 -0.23769255 0.023411838 -0.07980722 -0.32375553 -0.35826463 -0.10876657
0.25818443 0.09193119 0.06327541 0.24416375 -0.5910499 0.06986216 -0.0034805425 0.23345365
0.20468712 -0.21334645 -0.50361943 0.039633557 -0.24082021 0.12026739 0.4141935 0.22652812
0.47448662 -0.20392378 -0.04291048 -0.079652674 -0.28410575 0.1517083 -0.17507531 0.06921219
0.19530095 0.41432905 0.027757835 0.43722796 0.2516372 -0.4730527 0.25280476 0.0046914
-0.2830262 0.38740373 0.19816779 0.27052444 0.5853503 -0.0026671465 -0.29054692 0.14069532

embedding.atom_embedding_list.3.weight f4 [12, 64]
00000000: db86 a2bc 71c8 50bc ed80 e23b 067f cbbc
00000010: f27f 4f3b 91df 19bc c306 c43c ba45 8a3c
00000020: 99f4 4abc 326e 743c d8e9 963c 0e42 53bc
00000030: f440 063b 7d0c 4c3c de27 6dbb 428d a3bc
00000040: 3518 abbb 5e87 e03c 3d5c d03b 8464 debb
00000050: c5c4 89bc a391 c8bb 0b5c 61bc 6211 133c
00000060: 163d 263c 1f77 2c3a 3939 26bc c24c c43c
00000070: df0e 663c c070 07bc 330f 9dbb dc7e 8a3c
00000080: 49a4 59ba 0493 6ebc 42df 88bc 77f2 863c
00000090: bcc0 debb 7ad9 d7bc 606f 1f3b c549 833b
000000a0: d414 943b 5bff 6f3c 3349 c23b 7fac 61bc
000000b0: 1c9d 76bb 8031 e5bb 903c a5bc 0c52 523c
000000c0: 66f4 18bc b0a5 643c 1a21 8dbc 8569 aa3c
000000d0: c4bf d33a a8d8 7ebc 1d1f 483c 4975 6d3c
000000e0: 734e 9abc e6e1 c03c fbe4 d2bb 1d3e b83a
000000f0: a7ad bc3c 076b 853c 0610 34bc 9551 123c
00000100: 4c83 813d 70d5 593d f40a bebd 1e0c 59bd
00000110: b8f1 1cbc cda9 07be 1b3a fc3d 49d8 35be
00000120: aa38 523b 4ad8 0bbd ca0b cd3d ecba b43d
00000130: 9396 e83c 3c5c 1e3c cbe5 c8bb 8526 2abe
00000140: d9e7 39be 9f8f 013d ecff f23d 2408 adbc
00000150: b7f9 b5bd 33f7 193d d3e8 07be b6d7 773d
00000160: 45c9 27bb e9d8 7c3e 3916 6f3d 6c96 f2bc
00000170: 9560 4c3d 378f 1c3d b970 94bb 5333 5c3d
00000180: 6f40 1a3e 81f6 963c ae7e b03d 25a5 6f3e
00000190: 95eb e33c fd7a c4bd e959 a33d c58b 33bb
000001a0: 5746 75bd 899e 1c3d d7ce 3cbd 1eaa 1bbe
000001b0: 30fc 4cbe cad8 2ebb 908a 66bd 556e af3c
000001c0: 1c1a 5cbe 1e33 9bbd 5a27 8cbd 9a29 203d
000001d0: d303 0dbd 2fe2 0c3d 543d 11bd 47b5 37bd
000001e0: 391b 4bbd 1701 a5bd dbc2 c53d 4fcb fcbd
000001f0: 73a4 95bd 67b4 a6bd 38cd 70bd edd0 83bd
00000200: d9b0 efbd 0ef5 42be 633f 21bd d6e8 bbbc
00000210: c757 acbd 8d54 143d f177 d33d b537 1ebd
00000220: 21a1 df3c 5587 f83d 2988 d1bd 9b00 f93c
00000230: c904 2abe aebc b93d 3661 143e f223 21be
00000240: 7ad0 803d b54e c63b 37b1 16bd 2619 063e
00000250: a8c0 e53d 2774 243c 7c26 dd3c 5254 23bd
00000260: 43d3 0a3e 0160 8cbe b5fb ad3d cd72 dfbc
00000270: 8833 e03d fc65 a83d ddd2 c3bd 8178 b63d
00000280: cfb9 3cbe e521 75bb d1aa ae3e 79b8 26bd
00000290: 995d 97bc c249 2bbe c4e7 a13d 1fd9 c3bd
000002a0: 365a 013e ed1f dabc 27d9 f23c 84c9 79bd
000002b0: e0c6 c33c 9f85 e33b 0160 ce3d 4eec 8ebd
000002c0: 005d 993d 65c9 c2bc fd5e c93d 33fb aa3d
000002d0: b1a7 e4bd b5e9 34bd dacd 943d 2b96 37bd
000002e0: b25d 2f3e 6924 f7bd f6d0 bdbd 7a8f a73d
000002f0: 9988 93bd 36b1 aebc d496 e3bd 9ba5 98ba
00000300: cf19 13be 9ce8 1bbe 5d6e 8cbe c6e5 1dbe
00000310: 2506 263d d806 48bd 805c 0a3d 0817 133e
00000320: 828e 973e f7b4 bd3d b453 aebc 59f4 e93c
00000330: a3c2 42be 2fb0 843d 0d3a cfbc 5350 b0bc
00000340: ffe9 01be 0782 25bb 8e6c 223e 250e b53d
00000350: 7c4f 4a3c d4bf be3d 4534 f5bd 0d43 be3c
00000360: 26f7 03be eb62 923d da24 283d dcdf 8c3e
00000370: 87fe 273d 7d06 cabd 0698 0abd 9591 593e
00000380: 1d63 c6bd e4df cc3d 3e22 51bc 498e c0bd
00000390: ccb3 c13c 0d86 6abe 46ba 8d3d 00d5 903d
000003a0: d710 52be 350e 9c38 c860 e8bb b074 3ebe
000003b0: 36ea 0f3e 21f6 013d 7c64 1ebe 424b 10bd
000003c0: 720c 763e e7f9 383e c78b 713d 9042 14be
000003d0: aae8 87be 2724 f93d 4ae3 023d fb55 9cbd
000003e0: 436b 353e ce9d f2bd a6ba 05be 3ce0 31bd
000003f0: b203 4dbe 7bfe 8dbc 4364 783e 5d4a b1bc
-0.019839695 -0.012743101 0.006912342 -0.024840843 0.0031661955 -0.009391681 0.023929005 0.016878951
-0.012387418 0.014918851 0.018422052 -0.012894167 0.0020485492 0.012454149 -0.0036187093 -0.019964818
-0.0052213916 0.027408298 0.006358652 -0.0067868847 -0.01681746 -0.006120877 -0.013754855 0.008976312
0.0101464 0.000657903 -0.010145479 0.023962382 0.0140416315 -0.008266628 -0.0047930717 0.016906194
-0.00083023735 -0.014561418 -0.01670802 0.016473038 -0.006797878 -0.026348818 0.002432786 0.0040065967
0.0045190845 0.014648284 0.005929136 -0.013774036 -0.0037630266 -0.0069944263 -0.02017048 0.012836944
-0.009335613 0.013955519 -0.017227698 0.020802269 0.0016155173 -0.015554585 0.012214449 0.014493295
-0.018836236 0.023545217 -0.006435988 0.0014056597 0.023032023 0.016286386 -0.010990148 0.0089305835
0.06323871 0.053182065 -0.09279433 -0.05299007 -0.009579115 -0.13248368 0.1231577 -0.17758287
0.0032077231 -0.034141816 0.10012014 0.08824715 0.028392112 0.009665545 -0.006130909 -0.16616257
-0.18154849 0.03163111 0.118652195 -0.021122046 -0.0888552 0.037589263 -0.13272409 0.060508452
-0.0025602144 0.2469212 0.058370803 -0.029612742 0.049896795 0.038222518 -0.004530039 0.053759884
0.15063642 0.01842809 0.08617912 0.23402841 0.027822295 -0.09593771 0.079761334 -0.0027396542
-0.059881534 0.03823713 -0.046095695 -0.15201613 -0.20018077 -0.002667951 -0.056284487 0.021414915
-0.21494335 -0.07578109 -0.06843443 0.039102174 -0.034427475 0.034395393 -0.035458878 -0.044850614
-0.04958651 -0.080568485 0.09656306 -0.123434655 -0.07306757 -0.08139878 -0.05878946 -0.06436334
-0.11703653 -0.19038793 -0.03936709 -0.022938173 -0.0841518 0.036213446 0.103256114 -0.038627345
0.027298512 0.121351875 -0.102310486 0.030395797 -0.16603388 0.09069191 0.14490208 -0.15736368
0.06289764 0.006051863 -0.0367901 0.13095531 0.11218387 0.0100374585 0.02699589 -0.039875336
0.13557152 -0.27416995 0.08495275 -0.027276421 0.10947329 0.08222577 -0.09561703 0.08909703
-0.18430255 -0.0037404236 0.34114698 -0.04070327 -0.018477248 -0.16727355 0.07905534 -0.09562897
0.12632069 -0.026626552 0.029644562 -0.060983196 0.023898542 0.006943419 0.10076905 -0.06978665
0.074884415 -0.023777673 0.09832571 0.08348694 -0.11164797 -0.044168193 0.072658256 -0.044820946
0.17125586 -0.120674916 -0.09268372 0.08181663 -0.07203788 -0.021324735 -0.111127526 -0.0011646034
-0.14365314 -0.15225452 -0.2742795 -0.15419683 0.040533204 -0.04883465 0.03377962 0.14364254
0.29600912 0.09263032 -0.021280147 0.028558897 -0.1901956 0.06478917 -0.025296235 -0.021522677
-0.12686919 -0.0025254504 0.15861723 0.088405885 0.012348052 0.09313932 -0.1197286 0.023225332
-0.12887248 0.07147773 0.04105077 0.2751454 0.04101422 -0.09864519 -0.033836387 0.21246941
-0.09686873 0.10003641 -0.012764512 -0.09402139 0.023645304 -0.22902699 0.069202945 0.070718765
-0.20514236 7.441306e-05 -0.0070916153 -0.185992 0.14054188 0.031728867 -0.15468019 -0.03522802
0.24028185 0.1806408 0.058971193 -0.14478517 -0.26544696 0.12165099 0.03195504 -0.07633587
0.17716698 -0.11846505 -0.13059482 -0.043426737 -0.20020941 -0.01733326 0.24256997 -0.021641904

embedding.atom_embedding_list.4.weight f4 [10, 64]
00000000: 9d1c 973e 0a29 113f a59b ae3e 0e53 ddbe
00000010: a1af 793e ffe9 0bbd e0a6 c63e e297 3fbe
00000020: 1625 2ebd 4e67 963d 853c 0a3f 30de 82be
00000030: b0b1 e83e 8611 b7be afac a23b ebb6 e7be
00000040: b075 b9be 6470 c9bd 89dc d1be d382 2abe
00000050: 389f a0be 51cc 23bd 79f6 00be 735a 8c3e
00000060: 6a86 35bf 1236 133f 630e 15bc 9059 0bbe
00000070: c1ef 983c 32c0 87be 2bbb 6d3d 7086 59be
00000080: fb99 c43e 0faa 99be 9f7e 32bf ded1 9a3c
00000090: 7818 88bc e4a6 b23e 896e 60bc dd4c 2c3f
000000a0: 3849 17be b007 28bd 7653 e0be 0bf0 bdbe
000000b0: fd3a d1be 587d 3ebd 2316 d33e 83f3 37be
000000c0: 2107 10bf a71f 48be efe0 d5be 680a 803e
000000d0: 6eb1 70bd 7609 97bb 9960 5d3d 790f 083f
000000e0: 8747 cebe bc05 0a3f 0e36 d23e 1ede a1be
000000f0: 4327 cc3b d50f 9e3e 31f2 b0be 7b25 0a3f
00000100: 0c12 50bf 5fba 5cbf b332 46be 8cf7 c0be
00000110: 5b23 debe 61ef 31bd 4db6 dcbe 9027 6b3e
00000120: dd5f 923e f91d 67be 1f78 34be c45a d5be
00000130: 2a8b 05bf e2f2 a03f d8d8 13bf 109b 1dbe
00000140: d024 afbd 0bd2 103b f5b0 9abe 3393 94be
00000150: 8595 9cbe 6471 0a3f 2004 f23c dbde 0fbe
00000160: 0e7a e33e 0266 1cbf ff59 c7be f5d9 a1bc
00000170: c307 f53e c779 963e 9387 3fbe 1b84 843f
00000180: 6558 ccbd f574 dd3d f102 ef3e 3a72 b23e
00000190: 6ace 2e3e a154 3cbf cf1d d7bd f244 0bbf
000001a0: 7b9f 183f 33ba b73c 1732 da3e 51ce e83e
000001b0: 6c2e e1bc 0570 cebe 7229 16bf 2e06 0abe
000001c0: ac5b 93be d895 a4bd 4f6c 06be 89eb 05be
000001d0: f81c a6bd 5136 6e3e e02b 8dbb eb59 1ebf
000001e0: dca9 d73d 8202 b3be b62f 99bd 0925 b73e
000001f0: a66e 99be 95e5 f43e 2e43 983e c1d4 5fbf
00000200: 5d23 e93e c92d 0e3f efab 1abf bae2 6d3e
00000210: 27ec b7be 5476 4abe 8f63 36bf 0696 013f
00000220: d601 583f fb1f d63d d2f6 80bf 2237 0a3f
00000230: 8aeb e5bd 8c77 40bf 2509 473f 5e87 353f
00000240: d9ea 793e cd92 24bf 8861 793d f70f f13e
00000250: 97e7 663f 9503 23be 8d3a 9c3e b540 83bc
00000260: ead8 a6be b357 113d e610 1c3f 26dd 5e3e
00000270: 1b2a febe 0e2a bf3e 9c12 e6bd be79 48bf
00000280: 32fa 46bf a8eb 563f fd64 0c3f 86b9 ffbe
00000290: fa98 ef3e c279 573e 2ca1 cc3e b9f8 c0bd
000002a0: f563 65bf 5b38 2fbf 0696 4cbe 05b0 0dbf
000002b0: 8dfd 863f 4861 14be 240d 723e 6eac 5dbd
000002c0: 2afc 1e3f 6d30 0fbe 2cc8 153f d2f4 48bf
000002d0: ab02 7fbf d4e1 903e c910 063e c454 ddbd
000002e0: c975 633f 3d88 3ebe b401 28bf 2b98 503e
000002f0: f306 68be e31b 8cbe a03a bd3e 1e45 fb3d
00000300: ca95 883e 4c1b 49bf 0335 f9bd 63e8 983f
00000310: bdf2 3a3e 79e5 f03e 3152 b9be 638b f8be
00000320: 2e5f a8be f762 0ebf 5e57 09bf 39f1 273f
00000330: f9e7 d5bd 7278 bc3d 63e9 4b3f 5dd2 403f
00000340: 2109 003f a69e 163f 981a 863f d3d8 eebc
00000350: 52a1 543d bc66 9e3d 60b3 04bf f97f 80be
00000360: e115 6d3f e0c5 e13e b494 ecbe 3989 14bd
00000370: 9fe0 bebe bea7 bcbe 3967 533e d75e 4cbe
00000380: bab8 28bf e47b 99be cec0 9abd 9ffa 1f3d
00000390: 3f61 653d fd03 4dbd 4ad8 8fbd 0e39 86bf
000003a0: 9f9a 1dbf d822 f93d 6275 b9bd 6c7e 483f
000003b0: d0e6 7fbf d37b f0bd 2459 13bf ded5 d23d
000003c0: 08ca 483f 575d 253e 83e1 ae3e f125 8b3e
000003d0: ef29 4c3f a9c4 4bbe 0b0b 7c3e 5de0 56be
000003e0: 9cad f9be 038d 67bf 7e8e 49bf 6e47 3e3e
000003f0: 7362 d43d b192 93bf 7c5f 873f c248 01bf
0.29514018 0.56703246 0.34103122 -0.43227428 0.24383403 -0.034158703 0.3879919 -0.18710282
-0.042515837 0.073439226 0.53998595 -0.2556014 0.45448065 -0.35755557 0.004964433 -0.45256743
-0.362226 -0.0983589 -0.40988567 -0.16651468 -0.31371474 -0.039989773 -0.12594022 0.27412757
-0.70908225 0.5750438 -0.009097668 -0.13608384 0.018669011 -0.2651382 0.058039825 -0.2124269
0.38398728 -0.30012557 -0.6972446 0.0188989 -0.01661323 0.34892952 -0.013698229 0.67304784
-0.14774024 -0.041022956 -0.43813676 -0.370972 -0.40865317 -0.046506256 0.41227826 -0.17963986
-0.5626088 -0.19543324 -0.41773173 0.2500794 -0.05876296 -0.004609282 0.0540472 0.5314861
-0.40288946 0.53915 0.41056865 -0.31614774 0.0062302663 0.30871454 -0.34559777 0.5396344
-0.8127754 -0.8622188 -0.19355278 -0.37688863 -0.4338635 -0.04344118 -0.43107834 0.2296431
0.28588763 -0.22570027 -0.17623948 -0.4167081 -0.5216547 1.2574122 -0.5775275 -0.15391183
-0.08551943 0.0022097852 -0.30213133 -0.29018554 -0.30582824 0.5407927 0.029542983 -0.14049856
0.44429058 -0.6109315 -0.3893585 -0.01975725 0.47857484 0.29389784 -0.18704061 1.0352815
-0.099777974 0.108133234 0.46681932 0.34852773 0.17070928 -0.73566633 -0.105037324 -0.5440208
0.5961835 0.022427654 0.4261634 0.45469907 -0.027487956 -0.4031984 -0.5865699 -0.1347892
-0.28780878 -0.08036393 -0.13127254 -0.13078131 -0.08110994 0.23262908 -0.004308209 -0.61855954
0.10530445 -0.3496285 -0.07479803 0.35770443 -0.2996723 0.47831407 0.29738754 -0.8743401
0.45534793 0.5553861 -0.604186 0.2323102 -0.35922357 -0.19771701 -0.71245664 0.5061954
0.843778 0.104553185 -1.0075324 0.53990376 -0.11226566 -0.75182414 0.7774833 0.7090968
0.24405994 -0.642865 0.06088403 0.47082493 0.9019713 -0.15919335 0.3051342 -0.016022066
-0.32587367 0.035484027 0.60963285 0.21764049 -0.496415 0.37336773 -0.11234018 -0.78310764
-0.7772552 0.8395333 0.54841596 -0.4994623 0.467964 0.2104254 0.39966714 -0.0942244
-0.8960565 -0.68445367 -0.19979104 -0.5534671 1.0546128 -0.14490235 0.23637825 -0.05411952
0.6210352 -0.13983317 0.58508563 -0.78498566 -0.99613446 0.28297293 0.1309234 -0.108071834
0.888516 -0.18606658 -0.656276 0.20370547 -0.22658901 -0.27365026 0.3695879 0.122690424
0.2667678 -0.78557277 -0.12168314 1.1945919 0.1825666 0.47050074 -0.3619552 -0.48543844
-0.32885116 -0.5561976 -0.53648937 0.6560245 -0.10444636 0.092026606 0.79652995 0.7532099
0.5001393 0.5883583 1.0476866 -0.029156124 0.05191166 0.07734439 -0.51836205 -0.25097635
0.9261151 0.4409628 -0.462072 -0.03626368 -0.37280747 -0.36846727 0.20644845 -0.19958054
-0.6590687 -0.29977334 -0.07556306 0.03905737 0.056000944 -0.05005263 -0.07023676 -1.0486162
-0.6156406 0.12164849 -0.09055592 0.78317904 -0.99961567 -0.117423676 -0.5755789 0.10294698
0.78433275 0.16148888 0.34156427 0.27177384 0.79751486 -0.19899239 0.24613588 -0.20984025
-0.48765266 -0.9044954 -0.7873305 0.18581936 0.1037034 -1.1529142 1.0576015 -0.50501645

embedding.atom_embedding_list.5.weight f4 [6, 64]
00000000: 2801 3b3e 9fd3 77be f309 f93b d4b0 483e
00000010: 57cb e33d bc15 36bd ef09 6cbe 2a73 f33c
00000020: 0e90 7e3e 1fa5 bdbd 2de9 243e 8024 0d3e
00000030: 1e0a 0f3e 7722 cbbd 29f5 42be 3589 5bbc
00000040: f3a5 4bbe 5b5c 54be e6cd a43d 5d31 2dbe
00000050: dd20 1dbe 9f4d fd3d d902 183e 766a 663e
00000060: 730b 95be 3954 97bd 9915 b1bd e1c4 1b3d
00000070: 1d64 84be fe84 913d 8d8b 753d 844a 20be
00000080: 0c6f 473e 7139 f9bc b83e 063e 8779 803e
00000090: b5c7 08be e52c 443e 1807 2b3e e88e 31be
000000a0: 1b64 88be 00fd 62be 718e 6d3e 6fd7 6c3e
000000b0: 3ad7 373e ea12 503e 9df4 ffbd 4f2e 263d
000000c0: b74a 12be 29b7 40bd 166c c93d cb79 1abe
000000d0: 227c 963d 44c1 623d 264a 80be ae31 d2bd
000000e0: b0b6 69bd 3e56 fe3c c3ee b23d 97c7 56be
000000f0: 1f48 42be 4a89 9bbd 3e1e 213e 390c 033e
00000100: ff57 0500 2c5a 0500 5f67 0500 1169 0500
00000110: 6d62 0500 2e6f 0580 655d 0500 6d9c 0500
00000120: ad69 0580 196b 0580 5b47 0600 9c6e 0500
00000130: 0163 0580 f257 0580 6d65 0500 935a 0580
00000140: db68 0500 b459 0500 765c 0500 c365 0500
00000150: b05e 0500 5363 0500 bf5e 0580 2dcd 0600
00000160: d8e4 0500 8080 0580 2a6d 0500 ae6c 0580
00000170: 1080 0500 da6c 0500 fb62 0500 239e 0580
00000180: d767 0580 548b 0500 a964 0580 046e 0580
00000190: 3081 0580 a35e 0500 baad 0580 5663 0580
000001a0: 7d66 0500 cc68 0500 6264 0500 7269 0500
000001b0: e16f 0580 885a 0500 2b67 0500 5a64 0500
000001c0: a25e 0500 fa5e 0680 4658 0500 297f 0500
000001d0: fa61 0500 a36d 0500 7d66 0500 bb6c 0580
000001e0: b477 0580 b95f 0500 1067 0500 e4af 0580
000001f0: 5865 0580 67c2 0580 fce6 0500 8769 0500
00000200: 5ff5 223b 335c 7a3c 4014 52bb 9a5e bc3c
00000210: fc47 65bc cf73 58bb b980 e8bc cc3e 22bc
00000220: 5cd0 e93b 11c5 bebb c3d4 babc d1e1 f23a
00000230: 685b 133c 2fce 91bc c7c3 b53c ad10 a53c
00000240: a422 973c ae59 86bb b594 fcbb 3768 5a3c
00000250: 1a78 c13b da23 dbb9 7328 833c 996c 95bc
00000260: 0e0b 993c 0f8a 6ebc 9153 b33a f324 b5ba
00000270: 6239 5a39 349a 813c 0e54 a23b 7a79 00bc
00000280: 69cb 7abc 147c b43c 950d df3c 104a 8ab8
00000290: 6dca e9b6 4fa4 5a3c da2b 153c 69de 9ebc
000002a0: 4003 f2bb fe67 1fbc 3361 5c3c c91a 9d3c
000002b0: 5774 813c f9b0 81bc e158 8f3b 0e68 2438
000002c0: bb25 50bb dd70 79bc 3a0d cd3c 2854 083b
000002d0: de75 dfbb 5a65 943a f5c5 00bc 54e5 c73b
000002e0: 1284 38b9 7604 e4bc 0556 85bc dc46 4c3b
000002f0: 33fe 853b d083 33bc 8da4 4dbc a3f2 c7ba
00000300: c85f 0500 f15c 0500 a467 0580 5d5d 0580
00000310: fa6a 0500 896f 0500 6759 0500 fd65 0500
00000320: 356e 0500 655c 0500 885d 0500 335c 0500
00000330: 4065 0580 e55e 0580 a567 0580 1760 0580
00000340: eb8f 0580 a170 0500 e763 0500 7e74 0580
00000350: 365d 0580 3ebd 0500 0c62 0500 886a 0580
00000360: 4b5f 0580 7560 0500 879c 0680 8c72 0500
00000370: f170 0500 105f 0580 f657 0580 f95c 0500
00000380: 4569 0580 e565 0500 135a 0580 7462 0580
00000390: 325c 0500 5b89 0580 106a 0580 cc86 0500
000003a0: e76b 0580 3d57 0580 56a5 0500 e56f 0500
000003b0: 206a 0580 ff91 0500 565a 0580 0cd3 0680
000003c0: ae5a 0500 6769 0580 c55e 0500 b75f 0580
000003d0: 7983 0500 a669 0500 5575 0580 035d 0500
000003e0: 1467 0500 e958 0580 966c 0500 3a58 0580
000003f0: 8b67 0500 455d 0580 e5d8 0580 116c 0580
0.1826216 -0.24201821 0.007600063 0.19598705 0.11122768 -0.04445432 -0.23050664 0.029718
0.2485964 -0.0926001 0.16104575 0.13783455 0.13968703 -0.09918683 -0.19038834 -0.013399412
-0.19887523 -0.20738356 0.080470845 -0.16913362 -0.15344568 0.12368321 0.14844836 0.22501549
-0.29110298 -0.07389111 -0.086466976 0.038029555 -0.2585763 0.07105444 0.05994754 -0.15653425
0.19475955 -0.030422898 0.13109863 0.25092718 -0.13357432 0.19157751 0.16701925 -0.1733967
-0.26638874 -0.22166824 0.23198868 0.23129056 0.17953196 0.20319715 -0.12497828 0.040571507
-0.14286314 -0.047049675 0.09835069 -0.15085523 0.07347895 0.055360094 -0.2505657 -0.10263382
-0.05705899 0.031046983 0.087369464 -0.20974575 -0.18972825 -0.07594545 0.15734193 0.12797631
4.90745e-40 4.91525e-40 4.9626e-40 4.96868e-40 4.94486e-40 -4.99061e-40 4.92681e-40 5.15292e-40
-4.97087e-40 -4.97597e-40 5.7661e-40 4.98857e-40 -4.94693e-40 -4.90726e-40 4.95562e-40 -4.9167e-40
4.96793e-40 4.91357e-40 4.92346e-40 4.95683e-40 4.93145e-40 4.94808e-40 -4.93166e-40 6.24616e-40
5.41271e-40 -5.05275e-40 4.98338e-40 -4.98164e-40 5.05118e-40 4.98226e-40 4.94685e-40 -5.15906e-40
-4.96428e-40 5.09159e-40 -4.95288e-40 -4.98644e-40 -5.05521e-40 4.93127e-40 -5.21499e-40 -4.94813e-40
4.95943e-40 4.96772e-40 4.95188e-40 4.97004e-40 -4.99312e-40 4.91654e-40 4.96187e-40 4.95177e-40
4.93125e-40 -5.85084e-40 4.90844e-40 5.04794e-40 4.94325e-40 4.98508e-40 4.95943e-40 -4.98183e-40
-5.02119e-40 4.93516e-40 4.9615e-40 -5.22275e-40 -4.95533e-40 -5.28916e-40 5.42039e-40 4.97034e-40
0.002486549 0.015280771 -0.0032055527 0.022994328 -0.013994213 -0.0033028012 -0.028381692 -0.009902667
0.007135434 -0.005821832 -0.02280653 0.0018530433 0.008993961 -0.017798511 0.02218808 0.020149553
0.018449135 -0.004100046 -0.007708157 0.013330511 0.00590421 -0.00041797647 0.016010499 -0.01824026
0.01868203 -0.014559283 0.0013681521 -0.0013820216 0.00020811477 0.0158206 0.0049538678 -0.007841462
-0.015307286 0.022031821 0.027228156 -6.594148e-05 -6.9675066e-06 0.013344838 0.009104693 -0.019393163
-0.0073856413 -0.0097293835 0.0134509085 0.019177811 0.015802545 -0.015831457 0.004374609 3.9197555e-05
-0.003176077 -0.015224663 0.025030721 0.0020802114 -0.006819471 0.0011321709 -0.007859697 0.006100336
-0.00017596807 -0.027834158 -0.016276369 0.0031170165 0.004089141 -0.0109567195 -0.012551439 -0.0015254806
4.93537e-40 4.92519e-40 -4.96357e-40 -4.9267e-40 4.97553e-40 4.99189e-40 4.91249e-40 4.95764e-40
4.98712e-40 4.92322e-40 4.9273e-40 4.92252e-40 -4.95499e-40 -4.93219e-40 -4.96358e-40 -4.93648e-40
-5.10806e-40 4.99581e-40 4.95016e-40 -5.00967e-40 -4.92615e-40 5.27065e-40 4.9435e-40 -4.97394e-40
-4.93362e-40 4.9378e-40 -6.07164e-40 5.00269e-40 4.99693e-40 -4.9328e-40 -4.90732e-40 4.9253e-40
-4.96941e-40 4.9573e-40 -4.9149e-40 -4.94496e-40 4.92251e-40 -5.08451e-40 -4.97226e-40 5.07533e-40
-4.97886e-40 -4.90473e-40 5.18489e-40 4.99318e-40 -4.97248e-40 5.11551e-40 -4.91584e-40 -6.26722e-40
4.91707e-40 -4.96989e-40 4.93174e-40 -4.93513e-40 5.06341e-40 4.97077e-40 -5.01268e-40 4.92544e-40
4.96155e-40 -4.91072e-40 4.98131e-40 -4.90827e-40 4.96322e-40 -4.92636e-40 -5.36985e-40 -4.97944e-40

embedding.atom_embedding_list.6.weight f4 [6, 64]
00000000: 13f4 ba3e 8893 973a 2ed3 443f 5c1b 763e
00000010: 3ef4 583e f9c1 053f 956b 07bf bfbc d13d
00000020: 4d0e 083f 5bdd 4dbe 9ab9 933c 95f6 ffbe
00000030: f780 813e 158d 0dbf 0c78 913d a150 213f
00000040: 0077 47bd a248 a9bd 52b8 56be 8a95 18be
00000050: 4d82 72be 8cd6 2f3d f286 a13e 0781 ebbe
00000060: 9b29 893d 3ad5 ffbd 7f2b 41be c380 82be
00000070: 3ce6 d4bd 2ba8 bdbd 6d35 2b3e bb5d 8ebe
00000080: ca6c 5dbe 1e1a fe3d f6f8 a23e 00c1 14bf
00000090: 1dac 873e c3a5 8e3e 74e1 0fbf 5fdc 653e
000000a0: dbae 20bf 0215 43be 345f b0be ea20 003f
000000b0: 676f 09bc f31e dabd c00b c0bd b386 9f3d
000000c0: da3a 9c3d 8b20 c3bd f28b 173f 961b 8bbd
000000d0: 0f88 38be 5af8 8bbd 9369 35be 9ba8 6b3e
000000e0: a48c 31be 592c aabe 55de 20bd 88e3 8bbe
000000f0: 2b79 d8be 8e3c 86be 0f1f a93d ae10 c7bd
00000100: e50c 293e 89e0 9fbe 61a8 70be 821d 013e
00000110: 7177 83bc 2361 89be 16f2 cf3c 6a54 b3bc
00000120: 6203 c2bd 6e08 84bd 0257 d9be c642 a23d
00000130: 4ed1 e7be cc6f d83d 2f74 86be 601c a6be
00000140: 1756 2a3e df42 59be 4c3e 893e 3980 893e
00000150: 4ab0 6b3e 9399 833d c990 2e3d f939 13ba
00000160: 865f 843e 8f66 6fbe 2372 a23e c4a6 ddbe
00000170: b757 a13e 8973 6b3e 7dbe 55be eaca e2be
00000180: 0345 a33c 2f7d 633d f6be 053e 307c b6bd
00000190: 3b44 3e3e 353f 6fbe 9fc4 b73c 9026 44be
000001a0: 6f17 1c3e 42ab f13d 908c 843e ba27 c6bc
000001b0: 4c83 8d3e be71 acbd 9195 963d ecd6 51be
000001c0: 713c 823e b736 71be 0aa6 893e d98d 2abe
000001d0: 86cb e1bd 7976 8d3e 187e aebd f168 f6be
000001e0: bc35 843e e644 fe3d 750e 61bd 207f a13e
000001f0: a06a 19bd 2a2e 3abe de23 a2be 459b d8bd
00000200: d0d0 cdbe 1ff5 103e ae32 aebc 4b9c a6be
00000210: f500 bcbd 8a64 a7be 5d4e 7dbd 8c11 763e
00000220: e16e 513d b191 b63e c359 4d3e eedd bebe
00000230: 4843 8e3e 04e6 f2bc 6889 59be ab7a b53e
00000240: a15e 883d 52e6 efbd 7b66 013e 5342 bcbe
00000250: 274d a3be 45c7 2f3e 8a98 8e3e 6337 b1bd
00000260: 0066 583e 2463 37bd 423e 60be 567f 4f3f
00000270: d92b 2ebd d529 b53e ecd8 41be 3143 163f
00000280: 9f81 143e a46b 24be 18e2 49bf 2aef 703e
00000290: 3b45 32bd 4bb5 83be af12 18be 21c5 583e
000002a0: 37a9 0c3d 07b1 a2be 154c 893e b982 983e
000002b0: 5024 52be 903c 893c 08de 73be c702 2bbc
000002c0: 2e3d 5f3d bbe5 ab3e 7d4b 183e 6ce0 503e
000002d0: e98c 91be 2ff6 01bf 3315 653d 6faa f03e
000002e0: dbe1 c6be 2f63 843d 557d 9cbe f014 d33d
000002f0: de28 af3e 5c20 eabc da9b c8bc f3d3 9ebe
00000300: 72f8 0b3e 1033 e13d 6c67 933e 0499 e03d
00000310: f43c 833e 8559 0a3e ad2c a3bd c882 cabd
00000320: 419b c0bd 3e55 3eb9 e93a 303e 6e02 98bc
00000330: 0055 a83e 43a8 b13d a328 2cbd 8fc7 853e
00000340: fcde ed3c bc71 203e 0f2b 35be 6202 0cbe
00000350: db21 e2bc cd87 0bbe bfb7 2dbd 857a 453d
00000360: 0486 423d 790f 353e e488 d4be 2ac1 c03e
00000370: 8cdb 9cbd 1f6d 6bbe 5b5c f93c f241 833e
00000380: 2c77 8d3e 08f2 1ebe 0351 87be d315 adbd
00000390: ac30 42bc 86e5 e23d 6c80 a7bc 986e d53d
000003a0: 1227 0abd 61bf 61bd c10d 72bc 2349 3e3e
000003b0: 69f5 aabe 66ac d53d ddb7 fcbc 5a41 193d
000003c0: 32f2 03bc ac94 6d3d ce4f 8fbd 1341 543d
000003d0: ea27 173e 6d0f efbd 17e8 cdbd af19 b33d
000003e0: a00d 12be 604e 313e 2524 903d 01b8 98bd
000003f0: 1aa7 3e3e fc39 993d 4499 343e dd7e 3a3d
0.3651434 0.0011564353 0.76884735 0.24033874 0.21186921 0.52249104 -0.5289853 0.102410786
0.5314682 -0.20103972 0.018032838 -0.49992815 0.25293705 -0.552934 0.07102975 0.63013655
-0.04869747 -0.08265807 -0.2096875 -0.14900795 -0.23682518 0.042929217 0.31548268 -0.45996878
0.06697389 -0.124918416 -0.18864249 -0.25488862 -0.10395476 -0.09260591 0.16719599 -0.27805886
-0.21623531 0.12407325 0.31830567 -0.58106995 0.264985 0.2786084 -0.5620339 0.22447346
-0.6276681 -0.19050983 -0.34447634 0.5005022 -0.008388377 -0.10650434 -0.09377241 0.07789364
0.076284125 -0.095276915 0.59197915 -0.06792371 -0.18020652 -0.06834479 -0.17716055 0.23013537
-0.17338806 -0.3323696 -0.039274532 -0.2732203 -0.42279944 -0.26218075 0.08257877 -0.09719978
0.16508825 -0.31225994 -0.23501731 0.12608913 -0.016048165 -0.26831922 0.02538399 -0.021890838
-0.094733015 -0.0644692 -0.42449194 0.07922892 -0.45276874 0.105681986 -0.26260516 -0.32443523
0.16634403 -0.21216916 0.2680534 0.2685564 0.23016468 0.06425776 0.042618547 -0.00056162436
0.2585413 -0.23378967 0.31727704 -0.43291295 0.31512234 0.22993292 -0.20873447 -0.44295436
0.019930368 0.055539306 0.13061127 -0.08910406 0.18580715 -0.23363955 0.022432623 -0.19155335
0.15243314 0.11800243 0.2588849 -0.024188865 0.27639234 -0.08420132 0.07352746 -0.20492142
0.25436738 -0.23556028 0.2688449 -0.16655673 -0.11025147 0.2762945 -0.08520144 -0.4812694
0.25822246 0.12415485 -0.054945428 0.315423 -0.0374552 -0.18181673 -0.3166799 -0.1057649
-0.40198374 0.14156006 -0.0212644 -0.32541117 -0.0917987 -0.32693893 -0.06184231 0.24030131
0.051131133 0.3565803 0.20053773 -0.37278694 0.27785707 -0.029650696 -0.21243823 0.3544515
0.06658674 -0.11713852 0.1263675 -0.3676935 -0.318948 0.17165859 0.27850753 -0.08653142
0.2113266 -0.044772282 -0.2189875 0.81053674 -0.042522285 0.35383478 -0.18930405 0.58696276
0.14502572 -0.16056687 -0.78860617 0.23528734 -0.043523055 -0.25724253 -0.14850877 0.21168949
0.034341063 -0.31775686 0.26815858 0.29787233 -0.20521665 0.016752511 -0.23815167 -0.010437674
0.054501705 0.33573708 0.14872546 0.2039811 -0.28427818 -0.5076627 0.05592842 0.4700503
-0.3884419 0.0646423 -0.3056437 0.10306728 0.34210867 -0.028579883 -0.024488378 -0.3102108
0.13668993 0.109960675 0.28789842 0.109666854 0.2563244 0.13510711 -0.079675056 -0.09888226
-0.09404612 -0.00018151567 0.17209972 -0.018555846 0.3287735 0.086746715 -0.04203094 0.26128814
0.029036991 0.15668386 -0.17692207 -0.13672784 -0.027604034 -0.13626023 -0.042411562 0.048212547
0.04749109 0.17681684 -0.4151069 0.37647372 -0.07659063 -0.22990845 0.030439546 0.2563625
0.27629983 -0.15522015 -0.26428995 -0.08451428 -0.011852425 0.11078934 -0.020446979 0.10421485
-0.033728667 -0.055114154 -0.014773787 0.18582587 -0.33390358 0.10433273 -0.030849392 0.03741584
-0.008053349 0.058003113 -0.069976434 0.051819872 0.1476132 -0.11672864 -0.10054033 0.08745133
-0.1426301 0.17315054 0.07038144 -0.07456971 0.18618432 0.07481763 0.17636591 0.045531143

embedding.atom_embedding_list.7.weight f4 [2, 64]
00000000: 0b6b 73be 0ff8 ee3d 73db 5b3e 2b41 b13c
00000010: 21f4 253e 32a1 773e e5c0 983e 8482 30be
00000020: 991a 873e 449a 3e3e 933a d2ba 54e3 9e3d
00000030: f335 203e 3504 4ebe a657 133e faec abbe
00000040: 5a1d 993e 4ad7 923e 3a29 7ebe 11f4 543e
00000050: 0430 3b3e 90e3 babe 2e1a 78be d979 9c3e
00000060: 7076 0f3e 5b9a b33d 88b9 85bc f36e bd3e
00000070: 9470 e53d 5fbb 88be 79b8 15be 1154 8dbe
00000080: 529a bdbe baa0 61bb e1e7 18be bb4c 75be
00000090: e5d4 98be 8a78 0dbd 1f67 123e dc89 7c3d
000000a0: b34e 03be bbe2 533e b58d 203e ddc7 e53d
000000b0: f3eb 04be 7b22 d6bd 3236 383e 5569 553e
000000c0: 88d0 5e3e 9eec 25be 2e34 4fbe bcdb 6e3e
000000d0: 617b e6bd 0b72 42bd 87f9 843e 09d5 d93d
000000e0: e01f 6bbe ba26 073c 023c 31bd d653 5b3d
000000f0: 7032 513d 414d e33d 1c28 85be fe17 1b3e
00000100: 6d7b 4b3e 7325 803e aac4 21bf 493a 8ebe
00000110: e791 94be 40c2 ccbe 60f0 e4be 324c 9e3d
00000120: bb19 85bd a05e 01be 191a 75be c7b3 9cbc
00000130: 08bc d2be 9846 2bbd 886a f6be 43b1 043f
00000140: 4ec1 10bf 4a69 64be 3702 d8bd dcc2 a3be
00000150: fe19 c43c 36d6 e13e c925 c33e 6b7f 733b
00000160: 1ab7 93be 5e88 973e 9a93 b8bd 14b0 a2be
00000170: 58ba 63be 9ea2 a33d 896f 71bd ce2f f0bd
00000180: f318 f13e 2866 0b3e dd6b 99be 6725 343e
00000190: 6466 933e b93c 15be df6d 12be 1e13 8b3c
000001a0: 7b31 ac3c af46 1cbe caa2 8ebd d36f 29be
000001b0: 7e65 1ebe 658c b2bd 23be 233e 7924 3f3e
000001c0: 1341 1dbe c199 b5bc fd9c c0bc b155 2dbf
000001d0: 30ef 31bb 69de a43e cb70 85be 7063 a6be
000001e0: 8947 c4bd 1b36 26be 4f66 04be 26cd 8fbe
000001f0: cbf6 1dbe ea72 ab3e 34c6 d0bc b343 debe
-0.23771302 0.11668407 0.21470432 0.02163752 0.16206409 0.24182585 0.29834667 -0.17237288
0.2638748 0.18613535 -0.0016039185 0.07758203 0.1564558 -0.20118792 0.14388904 -0.33579236
0.29905206 0.28679878 -0.24820414 0.20796229 0.18280035 -0.3650174 -0.24228737 0.30561712
0.14010024 0.08769675 -0.01632382 0.3699871 0.11203113 -0.26705453 -0.14621152 -0.276032
-0.370318 -0.0034428076 -0.14932205 -0.23955052 -0.29849926 -0.034538783 0.1429715 0.06165491
-0.1282299 0.2069196 0.15679057 0.112197615 -0.12980632 -0.104557954 0.17989424 0.20840962
0.21759236 -0.16203544 -0.20234749 0.2332601 -0.112540014 -0.04747204 0.25971624 0.10636336
-0.22961378 0.008248979 -0.04327012 0.05354675 0.05107349 0.110987194 -0.26007164 0.15145871
0.19871302 0.2502857 -0.6319071 -0.27778843 -0.29017565 -0.3999195 -0.44714642 0.07729377
-0.06499048 -0.12633753 -0.23935737 -0.019128693 -0.4115908 -0.04181537 -0.48128152 0.5183298
-0.5654496 -0.2230579 -0.105472974 -0.31984603 0.023938175 0.44108742 0.38114765 0.0037154804
-0.28850633 0.29596227 -0.09012528 -0.31774962 -0.22239053 0.07990001 -0.05894426 -0.11727868
0.47089347 0.13613188 -0.29965106 0.17592393 0.28789055 -0.14573945 -0.14299725 0.01697689
0.021019688 -0.15261339 -0.06964643 -0.16546564 -0.15468404 -0.087181844 0.159905 0.18666257
-0.15356855 -0.022168042 -0.023512358 -0.6770888 -0.0027150624 0.32200935 -0.26062617 -0.3249774
-0.09583957 -0.16231577 -0.12929653 -0.28086203 -0.15426175 0.3348611 -0.025485136 -0.43411025

embedding.atom_embedding_list.8.weight f4 [2, 64]
00000000: d566 a2be 2775 683d 0ee1 94be e9e9 53be
00000010: 1526 24be c153 433e 489d 9d3d ccbd e73d
00000020: 7127 2ebf 0dc6 2b3e 4e09 f03c 8fea b43d
00000030: ec46 58be f223 ca3e cdac b13b 8262 4a3e
00000040: ab3f 2e3e fabe c0bd 5a13 7cbd b960 2dbe
00000050: b5da 9f3d ec41 a5be 33ee a73e 2d6c a03e
00000060: 9568 f53d b823 cbbd d911 01bd b474 4a3f
00000070: 1472 69bd 19c8 823e 794f afbd 192f 963e
00000080: 7b47 62bd 2c52 cbbe 49b1 3bbf 2a78 433e
00000090: 87ae 2c3d b7c7 173d 6d0a febc a4bc 12be
000000a0: 6a5e c23e 9fe7 963d 923a 413c 44cb 36be
000000b0: bd3f 7ebd 9c3f 833d cdfc 4ebd fd3a 31bd
000000c0: 576a 0b3e f0f2 b2ba 13e4 2abf 60fe 77be
000000d0: d89c bb3e 3c17 d1be 7db2 8f3e 8376 68bd
000000e0: 706e 863e cddc 223d b35b 4ebe e0e3 503d
000000f0: a387 ea3e 5f46 973e c8ff d73e f80f 8abe
00000100: df0d 443e 018c 273e d18d c4bb ccce c43d
00000110: 9e38 d23d 35a8 3d3e 522a c9be f31d bcbe
00000120: 7a87 083f 2b95 10be 79f4 acbd babc 043e
00000130: 4e0f 243e 9d1e 8bbe a3c8 8c3e 1458 c13d
00000140: a297 773d 3e0f 713e 1c4b 003e 1032 a33e
00000150: 41e6 e73d 5d60 61bb c28c aebe 4b5f a4be
00000160: 7964 67be 5c3b 0e3e a9eb 13be afcb 803c
00000170: 8cb5 923e 9bce a8be 30c5 8b3e cacd 5fbd
00000180: aa27 c3bd 4e63 833d 8fc3 9f3e 49e1 c0be
00000190: 7a5d a7be 5a88 363e 0fa4 3a3d 048b 253e
000001a0: 3403 00bf d364 97bd ff29 5cbe 041f ac3d
000001b0: 997e ac3c 9562 213e 9330 03be 7877 a03d
000001c0: f8d4 87be f1ec 10be 6c68 be3e a011 363e
000001d0: 93d1 84be 303c 1e3f bdcd e8bd e482 043c
000001e0: 58f5 813d 30b5 c5be 60ed 54be 2d83 80be
000001f0: 7618 c4be ad9c 8ebd d35a b23d 1fb8 983e
-0.3171908 0.05675235 -0.29077953 -0.20694698 -0.16030152 0.19074918 0.07696015 0.11315498
-0.6802893 0.16774769 0.029301312 0.08833801 -0.21120805 0.3948055 0.005422211 0.1976414
0.17016475 -0.09411426 -0.061541893 -0.16931428 0.07805387 -0.32276857 0.3279892 0.31332532
0.11982838 -0.09918922 -0.03151116 0.79084325 -0.05699356 0.25543287 -0.0856008 0.29332808
-0.05524395 -0.3971113 -0.7331739 0.19088808 0.04215863 0.037055697 -0.03101083 -0.14329773
0.37962657 0.07368397 0.011793749 -0.17850977 -0.062072504 0.06408617 -0.05053406 -0.043269146
0.13614784 -0.0013652723 -0.66754264 -0.2421813 0.366431 -0.4083804 0.28065863 -0.056753647
0.26256132 0.039761353 -0.20152168 0.05099857 0.45806608 0.29545876 0.42187333 -0.26965308
0.19145916 0.16362001 -0.005998351 0.09609756 0.10264705 0.18521197 -0.392901 -0.367416
0.5333172 -0.14119403 -0.08445067 0.12962618 0.16021463 -0.27171794 0.27496824 0.09440628
0.060447343 0.2354097 0.12528652 0.31874132 0.11323214 -0.0034389712 -0.34091765 -0.32103953
-0.22596921 0.13889831 -0.14445366 0.015722124 0.28654134 -0.32970127 0.2729888 -0.054639615
-0.0952905 0.06415425 0.31203887 -0.3767188 -0.32688504 0.17825451 0.045566615 0.16166312
-0.5000489 -0.073922776 -0.21500395 0.08404353 0.02105646 0.15760262 -0.12811498 0.07835287
-0.2652967 -0.14152886 0.37189043 0.17780161 -0.25941142 0.6181059 -0.113673665 0.008087847
0.06345624 -0.38614798 -0.20793676 -0.2510008 -0.38299912 -0.06963477 0.087087296 0.29827973
