visualizations/best_model_max.pth (torch, 101430 bytes, 16 tensors)

embedding.atom_embedding_list.0.weight f4 [119, 64]
0.05007661 -0.009953648 0.046300195 0.027843427 0.0012025188 -0.03202226 0.0004045891 0.042432
0.055678222 0.06113764 -0.017920101 0.0137527855 0.004594024 -0.040845495 0.024972277 0.022001201
0.034617916 -0.018321492 0.029683042 -0.033629492 0.010437512 -0.052615028 0.002403914 -0.049931016
0.027473731 0.025204841 -0.031264342 0.04307194 0.012295166 -0.0059700035 0.051161557 -0.03815334
0.033879112 0.0171255 -0.05514252 0.019559525 -0.045585655 0.025251817 -0.030506715 0.02988354
-0.058326248 -0.024746882 0.01703155 0.021045402 0.010078857 -0.06064353 -0.025056325 0.037868526
-0.05050569 -0.056389336 0.023132501 0.06833504 -0.03359183 -0.013445095 0.018054038 0.045616888
-0.071205154 -0.0033414466 -0.0010164966 -0.024763528 0.0411716 -0.055677358 -0.03453658 -0.015896326
-5.12466e-40 -4.93267e-40 4.96106e-40 -4.913e-40 -4.9918e-40 -5.00998e-40 -4.96652e-40 -4.92718e-40
-5.17439e-40 5.01564e-40 4.94452e-40 5.01996e-40 -5.91492e-40 5.01791e-40 -4.97069e-40 -5.6968e-40
-5.13855e-40 4.9063e-40 4.99194e-40 5.05148e-40 -4.97373e-40 -4.9459e-40 -4.98984e-40 -6.06748e-40
-5.13203e-40 5.30258e-40 5.35646e-40 5.1335e-40 -4.9139e-40 -5.85419e-40 -5.18122e-40 -4.99934e-40
-4.94777e-40 -5.03192e-40 -5.14166e-40 5.07597e-40 -5.29929e-40 5.0783e-40 4.9556e-40 4.97573e-40
4.98593e-40 -5.75753e-40 -5.04919e-40 -5.1282e-40 -4.91517e-40 -4.97165e-40 -4.99703e-40 -5.05332e-40
-4.92139e-40 -5.10747e-40 -5.01015e-40 4.96054e-40 -4.94232e-40 5.06393e-40 5.24273e-40 -5.1255e-40
5.0059e-40 -5.18385e-40 -4.92698e-40 -5.31288e-40 5.09855e-40 4.9444e-40 -4.98352e-40 -5.08978e-40
-0.101782426 -0.038186982 -0.08796338 0.05821636 -0.012714497 0.04270424 -0.055682447 0.21587284
-0.03518185 0.1618406 0.020113613 -0.044437494 0.0033938626 0.103141546 -0.057317156 -0.0021376181
-0.10447251 -0.06016704 0.076568104 -0.3137671 0.19530173 0.03744943 0.020244591 -0.2813059
-0.03688896 -0.18515354 -0.1560396 0.10205416 0.14864768 0.108116835 0.1496005 0.21872239
-0.059097946 0.11195884 -0.015550484 0.3081644 0.082911976 -0.23155871 -0.09455289 -0.047510024
0.12001114 0.026176931 -0.14403506 0.13064359 0.085389614 -0.022238504 -0.21061696 0.023609726
-0.16009144 -0.13812171 0.059074607 -0.02060336 0.03952255 0.021457715 0.08026138 -0.059306417
0.1011954 -0.25091082 -0.101065986 0.06569688 -0.04860303 0.03748178 0.09895281 -0.18855225
5.47347e-40 4.94698e-40 -4.91029e-40 4.91225e-40 4.93038e-40 -5.04086e-40 4.99874e-40 5.15518e-40
4.99113e-40 -4.97806e-40 -4.95969e-40 5.88806e-40 4.9544e-40 5.11428e-40 4.913e-40 -4.91096e-40
-5.07206e-40 5.01968e-40 4.9754e-40 4.90812e-40 4.95398e-40 -5.00862e-40 -4.99822e-40 -5.0013e-40
4.91746e-40 4.90488e-40 5.03693e-40 4.95592e-40 5.14551e-40 5.03386e-40 4.98646e-40 -4.92982e-40
4.95264e-40 4.97608e-40 5.15902e-40 -4.91937e-40 -4.92527e-40 -5.14376e-40 4.96226e-40 -4.95547e-40
4.95523e-40 -5.02762e-40 5.92085e-40 4.9769e-40 4.95789e-40 -5.04613e-40 4.95677e-40 -4.91297e-40
-4.90736e-40 -5.3563e-40 -5.37981e-40 -4.98773e-40 5.20016e-40 -4.90677e-40 4.95359e-40 -4.93383e-40
-5.79217e-40 5.06665e-40 5.0181e-40 4.92596e-40 -4.97207e-40 -5.00744e-40 -5.01015e-40 -4.97129e-40
00000000: 221d 4d3d a014 23bc 46a5 3d3d e617 e43c
00000010: d69d 9d3a c629 03bd 081f d439 2dcd 2d3d
00000020: d90e 643d 766b 7a3d 2dcd 92bc 5d53 613c
00000030: 7789 963b 9b4d 27bd a992 cc3c dd3b b43c
00000040: 84cb 0d3d f416 96bc da29 f33c 14bf 09bd
00000050: 1902 2b3c db82 57bd fc8a 1d3b 7784 4cbd
00000060: 9710 e13c 627a ce3c 0a0f 00bd 346c 303d
00000070: aa71 493c 05a0 c3bb c88e 513d ad46 1cbd
00000080: d3c4 0a3d c74a 8c3c 20dd 61bd 4c3b a03c
00000090: 06b8 3abd e6dc ce3c 38e9 f9bc 53ce f43c
000000a0: 81e7 6ebd f9b9 cabc c085 8b3c 6867 ac3c
000000b0: ca21 253c 5a65 78bd ec42 cdbc 071c 1b3d
000000c0: 0edf 4ebd 81f8 66bd 5f80 bd3c 3ef3 8b3d
000000d0: 9697 09bd d148 5cbc 10e6 933c c6d8 3a3d
000000e0: 02d4 91bd 2cfc 5abb f73b 85ba e2dc cabc
000000f0: 8da3 283d f10d 64bd 3b76 0dbd 0339 82bc
00000100: 8c94 0580 075f 0580 f166 0500 8b59 0580
00000110: 836f 0580 9474 0580 7768 0580 7f5d 0580
00000120: 69a2 0580 2876 0500 5562 0500 5c77 0500
00000130: d770 0680 ca76 0500 a069 0580 0934 0680
00000140: 6b98 0580 ad57 0500 8d6f 0500 2680 0500
00000150: 796a 0580 b762 0580 f76e 0580 5e9b 0680
00000160: 9a96 0580 25c6 0500 2ad5 0500 0397 0500
00000170: cc59 0580 e95f 0680 50a4 0580 9d71 0580
00000180: 3d63 0580 b27a 0580 4999 0580 f986 0500
00000190: 3ac5 0580 a087 0500 6b65 0500 086b 0500
000001a0: e06d 0500 f744 0680 827f 0580 8995 0580
000001b0: 265a 0580 e569 0580 f870 0580 a980 0580
000001c0: e25b 0580 c18f 0580 a074 0580 cc66 0500
000001d0: b861 0580 9e83 0500 76b5 0500 c894 0580
000001e0: 7173 0500 0ca5 0580 715d 0580 04c9 0580
000001f0: 458d 0500 4c62 0500 346d 0580 d38a 0580
00000200: 4e73 d0bd f469 1cbd 2526 b4bd 4774 6e3d
00000210: 7750 50bc a4ea 2e3d 4713 64bd c50d 5d3e
00000220: d81a 10bd 8bb9 253e 4ec5 a43c 1704 36bd
00000230: 916b 5e3b e03b d33d 65c5 6abd 4817 0cbb
00000240: aff5 d5bd b771 76bd bdcf 9c3d 15a6 a0be
00000250: 2dfd 473e 9364 193d fcd7 a53c 5407 90be
00000260: e118 17bd e498 3dbe d8c8 1fbe c501 d13d
00000270: 1937 183e 5c6c dd3d e030 193e c3f8 5f3e
00000280: b010 72bd ad4a e53d 75c7 7ebc b9c7 9d3e
00000290: c1cd a93d ba1d 6dbe f2a4 c1bd df99 42bd
000002a0: 67c8 f53d 0171 d63c ed7d 13be 6fc7 053e
000002b0: c0e0 ae3d 862d b6bc f9ab 57be 2f69 c13c
000002c0: 03ef 23be c76f 0dbe 37f8 713d 61c8 a8bc
000002d0: 66e2 213d 17c8 af3c 1460 a43d 49eb 72bd
000002e0: 893f cf3d 6277 80be affb cebd 168c 863d
000002f0: f913 47bd 7f86 193d c5a7 ca3d d713 41be
00000300: c8f5 0500 0463 0500 ca58 0580 5659 0500
00000310: 645e 0500 307d 0580 7271 0500 0e9d 0500
00000320: 536f 0500 ae6b 0580 8f66 0580 5a69 0600
00000330: 1665 0500 a791 0500 8b59 0500 fa58 0580
00000340: e285 0580 4877 0500 f06a 0500 2f58 0500
00000350: f864 0500 3374 0580 4d71 0580 2972 0580
00000360: ca5a 0500 4857 0500 177c 0500 8265 0500
00000370: 5c9a 0500 3c7b 0500 066e 0500 3c5e 0580
00000380: 9864 0500 216b 0500 209e 0500 525b 0580
00000390: f75c 0580 df99 0580 4767 0500 6265 0580
000003a0: 5165 0500 7f79 0580 7e72 0600 5b6b 0500
000003b0: 0f66 0500 a87e 0580 bf65 0500 8959 0580
000003c0: f957 0580 1ed5 0580 acdb 0580 606e 0580
000003d0: 98a9 0500 cf57 0580 dc64 0500 5a5f 0580
000003e0: 9f4e 0680 6084 0500 d876 0500 285d 0500
000003f0: 036a 0580 df73 0580 a074 0580 cb69 0580

embedding.atom_embedding_list.1.weight f4 [5, 64]
0.0068753283 0.099939816 -0.008434074 0.12199445 0.04309406 0.013962594 0.06425361 0.012581924
-0.3342091 -0.16717799 0.09224959 0.0056821126 0.0071916752 0.17473352 -0.10502295 0.15378737
0.019451933 0.10062545 0.15513769 0.076501206 -0.053442936 -0.13964559 -0.15601398 -0.05165792
0.10046281 0.0146613065 0.0066221124 0.049695555 -0.10785577 -0.0015481347 0.01828117 0.12188492
0.08371497 0.0074975383 0.11346723 -0.1008118 0.23919146 0.17637306 -0.103426926 -0.088470206
-0.07703545 0.111888066 -0.26783937 -0.042712174 0.08071375 0.261169 -0.06431437 0.066568874
0.06844646 0.01711293 -0.0925404 0.045809582 0.1466487 0.21438013 -0.015253498 0.22644328
0.2815379 0.015262608 -0.0579429 0.015788652 0.14509946 -0.14743094 -0.14849281 -0.05899674
-4.94957e-40 4.92328e-40 -5.00454e-40 -5.94686e-40 -4.97967e-40 -4.93673e-40 -4.97886e-40 -4.95331e-40
4.90977e-40 -4.95889e-40 -4.95676e-40 4.91475e-40 5.00987e-40 4.93457e-40 4.96788e-40 4.93366e-40
5.10838e-40 4.9745e-40 4.93286e-40 -4.98376e-40 -5.64493e-40 4.93783e-40 5.03754e-40 4.9735e-40
-5.00604e-40 4.9217e-40 4.9064e-40 4.9586e-40 5.01652e-40 4.97342e-40 4.97733e-40 -4.93477e-40
-4.9802e-40 4.93366e-40 -5.41516e-40 5.07221e-40 -5.68427e-40 4.93023e-40 4.94255e-40 4.91937e-40
-4.90763e-40 -5.02286e-40 -4.92608e-40 6.02497e-40 4.94939e-40 -4.9181e-40 -4.90478e-40 4.95831e-40
4.98162e-40 -4.91662e-40 5.1503e-40 4.92832e-40 -4.90464e-40 4.94329e-40 5.01457e-40 4.95781e-40
-4.96022e-40 5.0065e-40 4.94782e-40 4.965e-40 -4.9615e-40 -6.09776e-40 -4.97663e-40 4.99716e-40
-5.14494e-40 -5.31543e-40 -4.94532e-40 4.9966e-40 -4.94137e-40 -4.95632e-40 -4.90796e-40 -5.02274e-40
-5.10392e-40 -4.93897e-40 5.06173e-40 4.90746e-40 -5.60798e-40 -6.10955e-40 4.96851e-40 -5.07793e-40
4.96648e-40 -6.14457e-40 -4.96888e-40 -5.00869e-40 -5.01095e-40 -4.94043e-40 -4.9146e-40 5.03596e-40
4.93265e-40 4.90746e-40 -4.91716e-40 4.92743e-40 -4.96951e-40 6.2216e-40 4.92751e-40 4.93977e-40
4.96978e-40 -4.91976e-40 -4.93648e-40 -4.95377e-40 -5.0471e-40 4.93612e-40 -6.08423e-40 4.97496e-40
4.92884e-40 -4.91071e-40 4.97768e-40 -4.94078e-40 4.91043e-40 4.95855e-40 4.93418e-40 -4.95323e-40
4.9481e-40 4.98623e-40 4.93823e-40 -4.95341e-40 -5.18849e-40 4.93917e-40 4.95302e-40 4.9539e-40
4.93934e-40 6.11116e-40 -5.29328e-40 5.10635e-40 5.01902e-40 -4.93979e-40 -4.96104e-40 -4.91092e-40
-4.92227e-40 4.9153e-40 4.9775e-40 5.34127e-40 5.40834e-40 -4.91199e-40 -4.98033e-40 -4.93899e-40
-5.18217e-40 -4.98324e-40 5.157e-40 -4.94162e-40 -4.95942e-40 -4.93023e-40 4.98669e-40 5.49298e-40
-4.92949e-40 5.7757e-40 -4.98509e-40 4.92e-40 -4.94245e-40 -5.13664e-40 -4.90938e-40 -5.02789e-40
5.25467e-40 5.23602e-40 -4.94685e-40 -4.95436e-40 4.99099e-40 -4.93823e-40 -5.49975e-40 -5.9183e-40
4.92327e-40 -4.95446e-40 -4.91758e-40 4.95471e-40 4.94092e-40 -4.91765e-40 4.93456e-40 4.9218e-40
-4.9273e-40 -4.95587e-40 4.9375e-40 5.08649e-40 4.9665e-40 -5.25861e-40 5.02014e-40 4.96466e-40
-5.30246e-40 6.0109e-40 5.46212e-40 5.00371e-40 -5.03778e-40 -4.99267e-40 4.90546e-40 4.9791e-40
-5.10799e-40 -4.9907e-40 4.93722e-40 -4.94637e-40 4.98422e-40 4.96899e-40 -4.96704e-40 -5.27994e-40
00000000: 6f4a e13b 3fad cc3d 122f 0abc 3ad8 f93d
00000010: 6683 303d 5dc3 643c 6697 833d 6a24 4e3c
00000020: 751d abbe b530 2bbe 5aed bc3d 0431 ba3b
00000030: 25a8 eb3b 58ed 323e 4616 d7bd 707a 1d3e
00000040: a959 9f3c b714 ce3d 6adc 1e3e aaac 9c3d
00000050: fbe6 5abd 41ff 0ebe 21c2 1fbe 4197 53bd
00000060: 72bf cd3d fa35 703c 4efe d83b 918d 4b3d
00000070: 7ce3 dcbd c8ea caba 64c2 953c cd9e f93d
00000080: c172 ab3d e9ad f53b 8261 e83d 6b76 cebd
00000090: 9bee 743e 249b 343e 7fd1 d3bd de2f b5bd
000000a0: c3c4 9dbd 9225 e53d 3e22 89be f6f2 2ebd
000000b0: 404d a53d f1b7 853e 41b7 83bd 4355 883d
000000c0: a82d 8c3d 6a30 8c3c d285 bdbd d4a2 3b3d
000000d0: 142b 163e 7786 5b3e cfe9 79bc bfe0 673e
000000e0: bc25 903e 0510 7a3c 8955 6dbd 3457 813c
000000f0: f494 143e 23f8 16be 800e 18be 91a6 71bd
00000100: bd63 0580 695c 0500 1073 0580 be79 0680
00000110: 216c 0580 2960 0580 e76b 0580 c864 0580
00000120: a558 0500 5666 0580 be65 0580 085a 0500
00000130: 8c74 0500 8f5f 0500 d868 0500 4e5f 0500
00000140: 0290 0500 b06a 0500 155f 0500 456d 0580
00000150: 9425 0680 7760 0500 437c 0500 696a 0500
00000160: 7b73 0580 f85b 0500 b457 0500 4266 0500
00000170: 6776 0500 636a 0500 7a6b 0500 9d5f 0580
00000180: 476c 0580 4e5f 0500 87e5 0580 ed85 0500
00000190: 8b30 0680 595e 0500 c861 0500 525b 0500
000001a0: 0c58 0580 2b78 0580 315d 0580 848f 0600
000001b0: b063 0500 f75a 0580 4157 0580 2d66 0500
000001c0: ac6c 0500 8e5a 0580 b29b 0500 d15d 0500
000001d0: 3757 0580 fd61 0500 dc75 0500 0966 0500
000001e0: b566 0580 9c73 0500 4063 0500 0a68 0500
000001f0: 1067 0580 cfa3 0680 486b 0580 0171 0500
00000200: 339a 0580 bac9 0580 8e62 0580 d970 0500
00000210: 7461 0580 9f65 0580 2458 0580 2378 0580
00000220: c48e 0580 c960 0580 0183 0500 0058 0500
00000230: 471b 0680 18a7 0680 0569 0500 8587 0580
00000240: 7468 0500 dbb0 0680 1f69 0580 3874 0580
00000250: d974 0580 3161 0580 fe59 0580 d27b 0500
00000260: 065f 0500 0058 0500 b45a 0580 915d 0500
00000270: 4c69 0580 54c6 0600 975d 0500 0261 0500
00000280: 5f69 0500 6e5b 0580 1760 0580 e964 0580
00000290: ed7e 0580 fd5f 0500 09a0 0680 d16a 0500
000002a0: f65d 0500 e858 0580 936b 0500 4a61 0580
000002b0: d458 0500 3e66 0500 735f 0500 c264 0580
000002c0: 5463 0500 f56d 0500 9460 0500 cf64 0580
000002d0: 57a6 0580 d760 0500 b364 0500 f264 0500
000002e0: e360 0500 8ba7 0600 8dc3 0580 718f 0500
000002f0: 1977 0500 0361 0580 f066 0580 f758 0580
00000300: 215c 0580 305a 0500 866b 0500 eed0 0500
00000310: a0e3 0500 4359 0580 506c 0580 ca60 0580
00000320: 94a4 0580 206d 0580 909d 0500 8661 0580
00000330: 7c66 0580 595e 0580 166e 0500 38fb 0500
00000340: 245e 0580 084a 0600 a46d 0580 7f5b 0500
00000350: c161 0580 e397 0580 8958 0580 9279 0580
00000360: cab8 0500 97b3 0500 fb62 0580 1365 0580
00000370: 496f 0500 9460 0580 1bfd 0580 c871 0680
00000380: 685c 0500 1a65 0580 d25a 0580 2c65 0500
00000390: 5461 0500 d75a 0580 8e5f 0500 ff5b 0500
000003a0: 885d 0580 7f65 0580 6060 0500 e889 0500
000003b0: 7568 0500 e3b9 0580 6977 0500 f267 0500
000003c0: 1cc6 0580 988b 0600 9ef2 0500 d572 0500
000003d0: 547c 0580 c16f 0580 7157 0500 f86b 0500
000003e0: e68f 0580 346f 0580 4c60 0500 d962 0580
000003f0: 666d 0500 2769 0500 9c68 0580 d5bf 0580

embedding.atom_embedding_list.2.weight f4 [12, 64]
-0.113100894 -0.27466345 -0.6393062 -0.07587559 0.13380702 0.16635498 -0.24696971 -0.16662635
-0.801622 0.19394049 0.13027349 0.07638259 -0.039979503 0.42509001 0.1139275 -0.12328918
-0.04294399 0.1579552 0.26121515 -0.031529345 0.09100597 0.121828295 0.22060671 0.5785647
0.48851642 -0.48413563 0.25203905 0.21750797 0.47204626 0.11957566 -0.007654085 -0.06845755
-0.0798243 -0.2899392 0.16153945 0.048656527 0.53515893 0.17207076 0.47241265 -0.23315878
-0.061078046 -0.036600165 0.37640035 0.02179052 0.32635638 0.8356724 0.12239471 -0.3079298
0.36476463 0.1081108 0.047717296 -0.123385176 0.034029596 -0.023348326 0.09269011 -0.34137943
0.7457738 -0.01981808 -0.38086486 -0.043847036 -0.22977237 0.057916045 -0.013058124 -0.48723513
0.5867531 0.023910137 0.15541658 0.4401122 0.02896508 -0.15628822 0.23713656 -0.34447616
0.10346757 0.08716909 -0.31997535 0.15917124 0.08966618 -0.38788685 0.0011661401 0.17168052
0.2942952 0.17090204 0.054654762 0.3719715 0.025019474 -0.5428175 0.38689774 -0.14222276
0.2716275 0.3635135 0.21191497 0.0621556 -0.25284597 -0.1315515 0.2810854 -0.5324151
0.5145193 -0.06100909 -0.13064325 -0.41000056 -0.063314304 0.4480723 0.31123376 0.4581251
-0.23494688 0.23756844 0.11975468 0.11804844 0.082862996 -0.56879574 0.33028683 0.335387
0.336513 -0.4917717 0.08829989 0.48608035 -0.1326854 -0.2773872 -0.048986856 0.057667427
-0.41650125 0.41678843 0.19265963 -0.04080037 0.23922735 -0.52693444 -0.54539037 -0.16256994
-0.08351793 -0.12177606 -0.113444835 -0.074211225 0.15561423 -0.027513582 -0.20216307 0.081446014
0.35574046 -0.6176693 0.10517132 -0.038867284 -0.48350695 -0.41018498 0.5053521 0.114473484
-0.7736492 -0.31437925 -0.006516469 0.44620353 -0.015000566 0.27970934 0.085428804 0.64805
-0.7727786 0.35015708 -0.06969265 -0.58300257 -0.08367566 -0.08816397 -0.26847622 -0.29046673
-0.5600671 0.32090595 0.29275247 -0.24905053 -0.11527031 -0.34870854 -0.44177333 -0.35012537
-0.0064544077 0.45667696 -0.123507984 0.18417183 0.4768435 1.0587051 -0.01780016 0.02603091
0.23117608 0.72057134 -0.20627297 -0.60846996 0.23513323 0.07627137 -0.5050222 0.06277311
0.54503804 -0.33279043 0.2590032 0.0067740562 -0.440196 0.23010956 0.75594574 0.15995342
0.014100593 0.45331934 0.6543708 -0.29886043 -0.4520478 -0.39629388 0.31268227 0.12619415
0.2602876 -0.1940729 -0.39630893 -0.33951277 0.34355387 0.040498186 -0.27903134 0.4154105
0.62457997 0.02269609 -0.5798875 0.022916114 -0.063856065 -0.08090474 -0.52478755 -0.24721129
0.15193854 0.029594956 -0.0711618 0.064327955 -0.23895393 -0.071166836 -0.2471609 0.07628843
-0.013280035 0.43584338 -0.29408836 -0.15234968 -0.40076625 -0.15442505 0.18606855 0.09767269
0.74832916 -0.28474492 -0.1685083 -0.17665783 -0.5261131 0.041118685 -0.26137528 0.10605522
-0.36001003 0.18094419 0.40622628 0.35766158 -0.2966624 -0.0058397115 -0.08465868 -0.1798856
-0.4642915 0.3605935 0.42072818 0.2379104 0.74498165 -0.1354465 -0.1912211 0.1827584
00000000: 71a1 e7bd b0a0 8cbe 92a9 23bf a964 9bbd
00000010: b504 093e f658 2a3e a1e5 7cbe 19a0 2abe
00000020: 1937 4dbf 5698 463e 6a66 053e 7a6e 9c3d
00000030: 8cc1 23bd 66a5 d93e d252 e93d 0a7f fcbd
00000040: 0ae6 2fbd 02bf 213e febd 853e ea24 01bd
00000050: 5761 ba3d 1d81 f93d bae6 613e d11c 143f
00000060: d31e fa3e a0e0 f7be 430b 813e 69ba 5e3e
00000070: 0cb0 f13e 15e4 f43d 1ecf fabb 7933 8cbd
00000080: ec7a a3bd e972 94be 996a 253e 114c 473d
00000090: 2d00 093f 5133 303e 12e0 f13e 2dc1 6ebe
000000a0: f92c 7abd 0eea 15bd 8cb7 c03e 0882 b23c
000000b0: 2f18 a73e a0ee 553f 14aa fa3d faa8 9dbe
000000c0: 6ec2 ba3e 3269 dd3d 3673 433d 5eb1 fcbd
000000d0: 9e62 0b3d fd44 bfbc 50d4 bd3d 49c9 aebe
000000e0: 08eb 3e3f 8759 a2bc b800 c3be f398 33bd
000000f0: 7349 6bbe 6039 6d3d bef1 55bc e276 f9be
00000100: 7335 163f 31df c33c 8625 1f3e 6356 e13e
00000110: 2d48 ed3c 050a 20be edd3 723e 2e5f b0be
00000120: cee6 d33d b585 b23d cfd3 a3be c9fd 223e
00000130: e7a2 b73d 1b99 c6be 2bd9 983a 05cd 2f3e
00000140: dcad 963e f200 2f3e acdd 5f3d 0c73 be3e
00000150: a4f5 cc3c 16f6 0abf 7617 c63e d8a2 11be
00000160: c212 8b3e 711e ba3e 3d00 593e df96 7e3d
00000170: 0775 81be 70b5 06be 6dea 8f3e 5b4c 08bf
00000180: 89b7 033f abe4 79bd 58c7 05be 98eb d1be
00000190: eeaa 81bd bc69 e53e 085a 9f3e 608f ea3e
000001a0: ea95 70be 2445 733e f141 f53d 61c3 f13d
000001b0: 13b4 a93d 999c 11bf 5b1b a93e d8b7 ab3e
000001c0: 6f4b ac3e 80c9 fbbe 93d6 b43d 86df f83e
000001d0: aede 07be b205 8ebe 71a6 48bd ae34 6c3d
000001e0: a73f d5be 4b65 d53e 9148 453e 4a1e 27bd
000001f0: 04f8 743e 2de5 06bf b49e 0bbf bc78 26be
00000200: 730b abbd ba65 f9bd c455 e8bd 0efc 97bd
00000210: 5659 1f3e 2a64 e1bc d603 4fbe 2bcd a63d
00000220: 9d23 b63e 931f 1ebf 1064 d73d 4d33 1fbd
00000230: 398e f7be c403 d2be c15e 013f 1371 ea3d
00000240: e00d 46bf 51f6 a0be 1b88 d5bb ca74 e43e
00000250: efc4 75bc 1036 8f3e 4cf5 ae3d 9be6 253f
00000260: d1d4 45bf ca47 b33e 05bb 8ebd a83f 15bf
00000270: 255e abbd 508f b4bd b775 89be 0eb8 94be
00000280: 8f60 0fbf c94d a43e a7e3 953e 1a07 7fbe
00000290: d712 ecbd ed89 b2be 1d30 e2be a243 b3be
000002a0: 7f7f d3bb 90d1 e93e c1f1 fcbd 8a97 3c3e
000002b0: d524 f43e a683 873f a4d1 91bc c63e d53c
000002c0: 6cb9 6c3e 5d77 383f 3939 53be b0c4 1bbf
000002d0: c4c6 703e 2a34 9c3d 2349 01bf 308f 803d
000002e0: 9d87 0b3f 8263 aabe 119c 843e e7f8 dd3b
000002f0: 5f61 e1be d7a1 6b3e a985 413f d4ca 233e
00000300: 2c06 673c 7919 e83e d884 273f 3c04 99be
00000310: cf72 e7be 08e7 cabe e417 a03e 0a39 013e
00000320: 6b44 853e 0cbb 46be 01e9 cabe 9ed4 adbe
00000330: 4be6 af3e 6de1 253d 32dd 8ebe afb0 d43e
00000340: 79e4 1f3f 27ed b93c 8273 14bf 93ba bb3c
00000350: f8c6 82bd 62b1 a5bd 7a58 06bf f524 7dbe
00000360: c795 1b3e 1f71 f23c 47bd 91bd 60be 833d
00000370: 57b0 74be ebbf 91bd bf17 7dbe 1c3d 9c3d
00000380: 8194 59bc dd26 df3e c092 96be 8e01 1cbe
00000390: 3c31 cdbe 9a21 1ebe c188 3e3e 9f08 c83d
000003a0: 8092 3f3f 16ca 91be 718d 2cbe cae5 34be
000003b0: 59af 06bf 116c 283d fbd2 85be 7b33 d93d
000003c0: 3c53 b8be 6f49 393e e4fc cf3e 6b1f b73e
000003d0: 22e4 97be 0d5b bfbb 8861 adbd ee33 38be
000003e0: 9eb7 edbe b69f b83e af69 d73e c99e 733e
000003f0: 1eb7 3e3f 7db2 0abe 77cf 43be 0525 3b3e

embedding.atom_embedding_list.3.weight f4 [12, 64]
0.024886323 0.015126183 -0.012465898 0.003185718 0.008835859 -0.018046813 0.021390494 -0.005314138
0.0015660168 0.011949034 -0.008940106 0.009262139 0.0052877045 -0.030846095 0.019597007 -0.019916277
0.0051207813 -0.013745564 0.010601798 -0.008772983 -0.0099540325 -0.018450422 -0.0044944687 0.006514136
-0.0035819083 0.016574956 0.0130589055 -0.0014886527 0.0046628197 0.007159729 0.01873076 -0.029372683
0.011305655 -0.012777088 -0.030804144 0.00019682902 -0.012208558 0.026569301 0.0060532666 0.025484009
-0.0058239624 0.0062360335 0.013676996 0.00091882935 0.0031274257 -0.009162122 -0.0006537984 0.0062079597
-0.019039286 -0.016538672 -0.016819999 0.014570857 0.007032112 -0.018069353 -0.0024940537 0.011177643
-0.03086003 0.03139585 0.010573697 0.0076600816 0.019933075 -0.016982447 -0.01530751 0.013668603
-0.07961062 0.0024226531 -0.06457954 -0.109258 -0.04756515 0.09461592 0.07555602 0.05414982
-0.0574712 0.1299056 0.0941938 -0.0069428 0.0739777 0.066782616 -0.101243995 -0.005768265
0.0034468202 0.10782694 0.11814496 -0.19415621 -0.02861056 0.01730803 -0.0064625037 -0.2543122
0.08412923 -0.051160898 -0.03162727 0.10447405 0.016624775 0.07647798 0.13385022 0.27550474
-0.014667557 -0.10479547 -0.07830346 0.17597541 0.16226743 0.034585092 -0.03149879 0.05435857
0.06240424 -0.013115387 0.006175999 -0.056833625 -0.13866052 -0.29915544 -0.06955127 -0.020658726
-0.07238429 -0.012748451 -0.019212002 -0.04222725 0.03812778 -0.02590263 0.11927125 -0.025532506
-0.15754442 -0.009290899 -0.074301414 0.023337984 -0.018087387 -0.04173371 0.06576066 -0.07801914
-0.18997727 -0.062300574 -0.013939201 -0.00092516287 -0.1033413 0.08994201 -0.08800361 -0.022694252
0.11287806 -0.082690954 0.04274019 0.016915299 0.04721129 0.122700125 -0.059675407 -0.026318181
0.008809605 0.122768305 -0.00095519965 0.19640036 0.002934751 0.0797253 -0.07931738 -0.032838043
-0.045998443 -0.04559095 0.04495244 -0.076271266 -0.06366014 -0.023131125 -0.17974068 0.17020096
-0.030479385 -0.1385029 0.17887534 -0.056656294 -0.010573056 -0.15265957 0.06054122 0.051824093
0.01210846 0.09656829 -0.03952383 -0.033196606 -0.051497944 -0.1417861 -0.035587076 -0.05739058
0.24214387 0.063293256 -0.017936993 -0.14586629 -0.02189101 0.04571888 0.09292885 -0.0600118
0.050090894 -0.058477324 -0.023978671 0.020497238 -0.12005842 0.10426147 -0.0024101397 0.0569611
-0.032485753 -0.06822759 -0.12809376 -0.011755985 0.0776619 0.18478565 0.06282754 0.027114255
-0.15379448 0.1304616 0.0427163 0.08392305 -0.009203946 0.049052432 -0.07013002 -0.09617004
0.023186123 0.042530518 0.11687263 -0.13768028 0.047280878 -0.023402216 0.18246818 0.0024518517
0.15555103 -0.17234777 -0.005082453 0.102832 -0.0038524994 0.093257174 0.08229669 0.0995505
-0.025537275 0.05010091 0.07727453 0.18512897 0.2098131 0.102249496 0.08262382 -0.11668827
-0.058728006 0.052513294 0.09822436 -0.05023073 0.062453903 -0.12140418 0.05166473 -0.050609954
0.07700422 -0.033855226 -0.11519458 -0.14539306 0.13099667 -0.09034339 0.16360572 -0.0011600602
0.12890127 -0.105241336 -0.17934012 0.016640589 -0.09321402 -0.022995295 0.08991411 -0.14387974
00000000: 67de cb3c cfd3 773c c43d 4cbc 7bc7 503b
00000010: 47c4 103c e9d6 93bc 1e3b af3c 3822 aebb
00000020: ce42 cd3a e2c5 433c 8679 12bc 3ac0 173c
00000030: 7b44 ad3b f3b0 fcbc e789 a03c 7627 a3bc
00000040: 3acc a73b 1335 61bc 2ab3 2d3c 8fbc 0fbc
00000050: 3d16 23bc 5725 97bc 5646 93bb 8974 d53b
00000060: 73be 6abb 34c8 873c 05f5 553c e51e c3ba
00000070: 91ca 983b 299c ea3b 4071 993c fb9e f0bc
00000080: 5b3b 393c fe56 51bc f958 fcbc e363 4e39
00000090: 6706 48bc dda7 d93c 7b5a c63b d7c3 d03c
000000a0: f0d6 bebb a457 cc3b 7b15 603c 98dd 703a
000000b0: 7ff5 4c3b ba1c 16bc ab63 2bba 246c cb3b
000000c0: 47f8 9bbc 1c7c 87bc 18ca 89bc 9bba 6e3c
000000d0: a26d e63b 2e06 94bc 4773 23bb 6f22 373c
000000e0: 2cce fcbc ef98 003d 4d3d 2d3c 6c01 fb3b
000000f0: b04a a33c c61e 8bbc 5acc 7abc 47f2 5f3c
00000100: e50a a3bd 60c5 1e3b 4742 84bd a9c2 dfbd
00000110: add3 42bd fec5 c13d 1dbd 9a3d 34cc 5d3d
00000120: ec66 6bbd f905 053e aee8 c03d 6d80 e3bb
00000130: 9f81 973d 53c5 883d 0359 cfbd b703 bdbb
00000140: 0ce4 613b 5fd4 dc3d fcf5 f13d e3d0 46be
00000150: b160 eabc 92c9 8d3c 69c3 d3bb 3535 82be
00000160: f24b ac3d 178e 51bd 998b 01bd 7ef6 d53d
00000170: ae30 883c 7da0 9c3d 0810 093e f50e 8d3e
00000180: 3150 70bc 029f d6bd 905d a0bd e632 343e
00000190: 6f29 263e 19a9 0d3d e004 01bd 18a7 5e3d
000001a0: 979b 7f3d ece1 56bc 0960 ca3b 60ca 68bd
000001b0: 06fd 0dbe e72a 99be e570 8ebd 7d3c a9bc
000001c0: 373e 94bd e1de 50bc 7d62 9dbc 7bf6 2cbd
000001d0: e02b 1c3d c131 d4bc 7c44 f43d 8c29 d1bc
000001e0: 5353 21be db38 18bc 572b 98bd 4d2f bf3c
000001f0: 002c 94bc f7f0 2abd 86ad 863d 80c8 9fbd
00000200: 6789 42be e32e 7fbd 3f61 64bc a186 72ba
00000210: 9aa4 d3bd 8433 b83d 3d3b b4bd 4ce9 b9bc
00000220: 9d2c e73d e059 a9bd 5610 2f3d f491 8a3c
00000230: a060 413d 344a fb3d 336e 74bd 3a99 d7bc
00000240: 2956 103c f36d fb3d 5d66 7aba 2d1d 493e
00000250: f454 403b 0547 a33d 2771 a2bd 2f81 06bd
00000260: dd68 3cbd 93bd 3abd 0d20 383d 1c34 9cbd
00000270: 3f60 82bd 7c7d bdbc f10d 38be 2949 2e3e
00000280: e7af f9bc b4d3 0dbe 192b 373e 6e10 68bd
00000290: 9c3a 2dbc ca52 1cbe 12fa 773d 8045 543d
000002a0: 9062 463c 98c5 c53d bde3 21bd 2af9 07bd
000002b0: 82ef 52bd 6030 11be c1c3 11bd 6312 6bbd
000002c0: 90f4 773e e59f 813d 9af0 92bc f95d 15be
000002d0: c754 b3bc b843 3b3d 7b51 be3d efce 75bd
000002e0: 1c2c 4d3d eb85 6fbd eb6e c4bc d3e9 a73c
000002f0: 30e1 f5bd 0a87 d53d 6ff3 1dbb 0b50 693d
00000300: c80f 05bd e8ba 8bbd 032b 03be 2d9c 40bc
00000310: 340d 9f3d 7338 3d3e baab 803d b71e de3c
00000320: 4d7c 1dbe ba97 053e 49f7 2e3d d9df ab3d
00000330: 26cc 16bc 34eb 483d 54a0 8fbd ccf4 c4bd
00000340: d3f0 bd3c 7b34 2e3d eb5a ef3d 0ffc 0cbe
00000350: 98a9 413d 01b6 bfbc f0d8 3a3e 3faf 203b
00000360: c548 1f3e ef7b 30be b58a a6bb 9599 d23d
00000370: 377a 7cbb 9efd be3d 2b8b a83d 22e1 cb3d
00000380: 8c33 d1bc 9d36 4d3d 1c42 9e3d 7392 3d3e
00000390: 3fd9 563e 2f68 d13d ad36 a93d 42fa eebd
000003a0: c78c 70bd 2e18 573d da29 c93d bdbe 4dbd
000003b0: aacf 7f3d c1a2 f8bd 659e 533d 624c 4fbd
000003c0: 63b4 9d3d c7ab 0abd 23eb ebbd ebe1 14be
000003d0: fe23 063e f505 b9bd 4288 273e 290d 98ba
000003e0: b2fe 033e c588 d7bd f0a4 37be d851 883c
000003f0: fee6 bebd a160 bcbc e424 b83d 3655 13be

embedding.atom_embedding_list.4.weight f4 [10, 64]
0.18664993 0.3093516 0.17592975 -0.30273232 0.20712444 -0.024760153 0.42841628 -0.04247616
0.07285574 0.040414304 0.3639608 -0.0068215397 0.17388354 -0.48002166 0.23918523 -0.3012141
-0.16418397 -0.2736314 -0.3764392 -0.32402965 -0.13839547 0.08084761 0.15985769 0.20984273
-0.33691338 0.33731368 -0.09859926 -0.07094561 0.050939042 0.013698256 0.12752053 -0.5704895
0.013568617 0.17915414 -0.45950612 0.3251317 0.028863726 0.105179675 0.058333322 0.25911295
-0.1277138 -0.085420236 -0.2348818 -0.19378178 -0.36490443 0.41392905 0.16373588 -0.0854522
-0.25429934 -0.084716015 -0.50003177 0.08013136 -0.1847489 -0.23091026 0.285609 0.4778059
-0.053303596 0.068267226 0.18792069 -0.15120514 -0.035793845 0.09016307 0.13582878 0.3886609
-0.5897771 -0.24412347 -0.27666458 -0.0883877 -0.5032216 -0.12025468 -0.4157738 0.27350092
0.016432134 0.051023297 -0.2995075 -0.18822475 -0.17424673 1.1348722 -0.39949858 0.034674305
0.1799042 0.05975138 -0.04378617 -0.31877822 -0.2927213 0.38668627 -0.44222927 0.062355652
0.32930732 -0.30310345 -0.006132371 0.15958022 0.14932723 0.18128298 0.056936905 0.5081059
-0.05649828 -0.50525033 0.73642623 -0.04550488 0.45933533 -0.19054754 -0.070148304 -0.25630742
0.26033843 -0.37003914 0.15782654 -0.35002434 0.26618204 -0.36941537 -0.3515904 -0.3474061
-0.18554708 -0.1429738 -0.0020927282 -0.16345713 -0.08619373 0.50372154 -0.11857772 -1.0383868
0.112807654 -0.018794833 -0.019985382 0.33184108 -0.040713947 0.58957154 -0.16146791 -0.8787779
0.31837624 0.38885063 0.20376109 0.24394521 -0.10246337 0.040565923 -0.297006 0.2796106
0.6539397 -0.032153014 -0.92900014 0.06464068 0.07980686 -0.4854482 0.05091515 0.20322253
0.26455453 -0.38090375 -0.31826204 0.59256893 0.4696373 -0.41554067 0.34357518 -0.20573638
-0.46576756 -0.28830892 0.031082597 -0.17244941 -0.4541041 0.05646863 -0.6241211 -0.25040182
0.3339374 0.91787267 0.05068249 -0.3864305 -0.6617537 -0.3896727 0.14720722 0.2508734
-0.18371858 0.38827792 -0.5125469 0.2572622 0.53177166 -0.5038018 0.058803156 0.15332878
0.36606294 -0.2849805 0.33246812 -0.06520499 -0.05431907 0.090160415 0.22399816 0.018302683
-0.21257758 -0.18930677 -0.21431366 0.54836726 0.034171972 -0.24787998 -0.01453478 -0.12762856
0.04781931 -0.50437236 -0.28151765 -0.01967826 0.07719581 0.27261972 -0.13519615 -0.6273728
-0.54071003 -0.5167845 0.6392495 0.07361464 -0.07741181 -0.27182114 0.4391941 0.16388638
-0.39945024 0.59430015 0.49711818 0.43742618 -0.043862253 0.33006096 -0.044111885 0.13029003
0.0058071823 0.57132477 0.23586386 -0.39213154 0.27806604 -0.40343842 -0.013225972 0.19900255
-0.1626963 -0.51187706 -0.54596144 -0.091878705 0.5561607 0.17647997 0.059802894 -0.086754814
-0.2606036 -0.1787328 0.12762387 0.097405 -0.26083505 -0.001884114 0.39712447 -0.0708148
0.07954321 0.31125656 0.24552935 0.14477314 0.10359905 -0.25327593 -0.3517713 0.50526184
-0.020073984 0.24992745 -0.08162862 -0.633797 -0.33041775 -0.059463177 0.31076998 0.35757
00000000: 2921 3f3e 5563 9e3e ee26 343e bbff 9abe
00000010: 6e18 543e ced5 cabc 6159 db3e 7bfb 2dbd
00000020: 6435 953d 7889 253d 1259 ba3e 3987 dfbb
00000030: 870e 323e 66c5 f5be f9ec 743e bc38 9abe
00000040: d81f 28be 6a19 8cbe a4bc c0be 37e7 a5be
00000050: 8bb7 0dbe 6f93 a53d bcb1 233e 03e1 563e
00000060: e97f acbe 61b4 ac3e 69ee c9bd ef4b 91bd
00000070: 75a5 503d a66e 603c be94 023e 9a0b 12bf
00000080: e84e 5e3c 2f74 373e 6344 ebbe aa77 a63e
00000090: 9f73 ec3c 7168 d73d ecee 6e3d 74aa 843e
000000a0: 68c7 02be cef0 aebd db84 70be bb6e 46be
000000b0: c1d4 babe 82ee d33e 61aa 273e 9001 afbd
000000c0: 8633 82be 977f adbd 1502 00bf e91b a43d
000000d0: d12e 3dbe bd73 6cbe 583b 923e faa2 f43e
000000e0: df54 5abd b0cf 8b3d 486e 403e 85d5 1abe
000000f0: 919c 12bd 6aa7 b83d b316 0b3e 90fe c63e
00000100: a2fb 16bf 81fb 79be fba6 8dbe 9c04 b5bd
00000110: 21d3 00bf 1648 f6bd 4ee0 d4be 5008 8c3e
00000120: af9c 863c cefd 503d 0c59 99be fdbd 40be
00000130: bc6d 32be 7e43 913f 148b ccbe a506 0e3d
00000140: ce38 383e ddbd 743d 2159 33bd e636 a3be
00000150: 91df 95be befb c53e e06b e2be a468 7f3d
00000160: f89a a83e 6030 9bbe 0ef2 c8bb ff68 233e
00000170: 3de9 183e 3fa2 393e ac36 693d 3a13 023f
00000180: be6a 67bd 1658 01bf 6e86 3c3f 5363 3abd
00000190: 002e eb3e e51e 43be eaa9 8fbd ba3a 83be
000001a0: 144b 853e c575 bdbe 489d 213e 6436 b3be
000001b0: 0349 883e 0324 bdbe a803 b4be 36df b1be
000001c0: 0e00 3ebe b967 12be 2726 09bb 4e61 27be
000001d0: 5786 b0bd e5f3 003f e0d8 f2bd dce9 84bf
000001e0: b307 e73d 9ff7 99bc 62b8 a3bc 13e7 a93e
000001f0: abc3 26bd 29ee 163f d857 25be 97f7 60bf
00000200: 3602 a33e 6e17 c73e bfa6 503e c6cc 793e
00000210: 51d8 d1bd 7428 263d 2c11 98be 1f29 8f3e
00000220: 9868 273f e1b2 03bd f4d2 6dbf 5562 843d
00000230: c771 a33d ab8c f8be 688c 503d 9119 503e
00000240: b173 873e d105 c3be 3ef3 a2be 99b2 173f
00000250: 4d74 f03e bfc1 d4be 16e9 af3e 8fac 52be
00000260: 1679 eebe 3a9d 93be eea0 fe3c 9496 30be
00000270: 5580 e8be a64b 673d 67c6 1fbf ab34 80be
00000280: d8f9 aa3e b4f9 6a3f 7198 4f3d 38da c5be
00000290: b168 29bf 2e83 c7be 7dbd 163e 7a72 803e
000002a0: b920 3cbe 5dcc c63e 4636 03bf dfb7 833e
000002b0: 3022 083f 28f9 00bf 94db 703d 3802 1d3e
000002c0: 9a6c bb3e f7e8 91be 4339 aa3e 328a 85bd
000002d0: ac7d 5ebd 06a6 b83d c65f 653e 82ef 953c
000002e0: f0ad 59be a2d9 41be 0a75 5bbe cc61 0c3f
000002f0: e9f7 0b3d 40d4 7dbe 4923 6ebc 10b1 02be
00000300: 2ede 433d 8c1e 01bf 1523 90be 4d34 a1bc
00000310: d618 9e3d d094 8b3e dc70 0abe 819b 20bf
00000320: f96b 0abf fd4b 04bf dba5 233f 46c3 963d
00000330: 158a 9ebd 242c 8bbe 0dde e03e d5d1 273e
00000340: be84 ccbe 0e24 183f 4686 fe3e 53f6 df3e
00000350: e8a8 33bd c0fd a83e aaae 34bd c06a 053e
00000360: 2d4a be3b 5742 123f 4c86 713e 77c5 c8be
00000370: ac5e 8e3e 7b8f cebe bfb1 58bc 53c7 4b3e
00000380: dc99 26be 600a 03bf 21c4 0bbf e72a bcbd
00000390: 8c60 0e3f 2ab7 343e e1f3 743d 82ac b1bd
000003a0: d66d 85be bb05 37be d5af 023e 467c c73d
000003b0: 2c8c 85be 60f4 f6ba e653 cb3e 5a07 91bd
000003c0: 8de7 a23d 055d 9f3e 0c6c 7b3e 693f 143e
000003d0: bd2b d43d 62ad 81be 5e1b b4be d758 013f
000003e0: 3272 a4bc fbec 7f3e e82c a7bd 8540 22bf
000003f0: 842c a9be a98f 73bd 3e1d 9f3e 6a13 b73e

embedding.atom_embedding_list.5.weight f4 [6, 64]
0.15219426 -0.27295062 -0.03578592 0.15486589 0.0386395 -0.03226791 -0.20906344 -0.016922193
0.11098043 -0.13642195 0.15769121 0.07219619 -0.02302377 0.0011255647 -0.14383654 0.036552723
-0.17192745 -0.12636441 0.12436623 -0.0670003 -0.1730582 0.13102409 0.13472246 0.2153829
-0.217285 -0.037815537 -0.02131205 -0.059263688 -0.270906 0.027930876 0.05471797 -0.23476532
0.22105588 -0.06519945 0.20123279 0.14095172 -0.09471865 0.20562625 0.08692046 -0.14581673
-0.21911441 -0.20536824 0.16484012 0.073500566 0.12913537 0.34780785 -0.0033604112 -0.0052463803
-0.11814362 0.0046033785 0.16937137 -0.088134326 0.09288064 0.017293276 -0.29021496 -0.09136339
0.008590122 0.010716061 0.08801441 -0.22440611 -0.15961944 -0.08303922 -0.010474058 0.07550854
4.90745e-40 4.91525e-40 4.9626e-40 4.96868e-40 4.94486e-40 -4.99061e-40 4.92681e-40 5.15292e-40
-4.97087e-40 -4.97597e-40 5.7661e-40 4.98857e-40 -4.94693e-40 -4.90726e-40 4.95562e-40 -4.9167e-40
4.96793e-40 4.91357e-40 4.92346e-40 4.95683e-40 4.93145e-40 4.94808e-40 -4.93166e-40 6.24616e-40
5.41271e-40 -5.05275e-40 4.98338e-40 -4.98164e-40 5.05118e-40 4.98226e-40 4.94685e-40 -5.15906e-40
-4.96428e-40 5.09159e-40 -4.95288e-40 -4.98644e-40 -5.05521e-40 4.93127e-40 -5.21499e-40 -4.94813e-40
4.95943e-40 4.96772e-40 4.95188e-40 4.97004e-40 -4.99312e-40 4.91654e-40 4.96187e-40 4.95177e-40
4.93125e-40 -5.85084e-40 4.90844e-40 5.04794e-40 4.94325e-40 4.98508e-40 4.95943e-40 -4.98183e-40
-5.02119e-40 4.93516e-40 4.9615e-40 -5.22275e-40 -4.95533e-40 -5.28916e-40 5.42039e-40 4.97034e-40
-0.03715532 0.08905189 -0.055400345 -0.029080607 0.01637236 0.01598529 0.0154277785 -0.036779873
0.065264344 -0.0530694 -0.020481275 -0.009553199 0.037767746 -0.113873236 0.028510014 -0.022440378
-0.034289155 -0.039219953 -0.06537509 0.16025303 0.0042183055 0.027745722 0.013953628 0.065932065
-0.1374475 0.020193536 0.06537317 -0.0598159 -0.031740073 -0.01037721 -0.11919965 0.017294127
-0.009957763 0.055780284 -0.0075765625 -0.079945594 -0.045093793 -0.105147496 0.040338416 0.114978105
0.031543486 0.07881914 -0.07469175 0.013127255 0.012234733 0.043143034 0.035005707 -0.005137383
0.13774487 0.07363027 -0.044510625 -0.076753475 -0.014117897 -0.039452 0.02315785 0.057357516
0.043285888 0.01600877 0.005459111 0.02331394 -0.0790129 0.029245641 0.02799085 0.10246176
4.93537e-40 4.92519e-40 -4.96357e-40 -4.9267e-40 4.97553e-40 4.99189e-40 4.91249e-40 4.95764e-40
4.98712e-40 4.92322e-40 4.9273e-40 4.92252e-40 -4.95499e-40 -4.93219e-40 -4.96358e-40 -4.93648e-40
-5.10806e-40 4.99581e-40 4.95016e-40 -5.00967e-40 -4.92615e-40 5.27065e-40 4.9435e-40 -4.97394e-40
-4.93362e-40 4.9378e-40 -6.07164e-40 5.00269e-40 4.99693e-40 -4.9328e-40 -4.90732e-40 4.9253e-40
-4.96941e-40 4.9573e-40 -4.9149e-40 -4.94496e-40 4.92251e-40 -5.08451e-40 -4.97226e-40 5.07533e-40
-4.97886e-40 -4.90473e-40 5.18489e-40 4.99318e-40 -4.97248e-40 5.11551e-40 -4.91584e-40 -6.26722e-40
4.91707e-40 -4.96989e-40 4.93174e-40 -4.93513e-40 5.06341e-40 4.97077e-40 -5.01268e-40 4.92544e-40
4.96155e-40 -4.91072e-40 4.98131e-40 -4.90827e-40 4.96322e-40 -4.92636e-40 -5.36985e-40 -4.97944e-40
00000000: d0d8 1b3e 2fc0 8bbe 4294 12bd 2a95 1e3e
00000010: 7444 1e3d 5b2b 04bd ba14 56be 69a0 8abc
00000020: b549 e33d 32b2 0bbe ce79 213e 99db 933d
00000030: 589c bcbc af87 933a e349 13be 4fb8 153d
00000040: c00d 30be ac65 01be b9b3 fe3d 7437 89bd
00000050: 2b36 31be 2e2b 063e aff4 093e 568d 5c3e
00000060: f67f 5ebe 77e4 1abd 9c96 aebc 7bbe 72bd
00000070: 31b4 8abe 4bcf e43c f31f 603d 5266 70be
00000080: 795c 623e 4a87 85bd f80f 4e3e a655 103e
00000090: dafb c1bd b08f 523e 5b03 b23d fb50 15be
000000a0: 875f 60be 0d4c 52be d9cb 283e 7787 963d
000000b0: 103c 043e df13 b23e 583a 5cbb d4e9 abbb
000000c0: 48f5 f1bd f0d7 963b b06f 2d3e c57f b4bd
000000d0: 3438 be3d a1aa 8d3c 0e97 94be bb1c bbbd
000000e0: 95bd 0c3c 6b92 2f3c e640 b43d b7ca 65be
000000f0: 4773 23be 7710 aabd 629b 2bbc 39a4 9a3d
00000100: ff57 0500 2c5a 0500 5f67 0500 1169 0500
00000110: 6d62 0500 2e6f 0580 655d 0500 6d9c 0500
00000120: ad69 0580 196b 0580 5b47 0600 9c6e 0500
00000130: 0163 0580 f257 0580 6d65 0500 935a 0580
00000140: db68 0500 b459 0500 765c 0500 c365 0500
00000150: b05e 0500 5363 0500 bf5e 0580 2dcd 0600
00000160: d8e4 0500 8080 0580 2a6d 0500 ae6c 0580
00000170: 1080 0500 da6c 0500 fb62 0500 239e 0580
00000180: d767 0580 548b 0500 a964 0580 046e 0580
00000190: 3081 0580 a35e 0500 baad 0580 5663 0580
000001a0: 7d66 0500 cc68 0500 6264 0500 7269 0500
000001b0: e16f 0580 885a 0500 2b67 0500 5a64 0500
000001c0: a25e 0500 fa5e 0680 4658 0500 297f 0500
000001d0: fa61 0500 a36d 0500 7d66 0500 bb6c 0580
000001e0: b477 0580 b95f 0500 1067 0500 e4af 0580
000001f0: 5865 0580 67c2 0580 fce6 0500 8769 0500
00000200: 2d30 18bd d660 b63d 79eb 62bd 743a eebc
00000210: 541f 863c 95f3 823c cbc4 7c3c 7ea6 16bd
00000220: 50a9 853d 4d5f 59bd 59c8 a7bc 0585 1cbc
00000230: 5ab2 1a3d 5f36 e9bd d58d e93c e2d4 b7bc
00000240: c972 0cbd 1aa5 20bd 60e3 85bd 5f19 243e
00000250: b639 8a3b ff4a e33c c29d 643c 6407 873d
00000260: 0abf 0cbe ea6c a53c 5ee2 853d 8401 75bd
00000270: e101 02bd 2c05 2abc f21e f4bd 6aac 8d3c
00000280: e325 23bc de79 643d d044 f8bb 84ba a3bd
00000290: 45b4 38bd 9257 d7bd e539 253d a479 eb3d
000002a0: be33 013d ee6b a13d fdf7 98bd b313 573c
000002b0: 3174 483c c0b6 303d 2562 0f3d 7e57 a8bb
000002c0: fe0c 0d3e 78cb 963d c650 36bd ed30 9dbd
000002d0: c04e 67bc 6c98 21bd 88b5 bd3c b7ef 6a3d
000002e0: 8b4c 313d d324 833c 58e2 b23b e0fc be3c
000002f0: 84d1 a1bd 8e94 ef3c 114d e53c 79d7 d13d
00000300: c85f 0500 f15c 0500 a467 0580 5d5d 0580
00000310: fa6a 0500 896f 0500 6759 0500 fd65 0500
00000320: 356e 0500 655c 0500 885d 0500 335c 0500
00000330: 4065 0580 e55e 0580 a567 0580 1760 0580
00000340: eb8f 0580 a170 0500 e763 0500 7e74 0580
00000350: 365d 0580 3ebd 0500 0c62 0500 886a 0580
00000360: 4b5f 0580 7560 0500 879c 0680 8c72 0500
00000370: f170 0500 105f 0580 f657 0580 f95c 0500
00000380: 4569 0580 e565 0500 135a 0580 7462 0580
00000390: 325c 0500 5b89 0580 106a 0580 cc86 0500
000003a0: e76b 0580 3d57 0580 56a5 0500 e56f 0500
000003b0: 206a 0580 ff91 0500 565a 0580 0cd3 0680
000003c0: ae5a 0500 6769 0580 c55e 0500 b75f 0580
000003d0: 7983 0500 a669 0500 5575 0580 035d 0500
000003e0: 1467 0500 e958 0580 966c 0500 3a58 0580
000003f0: 8b67 0500 455d 0580 e5d8 0580 116c 0580

embedding.atom_embedding_list.6.weight f4 [6, 64]
0.44303364 -0.027726406 0.4239737 0.3679331 0.14331838 -0.23774815 0.12465775 0.04988085
0.42621 -0.19333357 -0.27670422 0.046610676 -0.26123625 -0.38406575 -0.21607533 0.25571513
-0.06317767 0.021442859 -0.24489759 -0.24698243 -0.25007218 -0.08923786 -0.3998124 -0.32604387
-0.24536991 0.49214697 -0.45990595 -0.1809243 -0.5226455 -0.22737351 0.14251564 -0.20311652
0.29519373 0.11756201 -0.27679878 -0.035065867 -0.243066 -0.030968085 -0.6380809 -0.061193537
-0.013477597 -0.18016718 -0.32843682 -0.06020208 -0.15504716 -0.19182238 0.012914016 0.42539474
-0.40458634 -0.32339618 0.110185444 0.21610083 0.23026404 -0.1055729 -0.3153059 0.3207773
-0.231757 0.25452292 0.19095941 -0.26406303 0.30391955 -0.047043145 0.008871688 0.29703596
-0.0035459106 -0.2607797 -0.10281447 0.16436967 -0.021455396 0.19538727 0.090478726 -0.3556626
-0.13206527 -0.16024683 -0.11500345 0.03463611 0.06518673 0.054938607 -0.023225836 -0.49843842
0.4380335 0.28818184 0.24822193 0.3091177 0.079322085 0.024047477 0.3171432 0.20527866
0.4334089 -0.39337784 0.4654971 -0.20060739 0.17173815 0.21599554 -0.4787862 -0.53418016
-0.12394285 -0.22597146 0.26992208 -0.007196872 0.13199459 0.11826917 0.4475812 -0.3323661
0.115346834 0.2740704 0.439187 0.17266819 0.03762013 0.23155284 0.29543018 -0.29247475
0.69331443 0.13600013 0.11673685 -0.25175446 0.102537505 -0.07207212 0.08160034 -0.3087704
0.182719 0.13289098 -0.11116626 0.40831938 -0.003559146 -0.044323333 -0.26587507 -0.15413077
-0.13590635 0.22764501 -0.14068905 -0.29959205 0.086782776 -0.59791255 -0.10747209 0.35557976
-0.013485089 0.22670296 -0.057432715 -0.32684347 0.05515222 -0.07608009 -0.1883413 0.6203831
-0.18213202 -0.4133285 0.06654073 -0.12660852 -0.1427216 0.14668433 -0.02631975 -0.051052872
-0.02607577 0.23310755 -0.19013761 0.08825163 0.09393128 0.017135425 0.08385099 0.13135967
0.22068337 0.15427703 -0.3631393 -0.24824734 0.095850155 -0.35109615 -0.34198782 0.44675553
0.04431079 -0.3963118 -0.007002933 0.049043722 0.10687855 0.09074552 -0.29900286 0.042218585
-0.26139292 0.07476802 0.23557368 0.25893396 -0.52976596 -0.15853162 -0.15146308 0.18726456
-0.10456758 0.05748544 -0.074286915 -0.09844438 0.13897617 -0.16777875 -0.1183681 -0.41025114
-0.26936787 -0.090251744 -0.2796975 -0.13440353 -0.24488135 0.09197053 0.066141546 0.043390084
0.056719713 0.07742412 0.083845094 -0.009130208 -0.008591804 0.21709725 -0.067624465 -0.062462658
-0.06550961 0.14052653 0.24782395 -0.15382372 0.017374123 0.28177345 -0.28104153 -0.35022414
0.054464098 -0.22267586 0.096603535 0.060459025 0.16298127 0.12648973 0.07527971 0.4289531
0.14713685 -0.18590589 -0.2609564 0.24370994 0.12401362 -0.22085126 -0.061410725 0.22393183
0.123809725 -0.044037968 -0.059528083 -0.0767567 -0.09208269 -0.4065262 -0.13142921 -0.07508867
-0.12101196 -0.17006916 0.13440186 -0.02325553 0.18312033 -0.09654829 0.058797482 0.08949189
-0.27087644 -0.019373417 -0.118182294 -0.037881028 -0.10004362 -0.0919716 0.018566692 0.11854184
00000000: 4ed5 e23e 7d22 e3bc 1513 d93e ba61 bc3e
00000010: 0ec2 123e 4074 73be 904c ff3d dd4f 4c3d
00000020: 3238 da3e 3cf9 45be 2dac 8dbe d6ea 3e3d
00000030: c2c0 85be 44a4 c4be da42 5dbe 18ed 823e
00000040: 4b63 81bd efa8 af3c 6fc6 7abe f6e8 7cbe
00000050: 7609 80be 57c2 b6bd 36b4 ccbe 39ef a6be
00000060: 4042 7bbe b0fa fb3e cb78 ebbe 3844 39be
00000070: 18cc 05bf 9ad4 68be 9fef 113e c7fd 4fbe
00000080: a223 973e 5ac4 f03d 92b8 8dbe 3aa1 0fbd
00000090: 4be6 78be c8b0 fdbc 4559 23bf 13a6 7abd
000000a0: 24d1 5cbc bf7d 38be df28 a8be 7596 76bd
000000b0: afc4 1ebe 166d 44be 4f95 533c 57cd d93e
000000c0: f125 cfbe 2f94 a5be e8a8 e13d 8949 5d3e
000000d0: 56ca 6b3e 9b36 d8bd c66f a1be ec3c a43e
000000e0: b551 6dbe d450 823e dd8a 433e 4533 87be
000000f0: 589b 9b3e 50b0 40bd 8e5a 113c 1915 983e
00000100: 8262 68bb eb84 85be 6590 d2bd 8650 283e
00000110: 3ac3 afbc 9a13 483e e94c b93d 6919 b6be
00000120: 1e3c 07be bf17 24be ee86 ebbd 98de 0d3d
00000130: 9f80 853d 4e07 613d 1c44 bebc 5233 ffbe
00000140: ed45 e03e 928c 933e e42d 7e3e ad44 9e3e
00000150: 9e73 a23d 37ff c43c 9860 a23e 9234 523e
00000160: c5e7 dd3e d268 c9be a355 ee3e 066c 4dbe
00000170: 20dc 2f3e ef2d 5d3e 7723 f5be 08c0 08bf
00000180: c0d5 fdbd 1065 67be 3a33 8a3e bdd3 ebbb
00000190: 9729 073e 1b37 f23d 5d29 e53e e42b aabe
000001a0: f63a ec3d f552 8c3e 1edd e03e eecf 303e
000001b0: 9117 1a3d 301c 6d3e a042 973e 40bf 95be
000001c0: 0e7d 313f 9e43 0b3e bb13 ef3d f6e5 80be
000001d0: 2fff d13d 8c9a 93bd 141e a73d 2717 9ebe
000001e0: b11a 3b3e 9314 083e 23ab e3bd 3d0f d13e
000001f0: 9040 69bb 628c 35bd c720 88be 75d4 1dbe
00000200: 092b 0bbe c61b 693e ca10 10be 2164 99be
00000210: 2bbb b13d cc10 19bf 541a dcbd 8d0e b63e
00000220: 90f0 5cbc d224 683e 913e 6bbd 0758 a7be
00000230: 4be7 613d e1cf 9bbd 8bdc 40be 6dd1 1e3f
00000240: d180 3abe cb9f d3be 8246 883d aaa5 01be
00000250: 9c25 12be 6b34 163e 849c d7bc d11c 51bd
00000260: da9c d5bc bfb3 6e3e 6fb3 42be 45bd b43d
00000270: 0b5f c03d 975f 8c3c 11ba ab3d 2683 063e
00000280: d2fa 613e ccfa 1d3e 65ed b9be 8d34 7ebe
00000290: 164d c43d e0c2 b3be 0719 afbe 24bd e43e
000002a0: 3b7f 353d 61e9 cabe dc78 e5bb 12e2 483d
000002b0: 24e3 da3d cad8 b93d e716 99be 65ed 2c3d
000002c0: 4bd5 85be fa1f 993d 3a3a 713e fe92 843e
000002d0: be9e 07bf 1d56 22be 2319 1bbe 48c2 3f3e
000002e0: 8727 d6bd da75 6b3d bd23 98bd 359d c9bd
000002f0: c54f 0e3e 31ce 2bbe f96a f2bd 700c d2be
00000300: 96ea 89be e8d5 b8bd 8334 8fbe 14a1 09be
00000310: 2dc2 7abe 0c5b bc3d 3875 873d cdb9 313d
00000320: ee52 683d 8990 9e3d fab6 ab3d de96 15bc
00000330: a3c4 0cbc be4e 5e3e b27e 8abd d8d8 7fbd
00000340: e729 86bd 30e6 0f3e 90c5 7d3e f783 1dbe
00000350: 2d54 8e3c 9c44 903e ade4 8fbe 9450 b3be
00000360: bf15 5f3d 2405 64be 13d8 c53d e2a3 773d
00000370: 90e4 263e 8686 013e 402c 9a3d be9f db3e
00000380: 0bab 163e 1d5e 3ebe 149c 85be 198f 793e
00000390: dafa fd3d d526 62be d089 7bbd 634e 653e
000003a0: f48f fd3d 2861 34bd b8d3 73bd 9e32 9dbd
000003b0: d995 bcbd 3424 d0be 6195 06be 17c8 99bd
000003c0: 1ed5 f7bd 9c26 2ebe a4a0 093e 6282 bebc
000003d0: e583 3b3e 1cbb c5bd a1d5 703d 8647 b73d
000003e0: 51b0 8abe 00b5 9ebc 8f09 f2bd 2329 1bbd
000003f0: abe3 ccbd 9b5b bcbd 2d19 983c 10c6 f23d

embedding.atom_embedding_list.7.weight f4 [2, 64]
-0.16569944 0.062652424 -0.033802133 -0.03180288 0.13609882 0.29094568 0.0143366875 0.108359344
0.28633147 0.4528658 0.04429096 0.21331486 0.34435734 -0.2141685 0.26862115 -0.48603573
0.43430197 0.3774053 -0.11147855 0.25918895 0.055310648 -0.25857225 -0.16967148 0.41807577
0.39721933 -0.01928186 0.12088011 0.25825825 0.16816762 -0.23798001 -0.30314985 -0.20821
-0.41844213 -0.07218666 0.07674691 0.044577137 -0.27490947 -0.16967571 0.19695908 -0.084275104
-0.41663212 0.17463821 0.42297193 0.12434657 -0.12671764 0.008269029 -0.007386898 0.2509281
0.35858157 -0.09588446 -0.3789303 0.089731865 -0.21515653 -0.09272114 0.54420185 0.13488245
-0.12578826 -0.099207126 -0.27846745 -0.040160023 -0.18655016 0.09528733 -0.074529976 -0.123354
0.025200576 0.15701367 -0.2727648 -0.05945178 -0.14236136 -0.3661968 -0.07515568 -0.4100381
-0.5946095 -0.69493127 -0.23629987 -0.2941783 -0.7075093 0.12931 -0.6921253 0.7795974
-0.8578973 -0.36560017 -0.29686967 -0.28933424 0.04048742 0.4789076 0.18113567 -0.23358974
-0.47218725 0.31496578 -0.19696032 -0.39858726 -0.41107264 0.045236938 0.26821783 -0.34224606
0.4572566 0.28137845 -0.16056424 -0.3854659 0.28589478 0.13172196 -0.31871006 0.18764593
0.88673043 -0.16111808 -0.6295729 -0.3141334 -0.028187893 0.08471954 0.4192946 -0.08357026
-0.2880734 -0.050472654 0.3682319 -0.22332959 0.33229455 0.31177837 -0.9167665 -0.32422587
-0.11061527 -0.031891156 0.28412473 -0.1854704 0.15970874 0.28876793 -0.40181467 -0.106279604
00000000: 1dad 29be ea4f 803d 1b74 0abd bd43 02bd
00000010: 7d5d 0b3e d5f6 943e 6de4 6a3c 81eb dd3d
00000020: 0a9a 923e 07de e73e 706a 353d 366f 5a3e
00000030: 9b4f b03e fd4e 5bbe b688 893e add9 f8be
00000040: d45c de3e 443b c13e de4e e4bd 6ab4 843e
00000050: 6b8d 623d 9563 84be 5cbe 2dbe 070e d63e
00000060: 5560 cb3e fef4 9dbc fe8f f73d 6d3a 843e
00000070: 2234 2c3e 08b1 73be 7536 9bbe 0135 55be
00000080: 0c3e d6be 99d6 93bd 7c2d 9d3d 8496 363d
00000090: efc0 8cbe 78bf 2dbe a4af 493e 6d98 acbd
000000a0: ce50 d5be 5cd4 323e c78f d83e 6aa9 fe3d
000000b0: 45c2 01be d27a 073c cb0d f2bb a679 803e
000000c0: 0198 b73e 125f c4bd 2703 c2be 57c5 b73d
000000d0: fe51 5cbe 95e4 bdbd d050 0b3f a01e 0a3e
000000e0: a3ce 00be 1b2d cbbd 4993 8ebe d67e 24bd
000000f0: 0107 3fbe 0126 c33d 2ca3 98bd 06a1 fcbd
00000100: 7071 ce3c 31c8 203e d4a7 8bbe b683 73bd
00000110: 2dc7 11be 267e bbbe 39eb 99bd 84f0 d1be
00000120: 5438 18bf 04e7 31bf 98f8 71be 8a9e 96be
00000130: 541f 35bf d769 043e 202f 31bf b293 473f
00000140: 289f 5bbf f22f bbbe 4dff 97be 9e23 94be
00000150: 23d6 253d 6033 f53e a17b 393e 2632 6fbe
00000160: 87c2 f1be 3243 a13e f7af 49be a113 ccbe
00000170: 1d78 d2be 5e4a 393d d953 893e e03a afbe
00000180: 891d ea3e d610 903e f46a 24be c95b c5be
00000190: cd60 923e 1fe2 063e f72d a3be 4126 403e
000001a0: c400 633f 23fc 24be b12b 21bf 18d6 a0be
000001b0: 4cea e6bc 7081 ad3d c8ad d63e e226 abbd
000001c0: 5b7e 93be 6abc 4ebd e488 bc3e 83b0 64be
000001d0: 8322 aa3e 6aa1 9f3e 36b1 6abf ef00 a6be
000001e0: 428a e2bd 4da0 02bd cc78 913e f4eb 3dbe
000001f0: b08a 233e 64d9 933e a7ba cdbe 1fa9 d9bd

embedding.atom_embedding_list.8.weight f4 [2, 64]
-0.18752545 0.16279541 -0.38941097 -0.03911764 -0.08639742 0.16749671 0.08591113 0.06423652
-0.5468116 -0.0039303405 -0.27889165 0.09493015 -0.20508422 0.29764593 -0.120490976 -0.0012344227
0.15902914 -0.21051453 -0.06261825 -0.40194467 0.14054568 -0.006338289 0.28619018 0.16362141
0.25755197 -0.28855062 -0.17712614 0.020493492 -0.14854024 0.34616697 0.057745587 0.15825403
0.038412042 0.15029922 0.15020883 0.13904564 0.068173945 0.25205135 0.07414843 -0.29776677
0.41151568 0.13467668 0.0029096273 -0.26074064 0.19621472 0.32827574 0.052078336 -0.12701324
-0.16539441 -0.1432809 -0.36196053 -0.3937473 0.49533102 -0.29148635 0.19224644 -0.13000639
0.49698576 0.0033824905 -0.17637391 0.33883053 0.25864208 0.35335618 0.19245782 -0.36458704
0.077914715 -0.18898512 0.26562506 -0.008052401 0.07020878 0.09474957 -0.42181686 -0.33487532
0.60081655 0.0043518315 0.25767744 0.06767051 0.14932136 -0.24618204 0.37644982 0.195026
0.02872096 0.31338823 0.17616907 0.76013666 0.015828192 -0.19652596 -0.2779715 -0.22938225
-0.257861 0.3726473 0.1213381 0.27455735 0.3859707 -0.4940946 0.07488046 -0.18916905
-0.07787609 -0.46027932 -0.07213419 -0.40852168 -0.47970882 -0.10123825 -0.1039228 0.3052313
-0.59815145 -0.10385919 -0.23263748 0.14853765 -0.26003164 -0.04697242 -0.14952284 0.12696
0.18672188 0.0693481 0.39337727 0.36373386 -0.46644267 0.37241593 -0.095433585 0.05853133
-0.14279176 -0.32579908 -0.14523268 -0.47667924 -0.3260668 -0.20603256 0.073661536 0.36373386
00000000: ac06 40be d7b3 263e e060 c7be d239 20bd
00000010: 21f1 b0bd 4284 2b3e 2df2 af3d 708e 833d
00000020: d8fb 0bbf 16ca 80bb e3ca 8ebe bd6a c23d
00000030: 9901 52be 0c65 983e f9c3 f6bd 5acc a1ba
00000040: 89d8 223e 1f91 57be ff3d 80bd b1cb cdbe
00000050: 35eb 0f3e 6cb1 cfbb 8587 923e 5f8c 273e
00000060: dadd 833e e8bc 93be 8e60 35be f8e1 a73c
00000070: ef1a 18be cc3c b13e a386 6c3d 580d 223e
00000080: f255 1d3d 0ae8 193e 58d0 193e fb61 0e3e
00000090: c89e 8b3d e00c 813e 22db 973d e374 98be
000000a0: 2fb2 d23e afe8 093e 72af 3e3b cc7f 85be
000000b0: 83ec 483e c213 a83e 1850 553d c20f 02be
000000c0: 275d 29be 3ab8 12be e452 b9be 3f99 c9be
000000d0: 079c fd3e b33d 95be 40dc 443e 6520 05be
000000e0: eb74 fe3e c6ac 5d3b 5d9b 34be 327b ad3e
000000f0: bc6c 843e 1aeb b43e aa13 453e 27ab babe
00000100: c091 9f3d 5185 41be 0200 883e 38ee 03bc
00000110: 9fc9 8f3d 100c c23d 61f8 d7be c774 abbe
00000120: 1dcf 193f cf99 8e3b 4cee 833e d696 8a3d
00000130: b3e7 183e 2517 7cbe 08be c03e e5b4 473e
00000140: 3848 eb3c 6c74 a03e aa65 343e 5198 423f
00000150: 20aa 813c 1a3e 49be 4852 8ebe 2ee3 6abe
00000160: 5b06 84be a0cb be3e 1c80 f83d c892 8c3e
00000170: f49d c53e f8f9 fcbe ed5a 993d 88b5 41be
00000180: 807d 9fbd bba9 ebbe 17bb 93bd c129 d1be
00000190: 659c f5be 0056 cfbd 7ad5 d4bd 4747 9c3e
000001a0: 7420 19bf 21b4 d4bd 8538 6ebe 411a 183e
000001b0: de22 85be 2766 40bd 841c 19be cd01 023e
000001c0: 0534 3f3e 6006 8e3d bf68 c93e 533b ba3e
000001d0: 93d1 eebe 4dad be3e af72 c3bd 8cbe 6f3d
000001e0: 0138 12be 23cf a6be e0b7 14be 4d0f f4be
000001f0: 3af2 a6be 33fa 52be dcdb 963d 533b ba3e
