visualizations/best_model_softmax.pth (torch, 101514 bytes, 16 tensors)

embedding.atom_embedding_list.0.weight f4 [119, 64]
0.021992793 0.02188422 0.02574953 0.021616915 0.002530609 -0.00025386887 -0.018492743 -0.0007147524
0.026440969 0.0019829422 -0.01235206 -0.0084508965 -0.0036714585 -0.00186646 1.3643723e-05 -0.023474947
0.019658042 -0.008532927 0.0069379276 0.0036499056 0.006461857 -0.021051273 0.024600673 -0.024670599
-0.008912716 -0.021097127 -0.018366737 0.013983739 0.02159885 -0.022504762 0.024344342 -0.012988315
-2.5680716e-05 0.023053477 0.021510515 0.0033048897 -0.02161856 0.020046016 -0.019088127 -0.017646655
-0.024592193 -0.0136860795 -0.021194156 0.020301694 0.00058349833 -0.024782714 -0.013031966 0.01207888
-0.017202923 -0.012784865 0.015389598 0.0053132554 -0.023842288 0.026850924 -0.018168505 -0.02629443
-0.024438497 -0.024732092 0.02392398 0.013018591 0.0163237 -0.01988881 -0.020995023 -0.00070740504
-5.12466e-40 -4.93267e-40 4.96106e-40 -4.913e-40 -4.9918e-40 -5.00998e-40 -4.96652e-40 -4.92718e-40
-5.17439e-40 5.01564e-40 4.94452e-40 5.01996e-40 -5.91492e-40 5.01791e-40 -4.97069e-40 -5.6968e-40
-5.13855e-40 4.9063e-40 4.99194e-40 5.05148e-40 -4.97373e-40 -4.9459e-40 -4.98984e-40 -6.06748e-40
-5.13203e-40 5.30258e-40 5.35646e-40 5.1335e-40 -4.9139e-40 -5.85419e-40 -5.18122e-40 -4.99934e-40
-4.94777e-40 -5.03192e-40 -5.14166e-40 5.07597e-40 -5.29929e-40 5.0783e-40 4.9556e-40 4.97573e-40
4.98593e-40 -5.75753e-40 -5.04919e-40 -5.1282e-40 -4.91517e-40 -4.97165e-40 -4.99703e-40 -5.05332e-40
-4.92139e-40 -5.10747e-40 -5.01015e-40 4.96054e-40 -4.94232e-40 5.06393e-40 5.24273e-40 -5.1255e-40
5.0059e-40 -5.18385e-40 -4.92698e-40 -5.31288e-40 5.09855e-40 4.9444e-40 -4.98352e-40 -5.08978e-40
-0.047461376 0.12785727 -0.38947806 0.019555178 0.25634623 -0.15506527 0.04089851 -0.113747
-0.15556812 -0.22733754 0.03173581 0.047161695 -0.023044182 -0.15813237 0.18022038 -0.22261134
-0.0029255587 -0.13219722 0.09309208 -0.20886087 -0.07921173 0.2915902 -0.38231677 0.46686792
-0.21444592 0.2969763 -0.17110945 -0.25245428 0.2032153 -0.1582699 -0.2504841 -0.35202965
-0.18761502 0.025366157 -0.028221723 0.0022062552 -0.029058313 0.09963203 0.17144042 -0.088017836
-0.09908486 -0.059963092 -0.2619688 0.028126331 0.28277215 0.37434033 -0.14161049 -0.00691542
-0.10664456 -0.08316724 -0.2916415 0.04314629 0.016949125 -0.045019884 0.045428943 0.09617795
0.32638872 -0.12552503 0.07472874 -0.016092682 -0.14088452 0.2677238 0.20947388 0.16107042
5.47347e-40 4.94698e-40 -4.91029e-40 4.91225e-40 4.93038e-40 -5.04086e-40 4.99874e-40 5.15518e-40
4.99113e-40 -4.97806e-40 -4.95969e-40 5.88806e-40 4.9544e-40 5.11428e-40 4.913e-40 -4.91096e-40
-5.07206e-40 5.01968e-40 4.9754e-40 4.90812e-40 4.95398e-40 -5.00862e-40 -4.99822e-40 -5.0013e-40
4.91746e-40 4.90488e-40 5.03693e-40 4.95592e-40 5.14551e-40 5.03386e-40 4.98646e-40 -4.92982e-40
4.95264e-40 4.97608e-40 5.15902e-40 -4.91937e-40 -4.92527e-40 -5.14376e-40 4.96226e-40 -4.95547e-40
4.95523e-40 -5.02762e-40 5.92085e-40 4.9769e-40 4.95789e-40 -5.04613e-40 4.95677e-40 -4.91297e-40
-4.90736e-40 -5.3563e-40 -5.37981e-40 -4.98773e-40 5.20016e-40 -4.90677e-40 4.95359e-40 -4.93383e-40
-5.79217e-40 5.06665e-40 5.0181e-40 4.92596e-40 -4.97207e-40 -5.00744e-40 -5.01015e-40 -4.97129e-40
00000000: 3b2a b43c 8946 b33c aef0 d23c f515 b13c
00000010: 93d8 253b b419 85b9 187e 97bc 395e 3bba
00000020: bb9a d83c 40f4 013b 4b60 4abc a175 0abc
00000030: da9c 70bb 01a4 f4ba 58e7 6437 884e c0bc
00000040: e709 a13c b1cd 0bbc 8e57 e33b 4133 6f3b
00000050: fcbd d33b b873 acbc 5a87 c93c ff19 cabc
00000060: a406 12bc e2d3 acbc d775 96bc 0d1c 653c
00000070: 12f0 b03c e85b b8bc c96d c73c f1cc 54bc
00000080: eb6c d7b7 a5da bc3c d236 b03c d996 583b
00000090: 6819 b1bc 8b37 a43c b45e 9cbc b88f 90bc
000000a0: 9175 c9bc 943b 60bc 5e9f adbc bd4f a63c
000000b0: e9f5 183a 1e05 cbbc 0784 55bc 7fe6 453c
000000c0: 25ed 8cbc 9c77 51bc a724 7c3c d11a ae3b
000000d0: e750 c3bc 78f6 db3c 1ed6 94bc 6b67 d7bc
000000e0: 3e33 c8bc f59a cabc 39fc c33c ee4b 553c
000000f0: 48b9 853c dced a2bc c1fd abbc 2671 39ba
00000100: 8c94 0580 075f 0580 f166 0500 8b59 0580
00000110: 836f 0580 9474 0580 7768 0580 7f5d 0580
00000120: 69a2 0580 2876 0500 5562 0500 5c77 0500
00000130: d770 0680 ca76 0500 a069 0580 0934 0680
00000140: 6b98 0580 ad57 0500 8d6f 0500 2680 0500
00000150: 796a 0580 b762 0580 f76e 0580 5e9b 0680
00000160: 9a96 0580 25c6 0500 2ad5 0500 0397 0500
00000170: cc59 0580 e95f 0680 50a4 0580 9d71 0580
00000180: 3d63 0580 b27a 0580 4999 0580 f986 0500
00000190: 3ac5 0580 a087 0500 6b65 0500 086b 0500
000001a0: e06d 0500 f744 0680 827f 0580 8995 0580
000001b0: 265a 0580 e569 0580 f870 0580 a980 0580
000001c0: e25b 0580 c18f 0580 a074 0580 cc66 0500
000001d0: b861 0580 9e83 0500 76b5 0500 c894 0580
000001e0: 7173 0500 0ca5 0580 715d 0580 04c9 0580
000001f0: 458d 0500 4c62 0500 346d 0580 d38a 0580
00000200: dc66 42bd 04ed 023e ab69 c7be 2e32 a03c
00000210: d03f 833e 6ec9 1ebe 3285 273d 30f4 e8bd
00000220: 404d 1fbe 2ccb 68be 69fd 013d 9f2c 413d
00000230: 27c7 bcbc 74ed 21be b18b 383e 3af4 63be
00000240: bbba 3fbb b55e 07be 0fa7 be3d a0df 55be
00000250: c239 a2bd 504b 953e 06bf c3be 5009 ef3e
00000260: b697 5bbe 470d 983e 5137 2fbe b041 81be
00000270: ac17 503e 8111 22be 743f 80be 3b3d b4be
00000280: 271e 40be b0cc cf3c 3e31 e7bc d296 103b
00000290: b30b eebc e10b cc3d 148e 2f3e b242 b4bd
000002a0: 01ed cabd dc9b 75bd c620 86be 3169 e63c
000002b0: 83c7 903e 89a9 bf3e 5702 11be bf9a e2bb
000002c0: 7768 dabd 9653 aabd 0952 95be 2aba 303d
000002d0: e4d8 8a3c c566 38bd b313 3a3d f2f8 c43d
000002e0: 6c1c a73e a289 00be 620b 993d cdd4 83bc
000002f0: 0844 10be 1813 893e 5280 563e a5ef 243e
00000300: c8f5 0500 0463 0500 ca58 0580 5659 0500
00000310: 645e 0500 307d 0580 7271 0500 0e9d 0500
00000320: 536f 0500 ae6b 0580 8f66 0580 5a69 0600
00000330: 1665 0500 a791 0500 8b59 0500 fa58 0580
00000340: e285 0580 4877 0500 f06a 0500 2f58 0500
00000350: f864 0500 3374 0580 4d71 0580 2972 0580
00000360: ca5a 0500 4857 0500 177c 0500 8265 0500
00000370: 5c9a 0500 3c7b 0500 066e 0500 3c5e 0580
00000380: 9864 0500 216b 0500 209e 0500 525b 0580
00000390: f75c 0580 df99 0580 4767 0500 6265 0580
000003a0: 5165 0500 7f79 0580 7e72 0600 5b6b 0500
000003b0: 0f66 0500 a87e 0580 bf65 0500 8959 0580
000003c0: f957 0580 1ed5 0580 acdb 0580 606e 0580
000003d0: 98a9 0500 cf57 0580 dc64 0500 5a5f 0580
000003e0: 9f4e 0680 6084 0500 d876 0500 285d 0500
000003f0: 036a 0580 df73 0580 a074 0580 cb69 0580

embedding.atom_embedding_list.1.weight f4 [5, 64]
0.022282027 0.19185399 0.05161402 0.20176068 0.10124702 0.024990771 0.17182852 0.049160715
-0.31712127 -0.14837626 0.12831235 0.0023763585 0.09266043 0.11907383 -0.020254457 0.09304703
0.020377276 0.0699414 0.18128495 -0.021727376 -0.06711416 -0.15769315 -0.15756045 -0.092289604
0.14032525 -0.089919835 -0.042741958 0.08520641 -0.04513888 0.046662576 0.06559297 0.21956883
0.05368814 0.05530001 0.104848385 -0.046367288 0.23801024 0.26340032 -0.13099928 -0.11240496
-0.13064727 0.10417837 -0.2223898 -0.03670104 0.08903614 0.113016434 -0.07830997 0.078631334
0.04449637 0.0033275057 -0.15833682 0.0684346 0.14723028 0.3272972 -0.041077748 0.23671247
0.20541896 0.05756058 -0.011372034 0.03619836 0.17207542 -0.16891313 -0.15684426 -0.015562762
-4.94957e-40 4.92328e-40 -5.00454e-40 -5.94686e-40 -4.97967e-40 -4.93673e-40 -4.97886e-40 -4.95331e-40
4.90977e-40 -4.95889e-40 -4.95676e-40 4.91475e-40 5.00987e-40 4.93457e-40 4.96788e-40 4.93366e-40
5.10838e-40 4.9745e-40 4.93286e-40 -4.98376e-40 -5.64493e-40 4.93783e-40 5.03754e-40 4.9735e-40
-5.00604e-40 4.9217e-40 4.9064e-40 4.9586e-40 5.01652e-40 4.97342e-40 4.97733e-40 -4.93477e-40
-4.9802e-40 4.93366e-40 -5.41516e-40 5.07221e-40 -5.68427e-40 4.93023e-40 4.94255e-40 4.91937e-40
-4.90763e-40 -5.02286e-40 -4.92608e-40 6.02497e-40 4.94939e-40 -4.9181e-40 -4.90478e-40 4.95831e-40
4.98162e-40 -4.91662e-40 5.1503e-40 4.92832e-40 -4.90464e-40 4.94329e-40 5.01457e-40 4.95781e-40
-4.96022e-40 5.0065e-40 4.94782e-40 4.965e-40 -4.9615e-40 -6.09776e-40 -4.97663e-40 4.99716e-40
-5.14494e-40 -5.31543e-40 -4.94532e-40 4.9966e-40 -4.94137e-40 -4.95632e-40 -4.90796e-40 -5.02274e-40
-5.10392e-40 -4.93897e-40 5.06173e-40 4.90746e-40 -5.60798e-40 -6.10955e-40 4.96851e-40 -5.07793e-40
4.96648e-40 -6.14457e-40 -4.96888e-40 -5.00869e-40 -5.01095e-40 -4.94043e-40 -4.9146e-40 5.03596e-40
4.93265e-40 4.90746e-40 -4.91716e-40 4.92743e-40 -4.96951e-40 6.2216e-40 4.92751e-40 4.93977e-40
4.96978e-40 -4.91976e-40 -4.93648e-40 -4.95377e-40 -5.0471e-40 4.93612e-40 -6.08423e-40 4.97496e-40
4.92884e-40 -4.91071e-40 4.97768e-40 -4.94078e-40 4.91043e-40 4.95855e-40 4.93418e-40 -4.95323e-40
4.9481e-40 4.98623e-40 4.93823e-40 -4.95341e-40 -5.18849e-40 4.93917e-40 4.95302e-40 4.9539e-40
4.93934e-40 6.11116e-40 -5.29328e-40 5.10635e-40 5.01902e-40 -4.93979e-40 -4.96104e-40 -4.91092e-40
-4.92227e-40 4.9153e-40 4.9775e-40 5.34127e-40 5.40834e-40 -4.91199e-40 -4.98033e-40 -4.93899e-40
-5.18217e-40 -4.98324e-40 5.157e-40 -4.94162e-40 -4.95942e-40 -4.93023e-40 4.98669e-40 5.49298e-40
-4.92949e-40 5.7757e-40 -4.98509e-40 4.92e-40 -4.94245e-40 -5.13664e-40 -4.90938e-40 -5.02789e-40
5.25467e-40 5.23602e-40 -4.94685e-40 -4.95436e-40 4.99099e-40 -4.93823e-40 -5.49975e-40 -5.9183e-40
4.92327e-40 -4.95446e-40 -4.91758e-40 4.95471e-40 4.94092e-40 -4.91765e-40 4.93456e-40 4.9218e-40
-4.9273e-40 -4.95587e-40 4.9375e-40 5.08649e-40 4.9665e-40 -5.25861e-40 5.02014e-40 4.96466e-40
-5.30246e-40 6.0109e-40 5.46212e-40 5.00371e-40 -5.03778e-40 -4.99267e-40 4.90546e-40 4.9791e-40
-5.10799e-40 -4.9907e-40 4.93722e-40 -4.94637e-40 4.98422e-40 4.96899e-40 -4.96704e-40 -5.27994e-40
00000000: cc88 b63c 5f75 443e 3969 533d 5a9a 4e3e
00000010: 995a cf3d 72b9 cc3c d1f3 2f3e bf5c 493d
00000020: b85d a2be f2ef 17be 5064 033e aebc 1b3b
00000030: c0c4 bd3d fbdc f33d adec a5bc 718f be3d
00000040: 3fee a63c 703d 8f3d c3a2 393e 9cfd b1bc
00000050: 2673 89bd 507a 21be 8757 21be 5502 bdbd
00000060: 6cb1 0f3e e427 b8bd 3112 2fbd b380 ae3d
00000070: 8ce3 38bd 4221 3f3d 9b55 863d a7d6 603e
00000080: 18e8 5b3d 4382 623d c0ba d63d a0eb 3dbd
00000090: f5b8 733e 68dc 863e ad24 06be 9234 e6bd
000000a0: 66c8 05be 785b d53d 27ba 63be d453 16bd
000000b0: 9458 b63d 2975 e73d fa60 a0bd 7709 a13d
000000c0: d341 363d 4812 5a3b 0c23 22be 7127 8c3d
000000d0: 89c3 163e 8093 a73e 2441 28bd c164 723e
000000e0: 5959 523e a5c4 6b3d c551 3abc bb44 143d
000000f0: 8a34 303e 90f7 2cbe c89b 20be f4fa 7ebc
00000100: bd63 0580 695c 0500 1073 0580 be79 0680
00000110: 216c 0580 2960 0580 e76b 0580 c864 0580
00000120: a558 0500 5666 0580 be65 0580 085a 0500
00000130: 8c74 0500 8f5f 0500 d868 0500 4e5f 0500
00000140: 0290 0500 b06a 0500 155f 0500 456d 0580
00000150: 9425 0680 7760 0500 437c 0500 696a 0500
00000160: 7b73 0580 f85b 0500 b457 0500 4266 0500
00000170: 6776 0500 636a 0500 7a6b 0500 9d5f 0580
00000180: 476c 0580 4e5f 0500 87e5 0580 ed85 0500
00000190: 8b30 0680 595e 0500 c861 0500 525b 0500
000001a0: 0c58 0580 2b78 0580 315d 0580 848f 0600
000001b0: b063 0500 f75a 0580 4157 0580 2d66 0500
000001c0: ac6c 0500 8e5a 0580 b29b 0500 d15d 0500
000001d0: 3757 0580 fd61 0500 dc75 0500 0966 0500
000001e0: b566 0580 9c73 0500 4063 0500 0a68 0500
000001f0: 1067 0580 cfa3 0680 486b 0580 0171 0500
00000200: 339a 0580 bac9 0580 8e62 0580 d970 0500
00000210: 7461 0580 9f65 0580 2458 0580 2378 0580
00000220: c48e 0580 c960 0580 0183 0500 0058 0500
00000230: 471b 0680 18a7 0680 0569 0500 8587 0580
00000240: 7468 0500 dbb0 0680 1f69 0580 3874 0580
00000250: d974 0580 3161 0580 fe59 0580 d27b 0500
00000260: 065f 0500 0058 0500 b45a 0580 915d 0500
00000270: 4c69 0580 54c6 0600 975d 0500 0261 0500
00000280: 5f69 0500 6e5b 0580 1760 0580 e964 0580
00000290: ed7e 0580 fd5f 0500 09a0 0680 d16a 0500
000002a0: f65d 0500 e858 0580 936b 0500 4a61 0580
000002b0: d458 0500 3e66 0500 735f 0500 c264 0580
000002c0: 5463 0500 f56d 0500 9460 0500 cf64 0580
000002d0: 57a6 0580 d760 0500 b364 0500 f264 0500
000002e0: e360 0500 8ba7 0600 8dc3 0580 718f 0500
000002f0: 1977 0500 0361 0580 f066 0580 f758 0580
00000300: 215c 0580 305a 0500 866b 0500 eed0 0500
00000310: a0e3 0500 4359 0580 506c 0580 ca60 0580
00000320: 94a4 0580 206d 0580 909d 0500 8661 0580
00000330: 7c66 0580 595e 0580 166e 0500 38fb 0500
00000340: 245e 0580 084a 0600 a46d 0580 7f5b 0500
00000350: c161 0580 e397 0580 8958 0580 9279 0580
00000360: cab8 0500 97b3 0500 fb62 0580 1365 0580
00000370: 496f 0500 9460 0580 1bfd 0580 c871 0680
00000380: 685c 0500 1a65 0580 d25a 0580 2c65 0500
00000390: 5461 0500 d75a 0580 8e5f 0500 ff5b 0500
000003a0: 885d 0580 7f65 0580 6060 0500 e889 0500
000003b0: 7568 0500 e3b9 0580 6977 0500 f267 0500
000003c0: 1cc6 0580 988b 0600 9ef2 0500 d572 0500
000003d0: 547c 0580 c16f 0580 7157 0500 f86b 0500
000003e0: e68f 0580 346f 0580 4c60 0500 d962 0580
000003f0: 666d 0500 2769 0500 9c68 0580 d5bf 0580

embedding.atom_embedding_list.2.weight f4 [12, 64]
-0.035495088 -0.113885485 -0.15025781 0.027411697 0.09817937 0.09098766 -0.40061066 0.09007409
-0.21396883 -0.21635929 -0.11900817 -0.14909744 -0.36963728 0.07071846 0.039126527 0.348773
-0.030681474 0.04201342 0.01805711 -0.14788628 -0.059523206 0.2678506 0.022431998 0.25030094
-0.030637389 -0.10483989 0.04194411 -0.26522067 0.036365412 0.16252424 -0.118482575 -0.049121335
-0.028649656 0.14522627 0.030360576 -0.03169484 0.24740694 -0.095266625 0.037326597 0.034259956
0.0017324209 -0.016899984 0.013055767 0.009048087 0.17653447 0.24858059 -0.012384768 0.017287092
0.020189397 0.19309305 0.041212477 -0.106377706 -0.10321415 0.03630144 -0.11931055 0.0069862385
0.1705274 0.13805185 0.05169297 -0.1386175 -0.0760351 0.061741497 0.09285378 -0.18562269
0.05464352 0.05237663 0.08398395 0.32192087 -0.21363619 -0.10098895 0.15452312 -0.1851316
-0.18286777 -0.20788278 -0.007388482 -0.06046509 -0.19361268 0.07848279 0.29144752 -0.12829049
0.13630714 -0.06382257 0.29092792 0.19716634 -0.104012534 0.109899394 0.24132834 -0.02369289
0.10582964 -0.10806034 0.1720509 -0.1139741 0.23950171 -0.16571093 0.29656446 -0.31739724
-0.15173906 0.36664605 0.25372845 0.08501127 -0.11224844 0.24668777 0.13711575 -0.10429334
-0.34753343 -0.029988442 -0.09589557 -0.027440455 0.111241356 -0.24221665 0.26795614 -0.24581884
-0.17505941 -0.17477052 0.08727515 0.18420564 -0.23399399 0.2227203 -0.4982907 -0.023066962
-0.07543403 -0.15794379 0.56810117 0.019206284 0.06965884 -0.16713549 -0.5357022 0.012031449
-0.15263805 -0.4917536 -0.41899902 -0.06241856 0.5221698 -0.055273026 -0.39121103 0.32197416
-0.057594817 -0.4741865 -0.32593235 -0.17608738 -0.45917448 -0.23984958 -0.11187348 0.18987758
0.018179635 -0.13928 -0.030339865 -0.38370252 0.016160341 0.43711773 -0.3258198 0.5088895
-0.19477284 0.030998651 -0.32750553 -0.53128767 0.26064834 0.07283074 -0.3912222 -0.18116808
-0.4619304 -0.0012287366 -0.018500233 -0.37798005 0.45355287 -0.2695292 0.111721255 -0.09424682
0.21644981 0.0505172 -0.021910204 0.17014502 0.29543155 0.49320757 -0.2809996 0.09142251
0.20220208 0.3468541 -0.14295077 -0.20459332 0.09062643 -0.0880265 -0.15160762 -0.19254105
0.40125898 0.021420948 0.0011282677 0.18727022 -0.09247992 0.25205448 0.45199245 -0.06178332
0.27090174 0.08661549 0.49503696 -0.062542304 -0.3370006 -0.28744408 0.56640923 -0.20440504
0.035850868 0.15220086 -0.08272668 0.03662375 0.35764605 0.045268927 -0.21939953 0.17025778
0.20285949 0.21328217 -0.41047412 0.5651185 0.06046415 -0.29512483 -0.054386687 -0.20135888
0.26817912 0.12700412 0.18293042 0.2817209 -0.31981024 -0.24968916 0.040812775 0.20421168
-0.039276823 0.12912232 -0.28159177 -0.14511517 -0.4950402 -0.00012830568 0.25428468 0.13736975
0.36533177 0.033440102 -0.08712909 -0.16045593 -0.14196084 -0.11917385 -0.11125377 -0.07396213
-0.09514146 -0.051216077 0.19964413 0.4078444 -0.044208117 -0.07777111 -0.05574323 -0.08749957
-0.34229532 0.28198737 0.29275808 0.19299154 0.48380485 -0.15740344 -0.27375662 -0.019373015
00000000: 4c63 11bd cb3c e9bd 2fdd 19be 7f8e e03c
00000010: 4412 c93d bd57 ba3d d71c cdbe c478 b83d
00000020: a51a 5bbe 4a8d 5dbe 8eba f3bd 00ad 18be
00000030: 1941 bdbe d7d4 903d 2343 203d 6092 b23e
00000040: b757 fbbc 4416 2c3d 81ec 933c 806f 17be
00000050: 9bce 73bd b723 893e 4fc3 b73c 7227 803e
00000060: 43fb fabc 4cb6 d6bd 96cd 2b3d 01cb 87be
00000070: e6f3 143d c16c 263e fea6 f2bd 7433 49bd
00000080: afb2 eabc 32b6 143e beb6 f83c 73d2 01bd
00000090: 3f58 7d3e 261b c3bd c6e3 183d 2b54 0c3d
000000a0: 6612 e33a d671 8abc dbe7 553c 6d3e 143c
000000b0: 74c5 343e e98b 7e3e 7be9 4abc a99d 8d3c
000000c0: 3c64 a53c 2fba 453e 6ace 283d 8edc d9bd
000000d0: f161 d3bd d2b0 143d 1759 f4bd d1ec e43b
000000e0: bc9e 2e3e 775d 0d3e 02bc 533d bff1 0dbe
000000f0: 4ab8 9bbd a7e4 7c3d 1f2a be3d e013 3ebe
00000100: e2d1 5f3d e188 563d c7ff ab3d d0d2 a43e
00000110: 72c3 5abe 4bd3 cebd 4f3b 1e3e 2393 3dbe
00000120: b041 3bbe 39df 54be 141b f2bb 3eaa 77bd
00000130: 6742 46be 96bb a03d 9c38 953e 955e 03be
00000140: 1994 0b3e 68b5 82bd 81f4 943e f9e5 493e
00000150: 8604 d5bd ef12 e13d c71e 773e 9717 c2bc
00000160: 36bd d83d bd4e ddbd 1c2e 303e 416b e9bd
00000170: f03f 753e 20b0 29be 4cd7 973e e481 a2be
00000180: 7c61 1bbe 08b9 bb3e b2e8 813e 641a ae3d
00000190: 83e2 e5bd b89b 7c3e 1268 0c3e bf97 d5bd
000001a0: e7ef b1be 52aa f5bc e664 c4bd ceca e0bc
000001b0: 82d2 e33d a407 78be 8c31 893e efb7 7bbe
000001c0: c642 33be 0bf7 32be 50bd b23d 67a0 3c3e
000001d0: 1f9c 6fbe ca10 643e f51f ffbe edf6 bcbc
000001e0: 287d 9abd 04bc 21be 146f 113f 7f56 9d3c
000001f0: 4ba9 8e3d 9125 2bbe c823 09bf 8e1f 453c
00000200: 264d 1cbe 21c7 fbbe 0a87 d6be 9baa 7fbd
00000210: ecac 053f f865 62bd d04c c8be ccd9 a43e
00000220: 8be8 6bbd 93c8 f2be 9be0 a6be 4050 34be
00000230: eb18 ebbe 219b 75be ec1d e5bd 456f 423e
00000240: 75ed 943c 6b9f 0ebe 4f8b f8bc a874 c4be
00000250: b162 843c e5cd df3e dad1 a6be 9546 023f
00000260: 8872 47be e2f0 fd3c ceae a7be 7802 08bf
00000270: b373 853e 4828 953d 474e c8be 2084 39be
00000280: 2482 ecbe 8f0d a1ba cd8d 97bc 9a86 c1be
00000290: 1538 e83e bbff 89be 1dce e43d 7a04 c1bd
000002a0: 05a5 5d3e 20eb 4e3d 077d b3bc 7f3a 2e3e
000002b0: ce42 973e b485 fc3e 2edf 8fbe ba3b bb3d
000002c0: 100e 4f3e dc96 b13e b061 12be e980 51be
000002d0: 5a9a b93d 3d47 b4bd 073f 1bbe 7b29 45be
000002e0: d171 cd3e fc7a af3c 62e2 933a c4c3 3f3e
000002f0: 1d66 bdbd 490d 813e 8e6b e73e 8210 7dbd
00000300: a2b3 8a3e 7663 b13d 7c75 fd3e 2e16 80bd
00000310: 588b acbe df2b 93be 3200 113f 8e4f 51be
00000320: 5cd8 123d 8bda 1b3e 9b6c a9bd c902 163d
00000330: 621d b73e e96b 393d 45aa 60be 0e58 2e3e
00000340: 66ba 4f3e a466 5a3e aa29 d2be 9bab 103f
00000350: 42a9 773d 9a1a 97be 93c4 5ebd 0631 4ebe
00000360: c64e 893e 5e0d 023e 1d52 3b3e b93d 903e
00000370: 2bbe a3be 84ae 7fbe 4c2b 273d de1c 513e
00000380: bce0 20bd a438 043e cc2c 90be 1299 14be
00000390: e975 fdbe cb89 06b9 9a31 823e a8aa 0c3e
000003a0: c40c bb3e 7df8 083d bd70 b2bd 8f4e 24be
000003b0: 2f5e 11be 6b11 f4bd 04d9 e3bd 7579 97bd
000003c0: 87d9 c2bd f3c7 51bd 836f 4c3e fbd0 d03e
000003d0: 9213 35bd 7646 9fbd 0353 64bd f932 b3bd
000003e0: 5541 afbe a660 903e 63e4 953e 939f 453e
000003f0: 45b5 f73e 5e2e 21be d429 8cbe 28b4 9ebc

embedding.atom_embedding_list.3.weight f4 [12, 64]
-0.00015027495 0.014708855 -0.00017712411 0.003207339 0.018703224 0.00018250916 0.008841958 -0.011519078
0.02449649 0.0118179275 -0.005519383 0.018023837 0.026932087 -0.018789321 0.014722395 -0.015888413
0.008801673 0.010974339 -0.0003878433 0.004493262 -0.0027190887 -0.0031554173 -0.020657767 -0.000372368
-0.007929976 0.022329975 -0.004353159 0.0049442104 0.009152479 -0.009383876 0.00016770375 -0.006804348
-0.0058618486 -0.0017682955 -0.00032962082 -0.00022349191 -0.010793764 -0.0031506466 0.012031029 0.011231286
-0.014470497 0.00027344326 -0.011793708 0.010663351 -0.0014155293 0.00024545396 -0.01943658 0.007056502
0.00857859 -0.015972557 -0.0054458515 0.012545448 -0.0139671955 -0.0031168065 0.023006186 0.011683687
-0.01102209 -0.002728543 -0.007752079 0.0008374232 -0.00598562 -0.0002553212 0.00060361094 0.0240637
-0.0128136445 0.21535508 0.07327449 0.00678906 0.033076912 -0.06738333 0.14206363 -0.0676445
0.3737341 0.22626811 0.027959444 0.099985465 0.3826748 -0.06540548 0.032436036 -0.20588414
0.12515315 0.09597389 -0.022936257 0.09218214 -0.01090706 -0.13037017 -0.093501166 -0.057989612
-0.002851467 0.117596455 -0.021392424 0.14096873 0.021123774 -0.08421147 0.07251228 0.00067391555
-0.014871258 -0.08026049 -0.0513402 0.08858652 -0.12245293 -0.041183803 0.09159104 0.063565165
-0.044977415 -0.04694956 -0.06972373 0.10640999 -0.042017344 -0.07096447 -0.14955837 0.072867185
-0.004035014 -0.09561079 -0.046659194 0.09759627 -0.060302082 -0.042452253 0.2943068 0.04405441
-0.15545662 -0.09969337 -0.026360894 0.009646709 -0.008562947 -0.029918224 -0.016191214 0.1133336
0.020745521 0.016225528 0.00050841784 0.013377725 0.04529324 -0.036000364 -0.007892459 -0.01964256
0.056952786 -0.006679124 -0.01397431 0.010846192 0.037444357 -0.036257744 0.030553386 -0.009277925
0.006504955 0.0044296663 -0.0047403136 -0.00036847015 -0.0061158836 0.01027924 -0.040155772 0.00055554026
-0.032889187 0.04910011 -0.02735155 -0.008812978 0.0401824 -0.04001539 -0.005071098 -0.03507466
-0.020364674 0.013915606 -0.0072251623 -0.031201141 -0.03272486 -0.008851602 0.01105326 0.02521913
-0.020670148 -0.018239824 -0.044107463 0.011853865 0.010116197 0.007712559 -0.045359842 0.009763879
-0.00786467 -0.022337792 -0.012074078 0.033005834 -0.039637085 0.0157192 0.01915458 -0.003980171
-0.008393074 -0.007250456 0.011872901 0.010165579 -0.0018898422 0.011498235 0.0049845027 0.059614304
0.0238674 -0.18816417 -0.10339901 -0.08034125 -0.06777433 -0.11728308 -0.06508979 0.06338763
-0.26012447 -0.16597639 0.019747652 -0.104295835 -0.20674987 0.078881435 -0.060471635 0.18542777
-0.13308701 -0.07193479 -0.10157331 -0.04666606 0.04350864 0.13637316 0.011733983 0.07749213
-0.0010029675 -0.02821201 0.025686264 -0.12679385 -0.009501169 0.021915868 -0.10521687 -0.020090038
-0.00170067 0.036829825 -0.077375695 -0.108274885 0.027818145 -0.041055627 -0.027890343 -0.0038454256
0.18610361 -0.0042097154 0.02960783 -0.1331546 0.0721226 0.13008599 0.076537155 -0.074533544
-0.07606164 0.08345949 0.0011694991 -0.00471716 0.043485697 -0.014041248 -0.16869298 -0.028227108
0.18049139 0.13860124 0.08422848 0.010242517 0.073573805 0.1112424 -0.007584584 -0.05228321
00000000: 2093 1db9 69fd 703c 64ba 39b9 3832 523b
00000010: 8137 993c ee5f 3f39 dcdd 103c 84ba 3cbc
00000020: ddac c83c fb9f 413c f1db b4bb baa6 933c
00000030: aea0 dc3c 10ec 99bc 3336 713c 6b28 82bc
00000040: e434 103c b7cd 333c 7257 cbb9 373c 933b
00000050: bd32 32bb 1ecb 4ebb 7a3a a9bc 633a c3b9
00000060: bbec 01bc 5aed b63c f2a4 8ebb 0b03 a23b
00000070: 47f4 153c d4be 19bc a2d9 2f39 02f7 debb
00000080: c014 c0bb 27c6 e7ba f5d0 acb9 2759 6ab9
00000090: 54d8 30bc 147b 4ebb cb1d 453c 6e03 383c
000000a0: aa15 6dbc ef5c 8f39 663a 41bc 56b5 2e3c
000000b0: 4889 b9ba 46b0 8039 7639 9fbc 3b3a e73b
000000c0: 378d 0c3c e1d8 82bc 1d73 b2bb 6c8b 4d3c
000000d0: aad6 64bc 5643 4cbb 7877 bc3c ef6c 3f3c
000000e0: ff95 34bc 5bd1 32bb 2705 febb 8586 5b3a
000000f0: 0523 c4bb a2dc 85b9 a53b 1e3a 3d21 c53c
00000100: 52f0 51bc 0b86 5c3e f010 963d c376 de3b
00000110: a87b 073d 4500 8abd 2179 113e 3389 8abd
00000120: 135a bf3e d4b2 673e 340b e53c 2ec5 cc3d
00000130: f4ed c33e 4ff3 85bd a6db 043d 4bd3 52be
00000140: 2628 003e f58d c43d d1e4 bbbc fdc9 bc3d
00000150: 86b3 32bc c27f 05be 8a7d bfbd 8486 6dbd
00000160: aedf 3abb 69d6 f03d 2a3f afbc 1b5a 103e
00000170: c40b ad3c 1077 acbd 5181 943d b5a9 303a
00000180: 94a6 73bc 9d5f a4bd 1a4a 52bd d96c b53d
00000190: 9ac8 fabd 59b0 28bd 1594 bb3d 742e 823d
000001a0: 3d3a 38bd 2f4e 40bd 51cb 8ebd 7bed d93d
000001b0: 611a 2cbd d255 91bd d425 19be 643b 953d
000001c0: 2738 84bb 97cf c3bd b61d 3fbd 8ee0 c73d
000001d0: 51ff 76bd 6ae2 2dbd 62af 963e 6672 343d
000001e0: 0530 1fbe 0a2c ccbd cdf2 d7bc 3b0d 1e3c
000001f0: 9a4b 0cbc 1017 f5bc 70a3 84bc 721b e83d
00000200: 83f2 a93c 66eb 843c 5847 053a 3f2e 5b3c
00000210: 6885 393d 1e75 13bd 5f4f 01bc 6fe9 a0bc
00000220: 5347 693d 8edc dabb 81f4 64bc 3ab4 313c
00000230: 415f 193d 0083 14bd 184b fa3c 7002 18bc
00000240: 8427 d53b bc26 913b a254 9bbb 3a2f c1b9
00000250: c067 c8bb 426a 283c 617a 24bd ada1 113a
00000260: d0b6 06bd 321d 493d 5c10 e0bc 4f64 10bc
00000270: 4d96 243d 2de7 23bd 742b a6bb 72aa 0fbd
00000280: d1d3 a6bc 48fe 633c 0ec1 ecbb 8999 ffbc
00000290: 810a 06bd 4f06 11bc bc18 353c 5998 ce3c
000002a0: 7154 a9bc af6b 95bc 07aa 34bd b736 423c
000002b0: 68be 253c a2b9 fc3b 3ecb 39bd adf8 1f3c
000002c0: d1da 00bc bffd b6bc 5bd2 45bc 2031 073d
000002d0: 7f5a 22bd 8dc5 803c 11ea 9c3c 186c 82bb
000002e0: 1b83 09bc 3c95 edbb 8e86 423c 878d 263c
000002f0: 95b4 f7ba 1863 3c3c 0a55 a33b 212e 743d
00000300: 9185 c33c 1cae 40be dcc2 d3bd f489 a4bd
00000310: 45cd 8abd 1d32 f0bd cc4d 85bd 60d1 813d
00000320: 092f 85be b7f5 29be d4c5 a13c 0e99 d5bd
00000330: 3db6 53be 978c a13d 1bb1 77bd c7e0 3d3e
00000340: f647 08be 8c52 93bd ab05 d0bd e924 3fbd
00000350: 1e36 323d 68a5 0b3e e43f 403c 32b4 9e3d
00000360: 0176 83ba e01c e7bc 006c d23c 3fd6 01be
00000370: cbaa 1bbc e888 b33c f17b d7bd dd93 a4bc
00000380: 04e9 deba dfda 163d 2677 9ebd 39bf ddbd
00000390: e1e2 e33c f229 28bd 4a7a e4bc 8903 7cbb
000003a0: f291 3e3e a7f1 89bb 1f8c f23c ae59 08be
000003b0: 04b5 933d 4335 053e 83bf 9c3d 0ba5 98bd
000003c0: 35c6 9bbd cfec aa3d e149 993a 6892 9abb
000003d0: 0f1e 323d 430d 66bc dabd 2cbe 893c e7bc
000003e0: bcd2 383e 7ced 0d3e fb7f ac3d 3bd0 273c
000003f0: ddad 963d 0ed3 e33d 1a88 f8bb eb26 56bd

embedding.atom_embedding_list.4.weight f4 [10, 64]
0.18478863 0.30586123 0.19127837 -0.12788704 -0.10222627 -0.5475855 0.597232 -0.47532958
-0.04062208 -0.2150989 0.38550574 -0.04327219 0.1828842 -0.16556655 0.3359862 -0.20254162
-0.23182967 -0.10250512 -0.082790375 0.16870174 -0.13743924 0.076353356 -0.04348042 0.09512406
-0.39946845 0.5279317 0.0027316895 -0.24089642 -0.038876593 -0.5714988 0.083319366 -0.14712946
0.2225961 0.07407191 -0.377448 -0.012305682 -0.35062888 0.21247672 0.06867196 0.27882206
-0.14627892 -0.21012206 -0.46404475 -0.40776286 -0.271619 -0.25570872 0.26891688 -0.28615925
-0.4205704 -0.13050054 -0.10238218 0.5099273 -0.24446571 0.106199406 -0.09823978 0.36708996
-0.21321727 0.22476383 0.63397574 -0.16476834 -0.005976832 0.11834917 -0.35511896 0.4519621
-0.4448355 -0.35776967 -0.00082775217 -0.24323604 -0.3572435 0.3922572 -0.44173124 0.7310082
0.34959033 0.41790968 -0.2787745 0.015651729 -0.050332107 0.37785777 -0.39276817 -0.44143164
0.34205085 0.14994313 -0.3826117 -0.03224183 0.12997127 0.014625664 -0.116630815 -0.016939426
0.24207194 -0.42633644 -0.09799324 0.20870318 0.4173764 0.4319167 -0.017703759 0.068421304
-0.3776144 -0.21469381 0.4034414 0.4591273 0.2888746 -0.47214195 0.016376311 -0.37416205
0.16131149 0.24202292 0.31601542 0.55506086 0.1257858 -0.15006332 -0.51286596 0.11887968
-0.0018461604 -0.19117181 -0.30380702 -0.28988382 -0.16683935 0.10767274 0.37878668 -0.56881
0.05960786 -0.19856119 -0.25646242 0.53171295 0.052845947 0.28208593 0.29407033 -0.6581931
0.63286024 0.3538262 0.34397954 0.11803621 0.1881665 -0.30137742 -0.039226007 -0.34824207
0.30153388 -0.15863355 -0.20504712 -0.2628816 0.10363761 -0.22044776 0.27779004 0.55922997
-0.09643033 -0.28389698 -0.18572538 0.09564768 0.018163165 0.010522586 0.12299909 -0.024358524
-0.4605585 0.06897298 -0.057346236 0.10333984 -0.17446244 -0.38313496 -0.030427327 -0.46413317
0.2247731 0.4466622 -0.11437561 -0.64544183 -0.056638714 0.3708411 0.021904895 0.1099571
-0.3471766 -0.65641683 -0.5770211 -0.45621857 0.30114847 -0.21133694 0.08267501 -0.07450986
-0.41294077 -0.11937685 0.25133908 0.11027992 -0.53599066 0.31241256 -0.061929155 -0.12183022
-0.19033964 0.023242919 0.25421444 -0.044722244 0.08339132 -0.13696527 -0.35190263 0.22741209
-0.21126676 -0.32109857 -0.45788142 0.023732934 0.34613445 0.4040196 -0.50270915 -0.2642085
-0.31065777 -0.48204342 0.21489215 -0.11658196 -0.22402474 -0.16362068 0.26367736 0.46266377
-0.6771473 0.053374384 0.45719168 -0.55794287 -0.27520257 0.55112076 -0.19718221 0.22806762
-0.051773448 0.08771047 0.089411005 -0.4679213 -0.49037653 0.44264382 -0.28017247 0.38025546
0.24014467 -0.12828872 -0.17567304 -0.24975221 0.87521714 0.20614474 -0.20501554 0.10772995
-0.19128582 -0.04375716 0.28960985 -0.52642673 -0.30924678 0.0029557238 0.45484442 -0.4037498
0.2817532 0.5484605 0.22087976 -0.3970395 0.39257893 -0.3012175 -0.23345368 0.2585341
0.04558453 0.29483125 -0.4870145 -0.71392083 -0.5423367 0.08115328 0.40263352 -0.030077398
00000000: 3b39 3d3e d899 9c3e 7ade 433e d2f4 02be
00000010: 025c d1bd 902e 0cbf 32e4 183f 665e f3be
00000020: 5763 26bd e342 5cbe 0261 c53e 2e3e 31bd
00000030: ff45 3b3e 478a 29be 6206 ac3e 1267 4fbe
00000040: c264 6dbe 34ee d1bd 008e a9bd 26c0 2c3e
00000050: dfbc 0cbe 265f 9c3d 8618 32bd 67d0 c23d
00000060: 2187 ccbe 8826 073f 2506 333b 8dad 76be
00000070: 103d 1fbd bf4d 12bf 58a3 aa3d 1ba9 16be
00000080: 3bf0 633e 03b3 973d dd40 c1be c59d 49bc
00000090: a185 b3be 7f93 593e e2a3 8c3d c4c1 8e3e
000000a0: 24ca 15be 3d2a 57be 4697 edbe 4bc6 d0be
000000b0: a511 8bbe 41ec 82be 79af 893e 7783 92be
000000c0: 0155 d7be efa1 05be c0ad d1bd 988a 023f
000000d0: 3855 7abe 137f d93d f031 c9bd 37f3 bb3e
000000e0: a155 5abe 7d28 663e 3c4c 223f 08b9 28be
000000f0: 4dd9 c3bb 0d61 f23d 27d2 b5be 9467 e73e
00000100: 7bc1 e3be 962d b7be 82fd 58ba de12 79be
00000110: 9fe8 b6be f0d5 c83e 992a e2be 5a23 3b3f
00000120: 81fd b23e 42f8 d53e 88bb 8ebe 0e38 803c
00000130: 0a29 4ebd 9376 c13e e918 c9be 5403 e2be
00000140: 4a21 af3e b18a 193e aee5 c3be 0210 04bd
00000150: 3017 053e 7ba0 6f3c 23dc eebd 8dc4 8abc
00000160: b5e1 773e c548 dabe aeb0 c8bd 49b6 553e
00000170: 5cb2 d53e 3024 dd3e 7907 91bc 7820 8c3d
00000180: ad56 c1be b2d8 5bbe df8f ce3e bc12 eb3e
00000190: 5fe7 933e 97bc f1be 9d27 863c 2b92 bfbe
000001a0: d72e 253e dbd4 773e c6cc a13e 7818 0e3f
000001b0: fecd 003e 33aa 19be 2f4b 03bf 3177 f33d
000001c0: ddfa f1ba 8bc2 43be 988c 9bbe a76b 94be
000001d0: efd7 2abe 8783 dc3d 54f0 c13e 889d 11bf
000001e0: 5f27 743d a053 4bbe 0b4f 83be 571e 083f
000001f0: fe74 583d 916d 903e 6390 963e 587f 28bf
00000200: 2103 223f b528 b53e 161e b03e f8bc f13d
00000210: b8ae 403e 244e 9abe 73ab 20bd c94c b2be
00000220: a662 9a3e d570 22be dff7 51be 6b98 86be
00000230: f53f d43d 0fbd 61be 7f3a 8e3e b229 0f3f
00000240: 447d c5bd f25a 91be cb2e 3ebe eee2 c33d
00000250: ebca 943c ed66 2c3c f2e6 fb3d 878b c7bc
00000260: 53ce ebbe b541 8d3d e3e3 6abd d7a3 d33d
00000270: 48a6 32be 442a c4be bb42 f9bc dda2 edbe
00000280: eb2a 663e e8b0 e43e c33d eabd ad3b 25bf
00000290: fffd 67bd e2de bd3e e571 b33c 3031 e13d
000002a0: 22c1 b1be ef0a 28bf a8b7 13bf 7b95 e9be
000002b0: 2230 9a3e b668 58be 8451 a93d a098 98bd
000002c0: f96c d3be da7b f4bd 84af 803e 70da e13d
000002d0: af36 09bf 8af4 9f3e 6da9 7dbd 1f82 f9bd
000002e0: 65e8 42be ef67 be3c 6528 823e ac2e 37bd
000002f0: 12c9 aa3d a040 0cbe 952c b4be b7de 683e
00000300: 5056 58be 0867 a4be 6f6f eabe 926b c23c
00000310: 8938 b13e a8db ce3e 8cb1 00bf 5646 87be
00000320: 890e 9fbe 65ce f6be b00c 5c3e 86c2 eebd
00000330: be66 65be 2e8c 27be b800 873e 44e2 ec3e
00000340: 8759 2dbf 199f 5a3d 0715 ea3e 58d5 0ebf
00000350: 5ae7 8cbe 4016 0d3f 22ea 49be 8f8a 693e
00000360: 6510 54bd 8ca1 b33d 1e1d b73d 6193 efbe
00000370: a212 fbbe 36a2 e23e c472 8fbe d8b0 c23e
00000380: 7ce8 753e 1e5e 03be a2e3 33be 0bbf 7fbe
00000390: 3b0e 603f 9b17 533e 98ef 51be 85a1 dc3d
000003a0: 6ee0 43be b53a 33bd be47 943e e7c3 06bf
000003b0: 9855 9ebe d1b4 413b 5ee1 e83e 4bb8 cebe
000003c0: f541 903e e867 0c3f 4e2e 623e c348 cbbe
000003d0: 1b00 c93e 2e39 9abe 7b0e 6fbe 955e 843e
000003e0: d8b6 3a3d 1ff4 963e f759 f9be 84c3 36bf
000003f0: 94d6 0abf b133 a63d fb25 ce3e e064 f6bc

embedding.atom_embedding_list.5.weight f4 [6, 64]
0.16177294 -0.2044804 0.019697903 0.19809777 0.099160686 -0.019196559 -0.18987308 0.009512006
0.17683212 -0.1267793 0.2166814 0.051986832 0.08376382 -0.07504261 -0.05755771 -0.046757385
-0.21572801 -0.22140825 0.1223253 -0.14119507 -0.20669344 0.15530461 0.19510819 0.20825338
-0.26672804 -0.15355581 -0.048429266 -0.069089025 -0.23585457 0.06723178 0.072636314 -0.1587721
0.21633385 0.008626403 0.20093034 0.24586284 -0.1302625 0.26291507 0.09910636 -0.15206447
-0.2828758 -0.2358749 0.21049905 0.12662894 0.13173306 0.20017004 -0.0033154923 -0.012552896
-0.15380923 0.020425316 0.14337133 -0.12281256 0.055323154 0.10040806 -0.355805 -0.10153734
-0.07464803 0.025012355 0.1777282 -0.24299611 -0.19745462 -0.09598247 0.04430798 0.15938725
4.90745e-40 4.91525e-40 4.9626e-40 4.96868e-40 4.94486e-40 -4.99061e-40 4.92681e-40 5.15292e-40
-4.97087e-40 -4.97597e-40 5.7661e-40 4.98857e-40 -4.94693e-40 -4.90726e-40 4.95562e-40 -4.9167e-40
4.96793e-40 4.91357e-40 4.92346e-40 4.95683e-40 4.93145e-40 4.94808e-40 -4.93166e-40 6.24616e-40
5.41271e-40 -5.05275e-40 4.98338e-40 -4.98164e-40 5.05118e-40 4.98226e-40 4.94685e-40 -5.15906e-40
-4.96428e-40 5.09159e-40 -4.95288e-40 -4.98644e-40 -5.05521e-40 4.93127e-40 -5.21499e-40 -4.94813e-40
4.95943e-40 4.96772e-40 4.95188e-40 4.97004e-40 -4.99312e-40 4.91654e-40 4.96187e-40 4.95177e-40
4.93125e-40 -5.85084e-40 4.90844e-40 5.04794e-40 4.94325e-40 4.98508e-40 4.95943e-40 -4.98183e-40
-5.02119e-40 4.93516e-40 4.9615e-40 -5.22275e-40 -4.95533e-40 -5.28916e-40 5.42039e-40 4.97034e-40
0.019098295 -0.038834028 0.01116531 -0.0032741264 0.016153505 -0.046673685 -0.020209458 0.0072922325
-0.018454215 -0.03997772 -0.018707354 -0.012211903 -0.003444817 0.001686069 -0.032386083 0.03386713
0.018937478 0.001507054 -0.0391664 0.022428108 0.010224023 0.0017553717 -0.04452672 0.058617085
-0.018296568 0.020444872 -0.034706946 -0.023430064 0.02924886 -0.039930087 -0.05029921 -0.03497305
-0.033325266 0.018982038 -0.010464718 -0.058518782 -0.049526934 -0.008690948 0.02151872 0.008959931
0.01918976 -0.02269314 -0.033318695 0.00031400143 0.021196976 0.060211763 -0.021658527 -0.013378947
-0.036968887 -0.00023947089 0.0042841556 0.049682498 -0.044370435 0.017363776 -0.017125389 -0.01933648
0.028153386 0.053601123 0.02866789 0.01874648 0.0401194 0.05067928 -0.014904439 0.026973192
4.93537e-40 4.92519e-40 -4.96357e-40 -4.9267e-40 4.97553e-40 4.99189e-40 4.91249e-40 4.95764e-40
4.98712e-40 4.92322e-40 4.9273e-40 4.92252e-40 -4.95499e-40 -4.93219e-40 -4.96358e-40 -4.93648e-40
-5.10806e-40 4.99581e-40 4.95016e-40 -5.00967e-40 -4.92615e-40 5.27065e-40 4.9435e-40 -4.97394e-40
-4.93362e-40 4.9378e-40 -6.07164e-40 5.00269e-40 4.99693e-40 -4.9328e-40 -4.90732e-40 4.9253e-40
-4.96941e-40 4.9573e-40 -4.9149e-40 -4.94496e-40 4.92251e-40 -5.08451e-40 -4.97226e-40 5.07533e-40
-4.97886e-40 -4.90473e-40 5.18489e-40 4.99318e-40 -4.97248e-40 5.11551e-40 -4.91584e-40 -6.26722e-40
4.91707e-40 -4.96989e-40 4.93174e-40 -4.93513e-40 5.06341e-40 4.97077e-40 -5.01268e-40 4.92544e-40
4.96155e-40 -4.91072e-40 4.98131e-40 -4.90827e-40 4.96322e-40 -4.92636e-40 -5.36985e-40 -4.97944e-40
00000000: cea7 253e 4f63 51be 7f5d a13c 24da 4a3e
00000010: c214 cb3d 1a42 9dbc 176e 42be 3fd8 1b3c
00000020: 7b13 353e 6fd2 01be bbe1 5d3e 25f0 543d
00000030: 5e8c ab3d f1af 99bd a2c1 6bbd ac84 3fbd
00000040: cee7 5cbe d8b8 62be b085 fa3d 7195 10be
00000050: 72a7 53be 2c08 1f3e 71ca 473e 6040 553e
00000060: 9490 88be bc3d 1dbe c45d 46bd 8c7e 8dbd
00000070: dc83 71be d1b0 893d 59c2 943d 2795 22be
00000080: 9f86 5d3e c255 0d3c afc0 4d3e 78c3 7b3e
00000090: 8863 05be ce9c 863e 46f8 ca3d cab6 1bbe
000000a0: 19d5 90be 3189 71be 108d 573e 04ab 013e
000000b0: 08e5 063e 60f9 4c3e bb48 59bb a9aa 4dbc
000000c0: 2b80 1dbe fe52 a73c efcf 123e 2785 fbbd
000000d0: 889a 623d bea2 cd3d 132c b6be cff2 cfbd
000000e0: 11e1 98bd b6e6 cc3c 62fe 353e f9d3 78be
000000f0: 8b31 4abe 7592 c4bd 497c 353d 6936 233e
00000100: ff57 0500 2c5a 0500 5f67 0500 1169 0500
00000110: 6d62 0500 2e6f 0580 655d 0500 6d9c 0500
00000120: ad69 0580 196b 0580 5b47 0600 9c6e 0500
00000130: 0163 0580 f257 0580 6d65 0500 935a 0580
00000140: db68 0500 b459 0500 765c 0500 c365 0500
00000150: b05e 0500 5363 0500 bf5e 0580 2dcd 0600
00000160: d8e4 0500 8080 0580 2a6d 0500 ae6c 0580
00000170: 1080 0500 da6c 0500 fb62 0500 239e 0580
00000180: d767 0580 548b 0500 a964 0580 046e 0580
00000190: 3081 0580 a35e 0500 baad 0580 5663 0580
000001a0: 7d66 0500 cc68 0500 6264 0500 7269 0500
000001b0: e16f 0580 885a 0500 2b67 0500 5a64 0500
000001c0: a25e 0500 fa5e 0680 4658 0500 297f 0500
000001d0: fa61 0500 a36d 0500 7d66 0500 bb6c 0580
000001e0: b477 0580 b95f 0500 1067 0500 e4af 0580
000001f0: 5865 0580 67c2 0580 fce6 0500 8769 0500
00000200: 0774 9c3c 6e10 1fbd b4ee 363c ba92 56bb
00000210: 5b54 843c e82c 3fbd 4e8e a5bc aef3 ee3b
00000220: 4b2d 97bc adbf 23bd 2a40 99bc 6f14 48bc
00000230: 70c2 61bb 16ff dc3a 45a7 04bd 42b8 0a3d
00000240: c522 9b3c 5788 c53a f26c 20bd 27bb b73c
00000250: a982 273c 8014 e63a a661 36bd 7818 703d
00000260: afe2 95bc 017c a73c df28 0ebd 68f0 bfbc
00000270: 4e9b ef3c bb8d 23bd 8b06 4ebd e73f 0fbd
00000280: 1380 08bd 3880 9b3c 3574 2bbc 64b1 6fbd
00000290: c1dc 4abd 7a64 0ebc 0748 b03c adcc 123c
000002a0: d833 9d3c f7e6 b9bc 2f79 08bd 8fa0 a439
000002b0: 48a5 ad3c 9ca0 763d 396d b1bc 5f33 5bbc
000002c0: b06c 17bd 7a1a 7bb9 1a62 8c3b e07f 4b3d
000002d0: c6bd 35bd 7a3e 8e3c 8b4a 8cbc 8a67 9ebc
000002e0: eea1 e63c da8c 5b3d ecd8 ea3c 3892 993c
000002f0: 3d54 243d 1495 4f3d c031 74bc e2f6 dc3c
00000300: c85f 0500 f15c 0500 a467 0580 5d5d 0580
00000310: fa6a 0500 896f 0500 6759 0500 fd65 0500
00000320: 356e 0500 655c 0500 885d 0500 335c 0500
00000330: 4065 0580 e55e 0580 a567 0580 1760 0580
00000340: eb8f 0580 a170 0500 e763 0500 7e74 0580
00000350: 365d 0580 3ebd 0500 0c62 0500 886a 0580
00000360: 4b5f 0580 7560 0500 879c 0680 8c72 0500
00000370: f170 0500 105f 0580 f657 0580 f95c 0500
00000380: 4569 0580 e565 0500 135a 0580 7462 0580
00000390: 325c 0500 5b89 0580 106a 0580 cc86 0500
000003a0: e76b 0580 3d57 0580 56a5 0500 e56f 0500
000003b0: 206a 0580 ff91 0500 565a 0580 0cd3 0680
000003c0: ae5a 0500 6769 0580 c55e 0500 b75f 0580
000003d0: 7983 0500 a669 0500 5575 0580 035d 0500
000003e0: 1467 0500 e958 0580 966c 0500 3a58 0580
000003f0: 8b67 0500 455d 0580 e5d8 0580 116c 0580

embedding.atom_embedding_list.6.weight f4 [6, 64]
0.119520895 -0.20771667 0.09871176 0.11170826 0.2284148 0.20718442 -0.07920668 -0.08043594
0.12894532 -0.055636298 -0.18278685 0.1883447 0.15923995 -0.12954296 -0.19766343 0.015922727
0.11392968 0.17491631 0.03449485 -0.24020818 0.09027394 0.05989298 -0.18089227 -0.105375454
0.32429805 0.0537027 -0.16275173 -0.11571945 -0.15571526 0.18265332 -0.27556488 0.19602883
-0.06567119 -0.23034039 0.0012442387 -0.010644346 0.19490914 -0.17803195 -0.20893815 -0.08054762
0.15706074 0.21817577 0.1143127 0.07808829 -0.09427121 0.0060042157 -0.09622097 -0.1297834
0.4931334 0.20433275 0.13421826 -0.2002874 0.33018857 -0.07865001 0.42843768 0.15077063
0.10671916 0.10861711 -0.49983925 0.0166031 0.0027065973 0.11929814 0.4603722 -0.10227923
0.060440794 -0.395292 -0.11678074 0.01870816 0.10806263 -0.16552281 -0.07950296 0.11467636
-0.07070471 -0.018741634 -0.27744356 0.105830476 -0.32791963 0.04431671 -0.25201347 -0.19929636
0.11524319 -0.14702724 0.07368109 0.038338844 0.16375645 0.018097473 0.2152982 0.055377137
0.2856307 -0.29594657 0.090122156 -0.18837535 0.18320486 0.25658688 -0.24943046 -0.25106347
-0.18399283 0.055023324 0.13738579 -0.08440502 0.062776834 -0.1893986 -0.12626223 -0.10565374
0.13366821 0.26677215 0.35334688 0.123747624 0.12915069 0.018648628 0.054615404 -0.19183867
0.3167326 -0.08608162 0.14438394 -0.103475355 0.008924012 0.15361138 -0.17444125 -0.35519466
0.0438833 0.25522783 0.03671472 0.36518916 0.16305012 -0.0393803 -0.19909276 -0.24810795
-0.23880349 0.22020847 -0.06884956 -0.2258101 0.02110813 -0.23063183 0.1233171 0.04181404
0.13170293 0.22957505 0.1280829 -0.3821106 0.23909795 -0.15692641 -0.03367738 0.27472076
0.02681299 -0.09651615 0.25771257 0.023940073 -0.37499392 0.16037478 0.114006974 -0.1429621
0.046598095 0.06969018 0.070072055 0.063822545 0.08489821 0.10820477 -0.057939954 0.12142016
0.21448782 -0.09805991 -0.30979154 0.05383631 0.07313851 -0.14380367 -0.14827442 0.2729024
-0.0824469 -0.33440092 0.07507273 0.17711143 -0.13619754 -0.022853844 -0.14544821 0.1134845
0.0020231067 0.046953432 0.19802347 0.15420187 -0.31737748 -0.28463826 0.091655426 0.24359861
-0.2089545 -0.020320512 -0.22915049 -0.13339785 -0.13854504 -0.24757008 -0.19985607 -0.06373966
0.083399706 0.060824588 0.12919283 0.09594129 -0.089391485 -0.030958913 -0.05907563 -0.009152533
-0.030523734 -0.07431933 0.09543091 -0.1762008 -0.067754075 0.06254548 0.013195555 0.11841732
-0.052141767 -0.07691043 0.10314541 -0.11856793 -0.00049246673 0.030369801 0.1977218 -0.20005865
-0.012069688 -0.11728735 0.018715322 -0.025223002 -0.059622187 -0.06806048 0.13019104 0.20453955
0.1872717 0.10261345 -0.003469216 0.01993998 0.08076815 0.13936324 -0.13269025 0.023726234
-0.09617437 -0.10619877 -0.107894175 -0.065918505 -0.09290379 -0.22821711 0.07249849 0.059518386
-0.09649318 0.11688536 0.17049426 -0.059527505 -0.0058493083 0.10737658 -0.13795887 -0.04517443
-0.08654186 -0.0998824 0.1316961 -0.0961479 -0.0030889267 -0.12447577 -0.02387335 -0.0813239
00000000: 5fc7 f43d aeb3 54be 6429 ca3d 4dc7 e43d
00000010: 92e5 693e 2728 543e 1d37 a2bd 99bb a4bd
00000020: 3e0a 043e e3e2 63bd 7a2c 3bbe 6fdd 403e
00000030: cc0f 233e e9a6 04be 4868 4abe 6170 823c
00000040: f753 e93d 431d 333e 794a 0d3d 22f9 75be
00000050: 8be1 b83d 5752 753d d33b 39be 16cf d7bd
00000060: 650a a63e 5df7 5b3d 64a8 26be 52fe ecbd
00000070: d273 1fbe 7909 3b3e d716 8dbe c8bb 483e
00000080: 9e7e 86bd 5ade 6bbe b915 a33a 9f65 2ebc
00000090: 4396 473e 024e 36be e2f3 55be 27f6 a4bd
000000a0: 88d4 203e 7869 5f3e c71c ea3d c1ec 9f3d
000000b0: 4411 c1bd 03bf c43b 800f c5bd f1e5 04be
000000c0: fb7b fc3e 9b3c 513e 8370 093e 2418 4dbe
000000d0: 7a0e a93e 4213 a1bd 2f5c db3e 9e63 1a3e
000000e0: 938f da3d a672 de3d eeea ffbe 3903 883c
000000f0: 2b61 313b 9552 f43d e8b5 eb3e c677 d1bd
00000100: c490 773d b763 cabe be2a efbd db41 993c
00000110: f14f dd3d d07e 29be 73d2 a2bd 70db ea3d
00000120: a2cd 90bd 0e88 99bc 150d 8ebe a6bd d83d
00000130: 15e5 a7be 7085 353d e907 81be 5814 4cbe
00000140: 9f04 ec3d 4f8e 16be 1ce6 963d 3109 1d3d
00000150: c5af 273e 2741 943c 2277 5c3e 23d3 623d
00000160: 303e 923e 4f86 97be f791 b83d 78e5 40be
00000170: 0e9a 3b3e 5b5f 833e b36a 7fbe 648b 80be
00000180: 9e68 3cbe 2360 613d dcae 0c3e 8adc acbd
00000190: 2491 803d b5f1 41be e34a 01be fd60 d8bd
000001a0: 52e0 083e 5c96 883e e2e9 b43e 656f fd3d
000001b0: 1440 043e 02c5 983c 67b4 5f3d 5b71 44be
000001c0: c62a a23e 8f4b b0bd 62d9 133e e3ea d3bd
000001d0: 0536 123c 4d4c 1d3e baa0 32be 13dc b5be
000001e0: fabe 333d 39ad 823e 2d62 163d 13fa ba3e
000001f0: 9cf6 263e 3d4d 21bd f9de 4bbe 0310 7ebe
00000200: e788 74be 547e 613e 0001 8dbd c33a 67be
00000210: f5ea ac3c c02a 6cbe ad8d fc3d 3345 2b3d
00000220: 22dd 063e b915 6b3e 2a28 033e 00a4 c3be
00000230: 18d6 743e 51b1 20be 4bf1 09bd 33a8 8c3e
00000240: eaa6 db3c 42aa c5bd e7f2 833e f91d c43c
00000250: 34ff bfbe 4939 243e 7d7c e93d a864 12be
00000260: a5dd 3e3d bab9 8e3d f081 8f3d 65b5 823d
00000270: 1ddf ad3d 769a dd3d 7252 6dbd 22ab f83d
00000280: b2a2 5b3e a2d3 c8bd ff9c 9ebe 7683 5c3d
00000290: a5c9 953d 4541 13be 40d5 17be ddb9 8b3e
000002a0: ecd9 a8bd 9936 abbe bbbf 993d b35c 353e
000002b0: 5e77 0bbe fc37 bbbc 60f0 14be 906a e83d
000002c0: 1996 043b 3e52 403d aac6 4a3e 18e7 1d3e
000002d0: 4d7f a2be 1bbc 91be d7b5 bb3d ea71 793e
000002e0: 2bf8 55be 3477 a6bc 6da6 6abe 7299 08be
000002f0: c0de 0dbe 0383 7dbe 12a7 4cbe f089 82bd
00000300: 77cd aa3d 3423 793d 204b 043e de7c c43d
00000310: e212 b7bd 8c9d fdbc 4af9 71bd 81f4 15bc
00000320: e90c fabc bc34 98bd 4871 c33d fc6d 34be
00000330: a6c2 8abd d817 803d 2b32 583c c884 f23d
00000340: 9b92 55bd 3783 9dbd e73d d33d bed3 f2bd
00000350: e218 01ba 17ca f83c 9577 4a3e 2ddc 4cbe
00000360: f1bf 45bc 5a34 f0bd e050 993c 78a0 cebc
00000370: 6536 74bd 4b63 8bbd cd50 053e d172 513e
00000380: 27c4 3f3e 0027 d23d c95b 63bb 2b59 a33c
00000390: c669 a53d 3db5 0e3e f4df 07be 855d c23c
000003a0: 11f7 c4bd be7e d9bd 9ff7 dcbd 4800 87bd
000003b0: 5844 bebd bfb1 69be 177a 943d 8dc9 733d
000003c0: 379e c5bd 9761 ef3d 0c96 2e3e 1dd3 73bd
000003d0: 8eab bfbb 41e8 db3d 1745 0dbe d308 39bd
000003e0: dc3c b1bd 258f ccbd 58db 063e 31e9 c4bd
000003f0: 976f 4abb 27ed febd 0b92 c3bc 258d a6bd

embedding.atom_embedding_list.7.weight f4 [2, 64]
-0.18233171 0.26637056 0.06084054 0.08900322 0.16398305 0.38919494 0.267858 -0.09965681
0.27548748 0.39143702 -0.20605817 0.38066378 0.21443953 -0.23725896 0.028448306 -0.40906087
0.30477378 0.27775323 -0.12064773 0.28229836 0.16751543 -0.32742324 -0.1137658 0.17447987
0.25952864 0.058286104 -0.000471244 0.2522197 0.03271392 -0.064678974 -0.07302714 -0.26609945
-0.24269691 -0.06558703 0.24327217 0.08463171 -0.23140278 -0.012283178 0.17199901 -0.10970628
-0.28964785 0.34257373 0.21175815 0.27513093 -0.2830917 -0.13838318 0.14132357 0.34291887
0.31802326 -0.2453361 -0.19432291 0.03094093 -0.023243621 0.07486882 0.3796401 0.01799005
-0.296 -0.11670743 -0.28864878 0.11214621 -0.09210865 0.023445643 -0.23044091 -0.032372564
0.14878738 -0.066645645 -0.29714173 -0.3256 -0.18513465 -0.4837633 -0.4658417 -0.12212422
-0.27499363 -0.5878295 0.1291814 -0.788449 -0.8056413 0.042577785 0.005497816 0.99393874
-0.5267911 -0.28641936 -0.24506631 -0.3612912 -0.020225123 0.5621753 0.29260263 0.22881709
-0.3424967 0.11024606 -0.09795389 -0.5961127 -0.06141003 -0.32078677 -0.3682582 -0.1406482
0.3701138 0.38218597 -0.5472818 -0.5967344 -0.01816985 0.11307521 -0.3576818 0.3397587
0.41255763 -0.4787351 -0.25459498 -0.50239724 0.10429141 0.029497316 0.42198136 -0.055209976
-0.30704862 0.1877252 0.091334715 -0.053064477 -0.09735995 0.26488718 -0.6485985 -0.20311767
0.13632171 0.16034494 0.37603715 -0.49055257 0.06265986 0.51639086 -0.37293154 -0.07511172
00000000: 2ab5 3abe b961 883e ee33 793d 5247 b63d
00000010: 2ceb 273e 8f44 c73e af24 893e df18 ccbd
00000020: b20c 8d3e 6f6a c83e ea00 53be 5de6 c23e
00000030: 0996 5b3e 03f4 72be 6c0c e93c 6d70 d1be
00000040: 4f0b 9c3e ac35 8e3e 2816 f7bd 6989 903e
00000050: 2a89 2b3e 05a4 a7be 0bfe e8bd daaa 323e
00000060: f0e0 843e 69bd 6e3d 4d11 f7b9 f122 813e
00000070: 08ff 053d 6976 84bd 418f 95bd 303e 88be
00000080: 8a85 78be 7e52 86bd 571c 793e 6453 ad3d
00000090: daf4 6cbe 623f 49bc 8220 303e b0ad e0bd
000000a0: b94c 94be d365 af3e 21d7 583e f6dd 8c3e
000000b0: 65f1 90be 52b4 0dbe 20b7 103e 1093 af3e
000000c0: f2d3 a23e 6339 7bbe 96fc 46be d577 fd3c
000000d0: 6869 bebc d354 993d 3060 c23e df5f 933c
000000e0: 508d 97be 4e04 efbd c6c9 93be eaac e53d
000000f0: 76a3 bcbd 1411 c03c b4f8 6bbe 1899 04bd
00000100: b85b 183e 837d 88bd f622 98be 0bb5 a6be
00000110: f093 3dbe d3af f7be ce82 eebe 431c fabd
00000120: f7cb 8cbe fe7b 16bf 2148 043e cbd7 49bf
00000130: 823e 4ebf 0b66 2e3d 0627 b43b c572 7e3f
00000140: c8db 06bf 8fa5 92be aaf2 7abe 29fb b8be
00000150: 28af a5bc b8ea 0f3f 03d0 953e 074f 6a3e
00000160: ba5b afbe b0c8 e13d 0d9c c8bd d89a 18bf
00000170: 1589 7bbd 2a3e a4be 578c bcbe 1506 10be
00000180: 8e7f bd3e e1ad c33e a91a 0cbf 96c3 18bf
00000190: f0d8 94bc fa93 e73d 1222 b7be daf4 ad3e
000001a0: c13a d33e c41c f5be 465a 82be 1b9d 00bf
000001b0: bc96 d53d 5ba4 f13c f10d d83e db23 62bd
000001c0: 7a35 9dbe 093b 403e b20d bb3d 235a 59bd
000001d0: a764 c7bd 4b9f 873e 8d0a 26bf 14fe 4fbe
000001e0: eb97 0b3e 7731 243e f187 c03e b529 fbbe
000001f0: d053 803d 3132 043f e2f0 bebe 2cd4 99bd

embedding.atom_embedding_list.8.weight f4 [2, 64]
-0.18340622 -0.017550573 -0.30787775 -0.2380891 -0.3561806 0.07922891 0.19645996 0.034141384
-0.5827239 -0.021393485 -0.06574163 0.1359155 -0.21816945 0.29791513 -0.017645871 0.07388846
0.016460845 -0.13646764 -0.17177553 0.12423481 0.19844848 -0.038669728 0.10530248 0.11245608
0.13462144 -0.010158955 0.127216 0.10889697 -0.028092435 0.26935595 0.01681204 -0.0065672705
-0.048730604 -0.17362672 -0.01785215 0.066111825 -0.17328186 0.13720836 0.15865435 -0.14168474
0.36240342 0.21278222 0.15422381 -0.385674 0.19082858 0.23401643 0.27181166 -0.29454714
-0.12634109 -0.06590315 -0.22394048 -0.08777123 0.29345626 -0.27013293 0.10272023 0.14121118
0.4144096 0.0076854336 -0.1353182 0.079613924 0.13945062 0.30077872 0.03645776 -0.16850322
0.07969584 0.37197676 0.15259707 0.25758925 0.3843578 0.31033903 -0.60497135 -0.29059112
0.47150373 -0.014821654 0.06947497 -0.04343447 0.15807484 -0.3526958 0.4017764 0.07168442
0.22846802 0.34666643 0.40205437 -0.054469828 -0.14676619 -0.18395911 0.096438885 -0.30672142
-0.1396926 -0.11325592 -0.2940467 0.17671897 0.37040782 -0.32144535 0.32747248 0.23060183
-0.056848362 0.022590106 0.101194456 -0.30253062 -0.1748826 0.29001445 -0.3205009 0.16123861
-0.7452648 -0.28639066 -0.3792693 0.14530462 -0.29145896 -0.16950892 -0.28729373 0.23581137
0.03504993 0.0028129772 0.22058108 0.07434286 -0.20482501 0.7005879 0.023322752 -0.35768676
-0.17686825 -0.41196066 -0.20761482 -0.35323647 -0.19865233 -0.1252044 0.27612317 0.27997598
00000000: d7ce 3bbe 38c6 8fbc 27a2 9dbe a1cd 73be
00000010: 4e5d b6be c442 a23d cd2c 493e d6d7 0b3d
00000020: 652d 15bf 6441 afbc 8ca3 86bd 6f2d 0b3e
00000030: d067 5fbe 5588 983e 138e 90bc d552 973d
00000040: e5d8 863c 2cbe 0bbe ede5 2fbe d26e fe3d
00000050: 1436 4b3e 2664 1ebd d4a8 d73d 604f e63d
00000060: 34da 093e bf71 26bc e944 023e 6005 df3d
00000070: 1b22 e6bc 06e9 893e 67b9 893c 4232 d7bb
00000080: be99 47bd 34cb 31be ac3e 92bc a365 873d
00000090: cd70 31be 5980 0c3e 4976 223e ce15 11be
000000a0: f18c b93e 95e3 593e d9ec 1d3e 1077 c5be
000000b0: 9168 433e 01a2 6f3e e62a 8b3e e2ce 96be
000000c0: 8f5f 01be 3bf8 86bd a750 65be 67c1 b3bd
000000d0: e63f 963e dd4e 8abe fc5e d23d aa99 103e
000000e0: 7f2d d43e 17d6 fb3b db90 0abe a00c a33d
000000f0: 25cc 0e3e abff 993e bb54 153d 1c8c 2cbe
00000100: 9337 a33d bd73 be3e 6842 1c3e bde2 833e
00000110: 8cca c43e c2e4 9e3e 67df 1abf 5cc8 94be
00000120: f068 f13e 86d6 72bc e548 8e3d 58e8 31bd
00000130: 5fde 213e 8b94 b4be a3b5 cd3e 48cf 923d
00000140: 85f3 693e 437e b13e 12da cd3e c11b 5fbd
00000150: e049 16be c75f 3cbe c081 c53d 970a 9dbe
00000160: 940b 0fbe b8f2 e7bd 4a8d 96be d1f5 343e
00000170: 18a6 bd3e 7c94 a4be 79aa a73e e322 6c3e
00000180: d4d9 68bd e30e b93c 0a3f cf3d 4be5 9abe
00000190: 6d14 33be c67c 943e b218 a4be bc1b 253e
000001a0: adc9 3ebf cca1 92be 962f c2be bcca 143e
000001b0: 1c3a 95be bf93 2dbe 2a18 93be 8978 713e
000001c0: 8490 0f3d ed59 383b 02e0 613e 1241 983d
000001d0: a6bd 51be bb59 333f 5b0f bf3c b822 b7be
000001e0: f31c 35be 82ec d2be fb98 54be 69db b4be
000001f0: 846b 4bbe 9535 00be 0460 8d3e 0359 8f3e
