visualizations/best_model_mul.pth (torch, 101430 bytes, 16 tensors)

embedding.atom_embedding_list.0.weight f4 [119, 64]
00000000: 8af7 8932 5640 e8b0 9c54 0c37 f997 b8b3
00000010: 9829 b4a6 3548 42a7 fff5 63b4 77a6 7226
00000020: 846c 55b6 8a67 25b4 2d5d d933 cbd5 8eb9
00000030: fc60 1fb7 59dd 59a7 e46f 5a34 257f 92b1
00000040: 91c1 82b9 d12d 94b4 9a1c a837 c455 3037
00000050: 6e41 c830 710d 99a5 98b5 023b 9951 65b5
00000060: 04d4 b9a6 8ea6 38b5 c291 a9a6 6a07 e3a7
00000070: fe80 88a7 31a6 35b8 67ce 6ba7 0caa 21a7
00000080: d524 693a a671 82b4 4e7b 8fb5 4947 0ea5
00000090: 0eb6 9735 409c 6bb5 1710 a137 0573 42b3
000000a0: c2e6 5baa a806 8726 2728 85b6 b4de 5cb8
000000b0: 2b91 b327 3be2 a0ba 4214 e637 1fe8 cdb7
000000c0: 982f 1d35 80e1 182a ed68 dc38 cfe3 f92a
000000d0: 4ed2 ce38 809c 54a7 0eb5 f0b7 51c4 2ca8
000000e0: 0834 22ba f7ee 83b5 a811 0736 0666 3d35
000000f0: eee2 2931 7467 beb9 6576 16b8 29a1 3caa
00000100: 8c94 0580 075f 0580 f166 0500 8b59 0580
00000110: 836f 0580 9474 0580 7768 0580 7f5d 0580
00000120: 69a2 0580 2876 0500 5562 0500 5c77 0500
00000130: d770 0680 ca76 0500 a069 0580 0934 0680
00000140: 6b98 0580 ad57 0500 8d6f 0500 2680 0500
00000150: 796a 0580 b762 0580 f76e 0580 5e9b 0680
00000160: 9a96 0580 25c6 0500 2ad5 0500 0397 0500
00000170: cc59 0580 e95f 0680 50a4 0580 9d71 0580
00000180: 3d63 0580 b27a 0580 4999 0580 f986 0500
00000190: 3ac5 0580 a087 0500 6b65 0500 086b 0500
000001a0: e06d 0500 f744 0680 827f 0580 8995 0580
000001b0: 265a 0580 e569 0580 f870 0580 a980 0580
000001c0: e25b 0580 c18f 0580 a074 0580 cc66 0500
000001d0: b861 0580 9e83 0500 76b5 0500 c894 0580
000001e0: 7173 0500 0ca5 0580 715d 0580 04c9 0580
000001f0: 458d 0500 4c62 0500 346d 0580 d38a 0580
00000200: f6b4 9a3d 67df 38be 1b20 8dbe f291 4b3e
00000210: 889a 82be 9443 683e 9252 8f3e 2b46 e13d
00000220: 8aad 4ebe 111a cebb b9dc 1abe d4b7 243d
00000230: e4d2 e6ba da49 2b3e d37c 0bbc bf55 3c3e
00000240: a7bc ad3e ddb8 b1bd 96ac 043e 878c 04bc
00000250: 7eb8 eabd f131 f33d bca9 01bf e3e7 583e
00000260: 87e5 d7bc 1c86 493e e4c8 8c3e 606c a8be
00000270: f2e8 8b3e 2423 863d a04a 21bd bf9a 21be
00000280: 7b93 bdbe 262b 55bc 9423 d5bd 6b01 34be
00000290: cd75 dcbb 0685 80bc ca53 b73e 8d4e 34bd
000002a0: edb1 45bd 5329 b4be 4171 1ebe 6d14 f2bd
000002b0: 3210 3b3e f4c4 a83e e6ac 8bbe e655 1cbd
000002c0: 698b 39bd 783d b5bd 008e 01be 272f 673e
000002d0: dc32 52be 678a e13e 82f7 9d3d 92da 2ebe
000002e0: 2db2 0c3f 9dfc 303d 3510 b8bd f957 6e3e
000002f0: 6302 e93c 932f ba3e 0fe6 833e 677e 4ebd
00000300: c8f5 0500 0463 0500 ca58 0580 5659 0500
00000310: 645e 0500 307d 0580 7271 0500 0e9d 0500
00000320: 536f 0500 ae6b 0580 8f66 0580 5a69 0600
00000330: 1665 0500 a791 0500 8b59 0500 fa58 0580
00000340: e285 0580 4877 0500 f06a 0500 2f58 0500
00000350: f864 0500 3374 0580 4d71 0580 2972 0580
00000360: ca5a 0500 4857 0500 177c 0500 8265 0500
00000370: 5c9a 0500 3c7b 0500 066e 0500 3c5e 0580
00000380: 9864 0500 216b 0500 209e 0500 525b 0580
00000390: f75c 0580 df99 0580 4767 0500 6265 0580
000003a0: 5165 0500 7f79 0580 7e72 0600 5b6b 0500
000003b0: 0f66 0500 a87e 0580 bf65 0500 8959 0580
000003c0: f957 0580 1ed5 0580 acdb 0580 606e 0580
000003d0: 98a9 0500 cf57 0580 dc64 0500 5a5f 0580
000003e0: 9f4e 0680 6084 0500 d876 0500 285d 0500
000003f0: 036a 0580 df73 0580 a074 0580 cb69 0580
1.6061467e-08 -1.6898507e-09 8.36435e-06 -8.595811e-08 -1.2501283e-15 -2.6962052e-15 -2.1230515e-07 8.418622e-16
-3.1802638e-06 -1.540449e-07 1.01217985e-07 -0.0002724364 -9.499719e-06 -3.0234792e-15 2.0343538e-07 -4.263614e-09
-0.0002493975 -2.7600484e-07 2.004048e-05 1.0510386e-05 1.4570511e-09 -2.6550377e-16 0.0019944664 -8.542789e-07
-1.2894421e-15 -6.878771e-07 -1.1766238e-15 -6.3013195e-15 -3.7887436e-15 -4.330854e-05 -3.2724692e-15 -2.243542e-15
0.0008893733 -2.4297077e-07 -1.0690217e-06 -1.2340689e-16 1.1303362e-06 -8.7771696e-07 1.9200188e-05 -4.5273755e-08
-1.9531168e-13 9.369311e-16 -3.968383e-06 -5.2659496e-05 4.983987e-15 -0.0012274453 2.742757e-05 -2.4545994e-05
5.8556316e-07 1.3578548e-13 0.000105099614 4.438936e-13 9.862018e-05 -2.950575e-15 -2.869454e-05 -9.590487e-15
-0.0006187563 -9.829809e-07 2.0126845e-06 7.055645e-07 2.4721731e-09 -0.00036316703 -3.587305e-05 -1.6753668e-13
-5.12466e-40 -4.93267e-40 4.96106e-40 -4.913e-40 -4.9918e-40 -5.00998e-40 -4.96652e-40 -4.92718e-40
-5.17439e-40 5.01564e-40 4.94452e-40 5.01996e-40 -5.91492e-40 5.01791e-40 -4.97069e-40 -5.6968e-40
-5.13855e-40 4.9063e-40 4.99194e-40 5.05148e-40 -4.97373e-40 -4.9459e-40 -4.98984e-40 -6.06748e-40
-5.13203e-40 5.30258e-40 5.35646e-40 5.1335e-40 -4.9139e-40 -5.85419e-40 -5.18122e-40 -4.99934e-40
-4.94777e-40 -5.03192e-40 -5.14166e-40 5.07597e-40 -5.29929e-40 5.0783e-40 4.9556e-40 4.97573e-40
4.98593e-40 -5.75753e-40 -5.04919e-40 -5.1282e-40 -4.91517e-40 -4.97165e-40 -4.99703e-40 -5.05332e-40
-4.92139e-40 -5.10747e-40 -5.01015e-40 4.96054e-40 -4.94232e-40 5.06393e-40 5.24273e-40 -5.1255e-40
5.0059e-40 -5.18385e-40 -4.92698e-40 -5.31288e-40 5.09855e-40 4.9444e-40 -4.98352e-40 -5.08978e-40
0.07554047 -0.18053971 -0.27563557 0.19879892 -0.25508523 0.22682029 0.27992684 0.109997116
-0.20183387 -0.0062897285 -0.15123262 0.040214375 -0.0017610458 0.16727391 -0.008513647 0.18392085
0.33932993 -0.08677838 0.12956461 -0.008090145 -0.1146097 0.1187476 -0.5064962 0.21182208
-0.026354564 0.19680065 0.27497017 -0.32895184 0.2732616 0.06549671 -0.03937781 -0.15781687
-0.3702658 -0.013010776 -0.104071766 -0.17578666 -0.00672791 -0.01568843 0.35806113 -0.044020224
-0.048265386 -0.35187778 -0.1547289 -0.11820302 0.18267897 0.32962763 -0.2728035 -0.038167857
-0.045298968 -0.08849615 -0.12651825 0.22576581 -0.20527214 0.44050905 0.07713224 -0.17075565
0.54959375 0.04320966 -0.08987466 0.23275746 0.02844352 0.3636442 0.25761458 -0.050413515
5.47347e-40 4.94698e-40 -4.91029e-40 4.91225e-40 4.93038e-40 -5.04086e-40 4.99874e-40 5.15518e-40
4.99113e-40 -4.97806e-40 -4.95969e-40 5.88806e-40 4.9544e-40 5.11428e-40 4.913e-40 -4.91096e-40
-5.07206e-40 5.01968e-40 4.9754e-40 4.90812e-40 4.95398e-40 -5.00862e-40 -4.99822e-40 -5.0013e-40
4.91746e-40 4.90488e-40 5.03693e-40 4.95592e-40 5.14551e-40 5.03386e-40 4.98646e-40 -4.92982e-40
4.95264e-40 4.97608e-40 5.15902e-40 -4.91937e-40 -4.92527e-40 -5.14376e-40 4.96226e-40 -4.95547e-40
4.95523e-40 -5.02762e-40 5.92085e-40 4.9769e-40 4.95789e-40 -5.04613e-40 4.95677e-40 -4.91297e-40
-4.90736e-40 -5.3563e-40 -5.37981e-40 -4.98773e-40 5.20016e-40 -4.90677e-40 4.95359e-40 -4.93383e-40
-5.79217e-40 5.06665e-40 5.0181e-40 4.92596e-40 -4.97207e-40 -5.00744e-40 -5.01015e-40 -4.97129e-40

embedding.atom_embedding_list.1.weight f4 [5, 64]
00000000: 626e 8b3c 0ff0 453e e29e 383c f783 d23d
00000010: b8e4 853d fd02 d9bc 8507 283e 0a5a 9d3d
00000020: fa30 46be 91a2 19be f2c8 f53d 1e31 40bc
00000030: 6809 b03d 47f0 363e f5e5 bebc 1f0a 123e
00000040: a523 973d ae0b a83d 595c a03d 110c 78bd
00000050: f0eb bfbc 2f7e 10be e67e 99be 1325 e3bd
00000060: f697 bc3d ffa5 9ebd 7493 a2bc a548 fb3d
00000070: d38c a5bd 4df9 52bd aba0 363c db06 2b3e
00000080: 3eba 473d f719 ef3c 28a3 463c 8519 b3bd
00000090: 681e 493e 8f98 f93d 58af 01be c989 2abd
000000a0: 7b31 cbbb d28a 2a3e c8d4 3fbe fe34 3d3c
000000b0: 46c1 d53d 2fc9 583e 8646 31be 216a 003e
000000c0: 8eec 383d 4b42 0e3d a806 59be 3c97 123d
000000d0: 6084 6e3e 2e6f 733e d668 7ebd 8bb0 863e
000000e0: e5eb 573e e3a3 c73d 9768 e63c 5a1e 91bc
000000f0: ea44 293e 35b1 1abe f9d7 87bc 04fa 7b3d
00000100: bd63 0580 695c 0500 1073 0580 be79 0680
00000110: 216c 0580 2960 0580 e76b 0580 c864 0580
00000120: a558 0500 5666 0580 be65 0580 085a 0500
00000130: 8c74 0500 8f5f 0500 d868 0500 4e5f 0500
00000140: 0290 0500 b06a 0500 155f 0500 456d 0580
00000150: 9425 0680 7760 0500 437c 0500 696a 0500
00000160: 7b73 0580 f85b 0500 b457 0500 4266 0500
00000170: 6776 0500 636a 0500 7a6b 0500 9d5f 0580
00000180: 476c 0580 4e5f 0500 87e5 0580 ed85 0500
00000190: 8b30 0680 595e 0500 c861 0500 525b 0500
000001a0: 0c58 0580 2b78 0580 315d 0580 848f 0600
000001b0: b063 0500 f75a 0580 4157 0580 2d66 0500
000001c0: ac6c 0500 8e5a 0580 b29b 0500 d15d 0500
000001d0: 3757 0580 fd61 0500 dc75 0500 0966 0500
000001e0: b566 0580 9c73 0500 4063 0500 0a68 0500
000001f0: 1067 0580 cfa3 0680 486b 0580 0171 0500
00000200: 339a 0580 bac9 0580 8e62 0580 d970 0500
00000210: 7461 0580 9f65 0580 2458 0580 2378 0580
00000220: c48e 0580 c960 0580 0183 0500 0058 0500
00000230: 471b 0680 18a7 0680 0569 0500 8587 0580
00000240: 7468 0500 dbb0 0680 1f69 0580 3874 0580
00000250: d974 0580 3161 0580 fe59 0580 d27b 0500
00000260: 065f 0500 0058 0500 b45a 0580 915d 0500
00000270: 4c69 0580 54c6 0600 975d 0500 0261 0500
00000280: 5f69 0500 6e5b 0580 1760 0580 e964 0580
00000290: ed7e 0580 fd5f 0500 09a0 0680 d16a 0500
000002a0: f65d 0500 e858 0580 936b 0500 4a61 0580
000002b0: d458 0500 3e66 0500 735f 0500 c264 0580
000002c0: 5463 0500 f56d 0500 9460 0500 cf64 0580
000002d0: 57a6 0580 d760 0500 b364 0500 f264 0500
000002e0: e360 0500 8ba7 0600 8dc3 0580 718f 0500
000002f0: 1977 0500 0361 0580 f066 0580 f758 0580
00000300: 215c 0580 305a 0500 866b 0500 eed0 0500
00000310: a0e3 0500 4359 0580 506c 0580 ca60 0580
00000320: 94a4 0580 206d 0580 909d 0500 8661 0580
00000330: 7c66 0580 595e 0580 166e 0500 38fb 0500
00000340: 245e 0580 084a 0600 a46d 0580 7f5b 0500
00000350: c161 0580 e397 0580 8958 0580 9279 0580
00000360: cab8 0500 97b3 0500 fb62 0580 1365 0580
00000370: 496f 0500 9460 0580 1bfd 0580 c871 0680
00000380: 685c 0500 1a65 0580 d25a 0580 2c65 0500
00000390: 5461 0500 d75a 0580 8e5f 0500 ff5b 0500
000003a0: 885d 0580 7f65 0580 6060 0500 e889 0500
000003b0: 7568 0500 e3b9 0580 6977 0500 f267 0500
000003c0: 1cc6 0580 988b 0600 9ef2 0500 d572 0500
000003d0: 547c 0580 c16f 0580 7157 0500 f86b 0500
000003e0: e68f 0580 346f 0580 4c60 0500 d962 0580
000003f0: 666d 0500 2769 0500 9c68 0580 d5bf 0580
0.017020408 0.19329856 0.011268349 0.102790765 0.06537765 -0.026490683 0.16409118 0.07683189
-0.1935462 -0.1500342 0.12001218 -0.01173046 0.08595544 0.17865096 -0.023303011 0.14261673
0.073798455 0.08205353 0.07830114 -0.060558382 -0.023427933 -0.14110635 -0.29979628 -0.11091056
0.09208672 -0.07746505 -0.019845702 0.12269715 -0.08083501 -0.051507283 0.011146705 0.16701834
0.0487616 0.029187186 0.01212386 -0.08745102 0.19640505 0.12187301 -0.12664545 -0.04163531
-0.006200967 0.16654518 -0.18733513 0.011548279 0.104372546 0.21170495 -0.17312059 0.12540485
0.04514747 0.03473119 -0.21193945 0.03578876 0.23292685 0.2377288 -0.062111698 0.26306567
0.2108608 0.09748056 0.028126044 -0.017714668 0.16530195 -0.15106662 -0.016582476 0.06151773
-4.94957e-40 4.92328e-40 -5.00454e-40 -5.94686e-40 -4.97967e-40 -4.93673e-40 -4.97886e-40 -4.95331e-40
4.90977e-40 -4.95889e-40 -4.95676e-40 4.91475e-40 5.00987e-40 4.93457e-40 4.96788e-40 4.93366e-40
5.10838e-40 4.9745e-40 4.93286e-40 -4.98376e-40 -5.64493e-40 4.93783e-40 5.03754e-40 4.9735e-40
-5.00604e-40 4.9217e-40 4.9064e-40 4.9586e-40 5.01652e-40 4.97342e-40 4.97733e-40 -4.93477e-40
-4.9802e-40 4.93366e-40 -5.41516e-40 5.07221e-40 -5.68427e-40 4.93023e-40 4.94255e-40 4.91937e-40
-4.90763e-40 -5.02286e-40 -4.92608e-40 6.02497e-40 4.94939e-40 -4.9181e-40 -4.90478e-40 4.95831e-40
4.98162e-40 -4.91662e-40 5.1503e-40 4.92832e-40 -4.90464e-40 4.94329e-40 5.01457e-40 4.95781e-40
-4.96022e-40 5.0065e-40 4.94782e-40 4.965e-40 -4.9615e-40 -6.09776e-40 -4.97663e-40 4.99716e-40
-5.14494e-40 -5.31543e-40 -4.94532e-40 4.9966e-40 -4.94137e-40 -4.95632e-40 -4.90796e-40 -5.02274e-40
-5.10392e-40 -4.93897e-40 5.06173e-40 4.90746e-40 -5.60798e-40 -6.10955e-40 4.96851e-40 -5.07793e-40
4.96648e-40 -6.14457e-40 -4.96888e-40 -5.00869e-40 -5.01095e-40 -4.94043e-40 -4.9146e-40 5.03596e-40
4.93265e-40 4.90746e-40 -4.91716e-40 4.92743e-40 -4.96951e-40 6.2216e-40 4.92751e-40 4.93977e-40
4.96978e-40 -4.91976e-40 -4.93648e-40 -4.95377e-40 -5.0471e-40 4.93612e-40 -6.08423e-40 4.97496e-40
4.92884e-40 -4.91071e-40 4.97768e-40 -4.94078e-40 4.91043e-40 4.95855e-40 4.93418e-40 -4.95323e-40
4.9481e-40 4.98623e-40 4.93823e-40 -4.95341e-40 -5.18849e-40 4.93917e-40 4.95302e-40 4.9539e-40
4.93934e-40 6.11116e-40 -5.29328e-40 5.10635e-40 5.01902e-40 -4.93979e-40 -4.96104e-40 -4.91092e-40
-4.92227e-40 4.9153e-40 4.9775e-40 5.34127e-40 5.40834e-40 -4.91199e-40 -4.98033e-40 -4.93899e-40
-5.18217e-40 -4.98324e-40 5.157e-40 -4.94162e-40 -4.95942e-40 -4.93023e-40 4.98669e-40 5.49298e-40
-4.92949e-40 5.7757e-40 -4.98509e-40 4.92e-40 -4.94245e-40 -5.13664e-40 -4.90938e-40 -5.02789e-40
5.25467e-40 5.23602e-40 -4.94685e-40 -4.95436e-40 4.99099e-40 -4.93823e-40 -5.49975e-40 -5.9183e-40
4.92327e-40 -4.95446e-40 -4.91758e-40 4.95471e-40 4.94092e-40 -4.91765e-40 4.93456e-40 4.9218e-40
-4.9273e-40 -4.95587e-40 4.9375e-40 5.08649e-40 4.9665e-40 -5.25861e-40 5.02014e-40 4.96466e-40
-5.30246e-40 6.0109e-40 5.46212e-40 5.00371e-40 -5.03778e-40 -4.99267e-40 4.90546e-40 4.9791e-40
-5.10799e-40 -4.9907e-40 4.93722e-40 -4.94637e-40 4.98422e-40 4.96899e-40 -4.96704e-40 -5.27994e-40

embedding.atom_embedding_list.2.weight f4 [12, 64]
00000000: 26d0 06be 27bf 5d3d 20a9 38be 6b5d 6a3d
00000010: 4c72 50bd a98e eb3d c6b6 63bd 393c 653d
00000020: 6454 793d 0f35 81bd a69c 8abe fb94 2e3e
00000030: 3d38 1b3b 43ea 3a3e 626f 8cbd 3721 cabd
00000040: df3e 6a3e 54d6 213e d1ca 40be a06c c8bd
00000050: 03b4 563d 3564 aa3d b2ff 47be 6f0c e83d
00000060: 0bb7 67bd 8d90 513b e4d5 863d 938f 2fbd
00000070: 77cd 90bd 5346 113e 94ce f1bb 3341 fbbc
00000080: 32c5 a7be 151d 283e 4c48 b63d ceec cb3d
00000090: 3678 bdbc 3e2b 403d 97b6 633d 250d 55be
000000a0: f01a 683d f860 c0bd 57c8 2a3d 5eab a43e
000000b0: 36b0 fa3c 63ca 723e 5199 6fbe 506c d53d
000000c0: 4c8d 32be 0ec3 22bc a0eb 12be 41c4 e8bd
000000d0: 1272 84be c6ac d0bd dd27 3c3e 26d1 a2be
000000e0: 2af0 203e a62d 22bc 2dff 50be c188 673e
000000f0: 8b48 063d 0223 903e ad6c 933d 2805 41be
00000100: 3072 dc3e 0480 fdbe ba61 3c3e 31f9 703e
00000110: 0145 19be 6943 a63e adbd a9bd dca2 cfbc
00000120: 3a44 2b3e 9930 33be a1fe 14bf 66f9 a3be
00000130: 5629 b0bd 5dbd 2b3e f756 d2bd 7be0 c23d
00000140: ab32 74be 50e6 aebe 60aa 553d 4052 17be
00000150: f53b 0d3e ed33 17be d271 7c3d ca63 a8bc
00000160: 1669 683e d09b 9cbe 2d85 243a dabb ffbd
00000170: 5c8f 213e d379 923d 311b a43d 6336 bbbe
00000180: 0a00 b2be fef6 a93d 7b96 013e ec3a 59be
00000190: 61c1 5ebd 9ff2 1bbe d447 d53e a195 f13d
000001a0: ddef f9bd 6390 dd3d ba04 80be 625c da3d
000001b0: d8e2 833e b359 dcbe 0355 c7bb c80a 51be
000001c0: 941c 77bd bb03 18be cd2a b63d 3cd5 373e
000001d0: f9a8 e33d 7334 a8bd a9ac d8be fd13 fc3d
000001e0: fbe7 eebe c681 21bd e9be a33e f645 0d3e
000001f0: d785 20be da83 70bd 433c 07bf 4a78 95be
00000200: ddfe 2dbe 2e9d 733e f184 2ebe cd3c c6be
00000210: 3cf5 ad3e 85ec 08bf 03f0 7ebd 45c5 223e
00000220: 59c5 a63e 0081 b8be 8b7a a73e b173 003e
00000230: ce94 bcbe 2ca7 71bd c291 d83d 6fee 44bd
00000240: 5246 ab3d 8dab 633d 6458 9abe 55c1 07be
00000250: f3f5 50be ca04 2d3f ce9b 83be 861d af3e
00000260: 6d2e 3fbe 8a15 ff3d a156 9dbd aaeb 103e
00000270: a711 46be 1642 1cbd fbe0 aebe af9a 0abe
00000280: 12fb 093d 861d a83e 3a8c d93d 62b8 3cbe
00000290: cb5c 6d3e e27b 88be 817f 133e 0b61 6a3e
000002a0: ae1f 223e acb4 853e 633b c73e aa3e 203c
000002b0: 9d30 1cbe 9986 b53e 6e03 5dbd 62b9 c43e
000002c0: ab3e d23e b859 983e 2bc5 82be 7df6 4fbe
000002d0: e276 6c3e 33c4 27be a57f 06be a605 ffbe
000002e0: 2906 503e ca53 603e 87be 993d ae14 68bd
000002f0: 5544 ebbe 2594 463d 6e60 a63e 1a84 2b3f
00000300: bb4d a83d 04f8 b0bd 6bd9 5e3e 5e34 9b3d
00000310: 8051 10be 6d86 0ebe 6959 033e 7fd9 4fbe
00000320: a096 81be 5c63 b23d 3b19 51bd b25c 9cbc
00000330: 9400 993e 60fd bbbd 5abc c7bd 584a be3d
00000340: bb7b 843e 936b ba3d b319 003e ec66 443e
00000350: 5dc4 e23d 7f05 2abe f842 65bd 9979 26be
00000360: 6f17 453e 8024 d63d 3cdf 62bb a006 c93d
00000370: f531 103c 3a44 96bd e657 353e 8188 e93e
00000380: ab20 dabd dba9 51be f464 51be 9e58 c1bd
00000390: db4f ed3c 7bbc 063e bf1e 5fbe 242d 723d
000003a0: b027 363e 9d94 f73c e3d4 3ebc d3fd 44be
000003b0: cd79 5cbe 6b13 473e a8da 943c aa5d 6cbd
000003c0: 5e85 2abe f023 013e d6c2 8a3e 14bc 02bc
000003d0: bfbb 0bbc fa2d 63be 6ab2 2bbd 80fd c73c
000003e0: 7058 723d a9dd 4bbc 0a2b 5b3e cef8 823d
000003f0: 2488 b23e a44e cdbc 09d7 093e 505e 27be
-0.1316534 0.054137375 -0.18033266 0.057217997 -0.050890252 0.1150182 -0.05559423 0.055965636
0.060871497 -0.06308948 -0.27072638 0.17049019 0.0023684644 0.18253426 -0.06857182 -0.098696165
0.22875546 0.15804416 -0.18827368 -0.097863436 0.052417766 0.08319894 -0.19531134 0.113304965
-0.056571048 0.0031977028 0.06583765 -0.042861532 -0.07070439 0.14186983 -0.0073793624 -0.030670738
-0.32767636 0.16417344 0.08900508 0.09957276 -0.02312861 0.04691624 0.055594053 -0.20805795
0.056666315 -0.09393495 0.041694965 0.32161993 0.030601602 0.23710017 -0.2339833 0.104210496
-0.17436713 -0.0099342 -0.14347696 -0.113655575 -0.2586828 -0.10189204 0.18374582 -0.31800193
0.15716615 -0.009898579 -0.20409842 0.22610761 0.032784026 0.2815171 0.07198463 -0.18849623
0.43055868 -0.4951173 0.18396655 0.23532559 -0.14967729 0.32473305 -0.08288131 -0.025346212
0.16725245 -0.17499007 -0.5820103 -0.32026213 -0.08601634 0.16771455 -0.102704935 0.095154725
-0.23847453 -0.3416009 0.052164435 -0.1477747 0.13792403 -0.14765902 0.061631985 -0.020555396
0.22696337 -0.30587626 0.0006275948 -0.12487002 0.15777344 0.071521424 0.08012999 -0.3656493
-0.34765655 0.08299063 0.1265506 -0.21213883 -0.05438364 -0.15229271 0.41656363 0.117961176
-0.122039534 0.10818555 -0.25003606 0.10662152 0.25759006 -0.43037185 -0.0060831322 -0.20414269
-0.06032999 -0.14845173 0.08894882 0.17952436 0.11116213 -0.08213129 -0.4231923 0.123085
-0.46661362 -0.039430402 0.3198159 0.13796219 -0.15676056 -0.058719493 -0.5282633 -0.29193336
-0.16991754 0.23790428 -0.170429 -0.38718262 0.3397616 -0.534859 -0.06224061 0.15895565
0.3257244 -0.3603592 0.3271068 0.12544133 -0.3683228 -0.05899732 0.10574676 -0.04807895
0.08363022 0.055583525 -0.30145562 -0.13257344 -0.20406322 0.6758543 -0.25704807 0.34202212
-0.18670054 0.1245528 -0.07682539 0.14152399 -0.19342671 -0.038148962 -0.3415602 -0.1353557
0.033686705 0.32835025 0.10622449 -0.18429711 0.23179929 -0.26657015 0.14404108 0.22888581
0.15832397 0.26114404 0.38912496 0.009780565 -0.1525292 0.35454252 -0.05395835 0.38422686
0.41063437 0.2975595 -0.25541052 -0.20308872 0.23092225 -0.16383438 -0.1313463 -0.49808997
0.2031485 0.21906963 0.07507043 -0.056660347 -0.4595057 0.048481125 0.32495445 0.66998446
0.08217951 -0.08641055 0.21762626 0.075783476 -0.1409359 -0.13918467 0.12827076 -0.20297812
-0.2531023 0.087103575 -0.051049452 -0.01908717 0.29883254 -0.09179187 -0.09752722 0.09291524
0.2587565 0.091025494 0.12509803 0.19179887 0.110726096 -0.16603659 -0.05597207 -0.16257323
0.1924722 0.104561806 -0.0034617921 0.09815717 0.008800973 -0.07337232 0.17709312 0.45611957
-0.10650762 -0.20474951 -0.20448667 -0.094407305 0.028968742 0.13157837 -0.21789072 0.05912508
0.17788577 0.030222232 -0.011647436 -0.19237451 -0.21530838 0.19441001 0.01817067 -0.057706513
-0.16652438 0.12611365 0.27101773 -0.007979412 -0.008528649 -0.22185507 -0.041918196 0.02441287
0.05916637 -0.012442985 0.21403137 0.06395112 0.34869492 -0.025061913 0.13460936 -0.16344571

embedding.atom_embedding_list.3.weight f4 [12, 64]
00000000: 969a bc3c c942 fcbb e568 b13c 22d6 3f3b
00000010: 0dc5 cb3c a076 053c 7efb d8bb 6248 69bc
00000020: b6a2 793c e5a5 463b 47dc baba 7cd4 d43b
00000030: 9fc8 db3c 5a3e b4bc ddc1 9dbc b787 92bb
00000040: a2ee 23bc b44b 3b3c 80f3 4fbc fedf 02ba
00000050: d663 923c ca6c 44bc ba2f d93a 26cd dc3b
00000060: ba7e 163c c57b caba f5ea 85bc fff4 973c
00000070: 3bff ebbb a6f2 28bc ff7d 043c bc87 aebb
00000080: d059 e1b9 be6a 443b 9d2e 883c 0757 f8bb
00000090: 8c91 a0bb 50a8 673b 7d78 e3bb e25d b53c
000000a0: 495e 9bbc 1d93 933c dd73 c33c 37f9 823b
000000b0: ad5a aa3a 279e 40bb 956d 51bc dc6d e13c
000000c0: 0477 423c 34a3 92bb 4923 8dbb 924d c2bb
000000d0: 90ee ce3c af50 6fbb 7496 80bc c8c5 913c
000000e0: 018d ccbc fd0d 023c e106 063b 7525 2ebc
000000f0: 4f91 e8bb 7903 d2bc 4b09 d6bb 7a96 1fba
00000100: 6d3e b9bd 42d8 3c3d 12a3 6c3e 2a93 963d
00000110: 5802 d33d 4219 983b feee 02be dedb 57be
00000120: 93cc fcbd 4bd7 2e3e cbfa a6bc 366c 5fbd
00000130: 6b55 64bc 7bd8 79bc c5c2 453d d0b2 d13d
00000140: b563 2d3d e1c7 0f3d b35d f1bb ba3d a63d
00000150: aace 8f3e f1a9 61be 1663 4f3b c6f2 17be
00000160: 1322 61bd 50e4 5cbd 3255 43be 179a 4f3e
00000170: f376 53be 8e12 b8bd 1d70 b23d 9027 2a3e
00000180: 0c2b f43d 8f2c e6bd 5b89 0d3d ee7c 4bbd
00000190: 5abb 0d3d a8ef b03d 76c9 a2bd 2705 e2bc
000001a0: 9639 243c 05b1 8f3e 9031 40be 5605 e6bb
000001b0: fa30 2abd 084d 1f3e 3f48 c53d a9db bfbd
000001c0: 4576 c5bd 3cfb 773c 94db 233e ae04 d2bd
000001d0: 4956 0f3e b3ae 213d d4e5 683d 0a6d 3b3e
000001e0: 2a80 bf3d 8786 1cbd 1171 c83d c6b1 d7bd
000001f0: 9760 c93d 8bbf c03c aeac 163e 8b9e 81bd
00000200: 141d f63c 826a c9bc 23b2 5e3d e67d cabc
00000210: a0b8 393c 371c b8bc 5339 62bd d10b 033d
00000220: 8f6d f03d 4a61 ddbc b6d4 f33c f8ad 37bd
00000230: 1317 893c 5afa 38bd faa7 1dbd 8fd3 9bbc
00000240: e1cb e3bd 41fa 04bd 1c72 febc 18a7 8b3d
00000250: 5cfd 40bc b94f 5ebc 129c 063e 05ea 093b
00000260: 9292 4f3d 4d82 69bd b3c8 c63c 310f e6bb
00000270: 878c efbb 4d22 31bd 9626 c73c c2e1 91bc
00000280: d7e2 ba3d 0039 f33c 097b cbba 8a5d e73c
00000290: 5fbd c2bc 81c9 40bd 6d5e 253d 2f14 7f3d
000002a0: 9e43 d23c 6498 34bc 288c 643d db20 8d3c
000002b0: 1ff8 1ebd 24f5 21be 8c4b 37bb a4ec bd3d
000002c0: a8cb be3d 8c3b 4cbc 92e9 1f3d fa70 0c3d
000002d0: 38ba 1c3d cbd9 86bd 2be4 a9bd 81e2 29bd
000002e0: ec2f 0abe fe74 41bd 9977 5bbc de7b 003c
000002f0: 7e95 2cbd 33b4 0fbe eb83 a7bd 7f21 b1bc
00000300: df56 563e 283c 28be 0a77 a63d b222 103d
00000310: 84cd 08bc 011c ecba 23b5 4abd fec0 343c
00000320: 88e3 113d cab6 2abd 196c e0bd ab1b 58bd
00000330: 7e2c 30bd 7dec 703d 3973 8e3d d1d2 adbd
00000340: f25e c0bd f389 44be 5583 153d e8b7 d7bd
00000350: ea74 3e3d 91ce febc 3b5b 963d 9a34 9abc
00000360: 6d51 813d f4d1 e2bc fe55 a7bd 08e3 40bd
00000370: 5933 743d 5855 1b3d faee 5b3c cb55 06be
00000380: ede9 84bd 2bdd babc 3e08 01bd c19a 54bd
00000390: 35ea 253d 538a a93c e7f6 9b3d 4f84 e03c
000003a0: 4b46 4c3a cf7c 103d 20d2 38be 74f1 5ebc
000003b0: fe67 5a3c db8f d2bd b465 48bc 38e9 11be
000003c0: f3a0 b63c 9c95 3ebd d570 cfbc 991e e63b
000003d0: 5b1e 993c 81cc 5ebd 19ff 97bd 56da 6ebd
000003e0: 30f4 0ebe 9042 513d a68b 053e 0dc5 db3d
000003f0: 8fe7 91bc caf8 c93c 7fb2 05be cae4 dfbb
0.023022931 -0.007698391 0.021656463 0.002927192 0.024874235 0.008145958 -0.006621777 -0.014238449
0.015236547 0.0030311283 -0.0014256322 0.0064950567 0.026829062 -0.022002388 -0.01925748 -0.004471745
-0.010005625 0.011431623 -0.012692332 -0.0004992484 0.017869871 -0.011988828 0.001657001 0.006738323
0.009185487 -0.0015448263 -0.016347388 0.01854944 -0.0072020567 -0.010311758 0.00808668 -0.0053262394
-0.0004298226 0.002997085 0.01662379 -0.007578734 -0.004900163 0.0035348125 -0.0069418536 0.022139493
-0.018965857 0.018014485 0.023858959 0.003996994 0.0012996994 -0.002939114 -0.012782474 0.027518205
0.011869196 -0.0044750217 -0.004307185 -0.0059296573 0.02526024 -0.0036516597 -0.015696742 0.017794505
-0.02496958 0.007937905 0.0020450877 -0.010629048 -0.0070974003 -0.025636422 -0.0065318695 -0.00060877914
-0.0904511 0.046104677 0.23109081 0.07352288 0.103031814 0.004641683 -0.12786481 -0.21079966
-0.12343707 0.17074315 -0.02038326 -0.054546557 -0.013936381 -0.015249367 0.04828145 0.10239184
0.042331416 0.03510273 -0.007365906 0.08117242 0.2808736 -0.22037484 0.0031644753 -0.14838704
-0.054964136 -0.053928673 -0.19075468 0.20273624 -0.20650844 -0.08987914 0.0871279 0.16616654
0.11922273 -0.112389676 0.03455482 -0.04967969 0.0346025 0.08639461 -0.07948582 -0.027590347
0.010023495 0.28064743 -0.18768907 -0.007019679 -0.041550614 0.15556729 0.096329205 -0.09368069
-0.09641699 0.015135583 0.16001731 -0.10254799 0.13997759 0.039473247 0.056859806 0.18303314
0.09350617 -0.038214233 0.09787191 -0.105319545 0.09832876 0.023528835 0.1471431 -0.06329068
0.030043162 -0.02458692 0.054369103 -0.024718236 0.011335522 -0.022474391 -0.05523045 0.03199369
0.11739647 -0.02702393 0.029764514 -0.044843644 0.016734635 -0.04516063 -0.038490273 -0.019021777
-0.11122871 -0.032465223 -0.031060271 0.0681898 -0.011779156 -0.013568812 0.13145474 0.0021044028
0.05067689 -0.05700903 0.024265623 -0.007020854 -0.0073104533 -0.043245602 0.024310391 -0.017807845
0.091252975 0.029690266 -0.0015524338 0.028242845 -0.02377194 -0.04706717 0.040373255 0.062275108
0.025667008 -0.011022661 0.055797726 0.01722758 -0.038810845 -0.1581617 -0.0027968613 0.09273651
0.09316188 -0.012465369 0.03904111 0.03428743 0.03826353 -0.065845095 -0.08295473 -0.041475777
-0.13494843 -0.047230713 -0.0133952135 0.007842032 -0.042134754 -0.14033584 -0.08179458 -0.021622417
0.20931576 -0.16429198 0.08128174 0.035189338 -0.00834978 -0.0018013717 -0.04948915 0.011032341
0.03561738 -0.041678227 -0.10958118 -0.05276076 -0.04301118 0.058819283 0.06955571 -0.08487476
-0.093931094 -0.19193248 0.0365022 -0.10533124 0.046498217 -0.031104358 0.073416196 -0.01882391
0.06314359 -0.027688004 -0.081706986 -0.047091514 0.05961928 0.037923187 0.013423676 -0.13118665
-0.0648993 -0.02281054 -0.031502 -0.051905397 0.04050656 0.020695841 0.07615452 0.02740684
0.0007792457 0.035275277 -0.18048906 -0.013607372 0.013330458 -0.102813445 -0.012231279 -0.14249122
0.022293543 -0.046529397 -0.025322357 0.0070226905 0.018691232 -0.05439425 -0.07421703 -0.05831369
-0.13960338 0.05108887 0.13041553 0.10730944 -0.017810611 0.024654765 -0.13056372 -0.0068326937

embedding.atom_embedding_list.4.weight f4 [10, 64]
00000000: d29b a13e ea39 9abd 20fa 963e 97c1 6ebe
00000010: f7f7 843e 1d7c efbd 490a 9b3e ebeb 6ebe
00000020: 47e7 2bbe 90d8 0c3e eaeb d53e 1d7f b9bc
00000030: 51c9 8a3e ba07 b6be 022d 673e 93c4 8dbe
00000040: ddd6 0dbe 1c8a b9be a900 323e 0025 e8bd
00000050: 5e40 a13d 9a0a 1cbd 4b81 fbbc 4248 213e
00000060: 5871 9abd ec02 d23e b1dc 69be 85dd 2f3d
00000070: 0f13 8f3e e099 05bb 0dfa 623e e3b7 c1bc
00000080: 59b1 ce3d be74 b0be dea1 9fbc c721 fd3d
00000090: ca6b 3e3e 595d f73d 330c 283d 1570 153e
000000a0: c8f3 88be 8066 d63d 00c8 2dbd 93d1 cebe
000000b0: 53c7 2ebe 847c 43bd 269a 603e ab65 a2be
000000c0: 3c57 a2bd f33e 74be 1764 69be c91e a13e
000000d0: 4751 26bc 39e0 a63c 5bef 5f3e a0c0 033f
000000e0: 6061 32be 8c8b fd3d 2bc9 8c3d e098 7e3c
000000f0: ca4c 2d3e 1826 97bc 55d6 babd c537 183e
00000100: bb76 36bf 909d 153f 998a 28bf da90 0cbf
00000110: b195 07bf dfde 683e ce47 1ebf 8f27 453f
00000120: 8ec6 193f e0c0 0fbf d02e e0be 8fe1 98be
00000130: e99e 19bf 2554 1a3f 1c48 87be eddd ed3e
00000140: 92b1 07be f4a9 ce3e 1519 29bf 00dc b8bd
00000150: 3845 38bf e0a9 243f c349 12be 5f4e 753d
00000160: afe2 0cbf 73e2 a3be 3061 e73e 8746 40be
00000170: b9d0 2bbf 32db bfbe f1a1 f5be 949f 6fbe
00000180: cfa0 813d 1aa1 1e3f 09d7 d7be f2ae e43d
00000190: a5f9 033e e996 16bf f874 d63d 3ac3 dbbd
000001a0: f114 c53e 5579 01bf 72ab e03d 48eb 233f
000001b0: 7ee0 833e 2a46 bebe e1a9 cbbe 2133 8c3e
000001c0: 5ec7 ccbe e1a0 fa3e 0ce7 b03d 4b1f cebe
000001d0: 3343 1abe 3780 45be 445d 95be 46c9 1dbf
000001e0: 24b2 e5bd 3466 22be 94c7 43be 8818 9fbe
000001f0: 75a0 edbe 92ac 963e 352a 713d 7fb3 98be
00000200: 3387 89be a2a4 173e b985 bb3e 850d ce3e
00000210: 75c5 c93d eaf1 28be 7121 4abe fc4d 67be
00000220: c7f6 543e 8be8 043f 1813 06be e009 9a3d
00000230: ddbd 133e f2e7 bbbd 30f7 e2bb 5ddd bc3e
00000240: 46d7 393d 2687 6c3e 0211 9ebd 052d f63e
00000250: b3c8 d03e ac91 00bf fd27 0d3d 0cc3 98be
00000260: 08bd 91be 5746 0cbe 716e 42be a613 cb3e
00000270: a374 95be 01ec 67bc 3e64 213e 7011 4a3e
00000280: 69af c93d 1ad7 253e 262e e63e 299a 40be
00000290: 71f4 5d3d 2fd2 1b3e 6ef6 043f c2f0 15be
000002a0: 9792 f8bd ff6e a53e b7c0 96be e4f9 c43d
000002b0: 28a9 273d fd4f 40be 0f34 5e3d e24e bc3e
000002c0: 97a4 303d 379d 49be 48d9 f23e c402 56bd
000002d0: 06bc 4b3e 00df e43e 18a6 463e f993 5c3d
000002e0: 085c a6bd ae10 02bf 54ba 3dbe f2f9 873c
000002f0: 8312 0d3e 4a3a 7cbe 19ac ab3d bc68 a23d
00000300: 1df5 0f3e 2538 e2bd b88e a5be da35 62bd
00000310: de3d a9bc b0b6 e73e 7466 003d c094 4bbe
00000320: c57d eebd ab94 d1be 5f5f 73be 6efd 333e
00000330: 6773 ed3d 0946 493d 12ac b9be 6af5 edbd
00000340: 6c76 7aba 8000 a73e 671f 38be b9a4 dabe
00000350: 74da 493e 4c99 673e 392f 1dbf e8fb 823d
00000360: fb49 5f3e 3b52 1cbe 16cd e33c 89b8 91be
00000370: 1641 eebd 8a15 9c3e 65e9 e3be 8b76 3e3d
00000380: 22fb 13bf 66ad 043d bcaa 02be f1bf c0be
00000390: f687 72be 4cba 003e c46d 69bf 5630 f43e
000003a0: 542e a13d 275a 11be 7760 093f 106b 803b
000003b0: 0e8c a3bc fdbc d13e d3c2 64be 6ba7 f93c
000003c0: c16d 773e bf62 3e3e 70c6 32bf 1c05 9fbe
000003d0: e8f3 be3c 8e38 47be 79c4 45be 0eed 62bd
000003e0: f7a2 cf3d a12e 333f 44fa b53d 2852 0f3d
000003f0: 74bd acbe 0eb3 a03d 1e2d d83e e5a6 61be
0.31564194 -0.075305775 0.29487705 -0.23316036 0.25970432 -0.116935946 0.30281284 -0.23332183
-0.16787444 0.13754487 0.4178155 -0.02264362 0.27106717 -0.3555277 0.22575763 -0.27689037
-0.13851495 -0.36238182 0.17383064 -0.11335182 0.07873605 -0.038096048 -0.0307013 0.1575022
-0.0754115 0.41017854 -0.22838093 0.042935867 0.27944228 -0.0020385906 0.221657 -0.023647254
0.1009242 -0.34464067 -0.019486364 0.12359958 0.18595806 0.120783515 0.04102726 0.14593537
-0.2674849 0.10468769 -0.042427063 -0.40394267 -0.17068224 -0.04772617 0.21933803 -0.31718192
-0.07926795 -0.23852138 -0.22792087 0.314688 -0.010151214 0.02037059 0.2186865 0.514658
-0.17419958 0.12380132 0.06874307 0.015539378 0.16923824 -0.018450782 -0.09122912 0.14865024
-0.7127492 0.58443546 -0.65836483 -0.54908526 -0.52962786 0.22741269 -0.61828315 0.77013487
0.60068595 -0.5615368 -0.43785715 -0.29859588 -0.600081 0.60284644 -0.26422203 0.46458378
-0.13251331 0.4036404 -0.660539 -0.09026337 -0.7198062 0.6432171 -0.1428595 0.059889194
-0.5503339 -0.32008705 0.45191336 -0.18776904 -0.6711536 -0.3747192 -0.47975114 -0.23400718
0.063295 0.6196457 -0.42156246 0.11166181 0.128882 -0.5882402 0.10471529 -0.10730596
0.3849254 -0.50575763 0.109702006 0.64030886 0.2575721 -0.37162906 -0.39778045 0.27382758
-0.39995855 0.48950866 0.08637819 -0.4025825 -0.15064697 -0.19287191 -0.2917272 -0.61635244
-0.11215618 -0.158593 -0.19119102 -0.31073403 -0.46411481 0.29428536 0.058878142 -0.29824445
-0.2686096 0.14808896 0.3662546 0.4024469 0.09852115 -0.16498533 -0.1973932 -0.22588342
0.20797263 0.5191733 -0.13093221 0.07521415 0.14427896 -0.091750994 -0.0069264397 0.36887637
0.045371316 0.2309843 -0.07718088 0.48081222 0.4077812 -0.5022228 0.034461964 -0.2983631
-0.28464532 -0.13698708 -0.18987443 0.39663428 -0.2919055 -0.014155389 0.15760896 0.19733214
0.0984791 0.16195336 0.44957083 -0.18808807 0.054188196 0.15216897 0.5193852 -0.14642623
-0.12137335 0.32311246 -0.29443905 0.09617975 0.040932804 -0.18780513 0.054248866 0.36778933
0.043125715 -0.19688879 0.47431397 -0.05224873 0.19895944 0.44701385 0.19399297 0.053852055
-0.08123022 -0.508067 -0.1852811 0.016598675 0.13776593 -0.2463161 0.083824344 0.07930133
0.14058347 -0.11045865 -0.32335448 -0.055227138 -0.020659383 0.45256567 0.031347707 -0.19880962
-0.116450824 -0.40933737 -0.2376685 0.17577145 0.11594277 0.049139056 -0.36264092 -0.11619075
-0.00095543894 0.3261757 -0.17980729 -0.42703798 0.1971224 0.22617072 -0.6140018 0.063957036
0.21805565 -0.15265743 0.027807754 -0.28461102 -0.11633508 0.30485183 -0.44514003 0.04649977
-0.57805073 0.032391928 -0.12760442 -0.3764644 -0.23684677 0.12571067 -0.91183114 0.47693127
0.078701645 -0.14194547 0.5366282 0.003919013 -0.019964244 0.409645 -0.22339945 0.030475339
0.24162962 0.18592356 -0.6983404 -0.31058586 0.023309663 -0.19455168 -0.1931323 -0.055401854
0.10138505 0.69993025 0.08885625 0.03499046 -0.3373829 0.07846652 0.42221922 -0.22036321

embedding.atom_embedding_list.5.weight f4 [6, 64]
00000000: decb 153e 21ad 24be 0477 c2bc 4161 b53d
00000010: ff7b 8b3d 6c21 a9bd cb7f 36be ef4e 213d
00000020: 91d1 853e 8c5d 0dbe 01e9 5e3e ccb4 e93c
00000030: 15a1 8b3d 33ab c5bc b42d 7ebd e791 8a3c
00000040: 3d08 37be 5dec 3fbe a364 d33c a872 32be
00000050: cb23 39be 1c4b 293e 25e0 313d f7f2 fc3d
00000060: a83a 9ebe d642 08be e422 09bd de44 25bd
00000070: 40c0 72be 7fb3 02bd aa49 003c b916 f7bd
00000080: fd87 633e 78c8 afbc ae65 d13d e0a8 373e
00000090: b303 ccbd 2cfa d83d 11c3 9a3d 3cbe 97bd
000000a0: 600d 15be 142b 5fbe 1f87 423e 9b58 213e
000000b0: 1aa9 143e d951 913e d0c1 c5bd 2b35 e13c
000000c0: 1cbc 13be 1c3f 613d 09b0 a73d e14d ffbd
000000d0: 8950 163e a4c9 bf3c 75a5 bbbe 8357 0dbd
000000e0: b632 76bd 15e0 883d d6a8 563e c121 9cbe
000000f0: 2957 66be c7c7 a4bd 3a12 283e 02cc 693e
00000100: ff57 0500 2c5a 0500 5f67 0500 1169 0500
00000110: 6d62 0500 2e6f 0580 655d 0500 6d9c 0500
00000120: ad69 0580 196b 0580 5b47 0600 9c6e 0500
00000130: 0163 0580 f257 0580 6d65 0500 935a 0580
00000140: db68 0500 b459 0500 765c 0500 c365 0500
00000150: b05e 0500 5363 0500 bf5e 0580 2dcd 0600
00000160: d8e4 0500 8080 0580 2a6d 0500 ae6c 0580
00000170: 1080 0500 da6c 0500 fb62 0500 239e 0580
00000180: d767 0580 548b 0500 a964 0580 046e 0580
00000190: 3081 0580 a35e 0500 baad 0580 5663 0580
000001a0: 7d66 0500 cc68 0500 6264 0500 7269 0500
000001b0: e16f 0580 885a 0500 2b67 0500 5a64 0500
000001c0: a25e 0500 fa5e 0680 4658 0500 297f 0500
000001d0: fa61 0500 a36d 0500 7d66 0500 bb6c 0580
000001e0: b477 0580 b95f 0500 1067 0500 e4af 0580
000001f0: 5865 0580 67c2 0580 fce6 0500 8769 0500
00000200: d2ef 6dba 11c6 9dbb 8d0c dcbc 36f9 273c
00000210: a1da 8cbc 858e ae3c 1205 e63c 492f 303c
00000220: 3ea7 a4bc cd9d 47bb 9ac5 1eb9 2cd9 9f3c
00000230: 65a2 ab3c 4469 953b 807c c8bc 2055 703c
00000240: afff 1c3d 8f08 b73c 40ab 0e3b 1c20 923b
00000250: d11e 81bb 772f 5f3c cc06 6fbd c74a 863c
00000260: 61cb 163c d883 aa3c a38a c03c 0a27 b2bc
00000270: 2d53 993c f9af 9fb8 2806 07bc 051e 883b
00000280: 5282 35bd 9ca1 933b 55e3 24bb 2bf9 91bc
00000290: 9785 36bc bba8 c83b 544b 003c 504d 4b3c
000002a0: 798f b6b9 9cf6 f2bc ef1c a83c 205a 0ebc
000002b0: 3917 a03c d6fb 343d 630f 17bd 84c4 d63c
000002c0: db27 dbb9 e5fe aa3b 714e 59bc ab55 fc3b
000002d0: aea6 b1bc 2370 f73c 802b ad3b 6e7d 2ebc
000002e0: 24c9 3d3d 592f 163c ad29 b8bc 1943 493c
000002f0: 3112 6b3b 40f8 ea3c c69b 003d ea9d ccbb
00000300: c85f 0500 f15c 0500 a467 0580 5d5d 0580
00000310: fa6a 0500 896f 0500 6759 0500 fd65 0500
00000320: 356e 0500 655c 0500 885d 0500 335c 0500
00000330: 4065 0580 e55e 0580 a567 0580 1760 0580
00000340: eb8f 0580 a170 0500 e763 0500 7e74 0580
00000350: 365d 0580 3ebd 0500 0c62 0500 886a 0580
00000360: 4b5f 0580 7560 0500 879c 0680 8c72 0500
00000370: f170 0500 105f 0580 f657 0580 f95c 0500
00000380: 4569 0580 e565 0500 135a 0580 7462 0580
00000390: 325c 0500 5b89 0580 106a 0580 cc86 0500
000003a0: e76b 0580 3d57 0580 56a5 0500 e56f 0500
000003b0: 206a 0580 ff91 0500 565a 0580 0cd3 0680
000003c0: ae5a 0500 6769 0580 c55e 0500 b75f 0580
000003d0: 7983 0500 a669 0500 5575 0580 035d 0500
000003e0: 1467 0500 e958 0580 966c 0500 3a58 0580
000003f0: 8b67 0500 455d 0580 e5d8 0580 116c 0580
0.1462855 -0.16081668 -0.023738392 0.0885644 0.0681076 -0.08258328 -0.17822187 0.039381918
0.2613645 -0.13805217 0.21768571 0.028528593 0.06817833 -0.024129486 -0.062055305 0.016915275
-0.17874236 -0.18742509 0.025804823 -0.1742655 -0.1808006 0.16532558 0.04342665 0.12351029
-0.30904126 -0.13306746 -0.03348054 -0.04034888 -0.2370615 -0.031909462 0.007830063 -0.12064881
0.22219844 -0.021457896 0.10224472 0.17935514 -0.09961643 0.105945915 0.07556737 -0.07409331
-0.14555883 -0.21793777 0.18996857 0.15756457 0.14517632 0.28382757 -0.096561074 0.027491173
-0.14427227 0.054991826 0.08187873 -0.12466026 0.14679159 0.02341158 -0.3664967 -0.034507286
-0.060106955 0.06683365 0.20962843 -0.30494502 -0.22494186 -0.08045917 0.16413203 0.22831729
4.90745e-40 4.91525e-40 4.9626e-40 4.96868e-40 4.94486e-40 -4.99061e-40 4.92681e-40 5.15292e-40
-4.97087e-40 -4.97597e-40 5.7661e-40 4.98857e-40 -4.94693e-40 -4.90726e-40 4.95562e-40 -4.9167e-40
4.96793e-40 4.91357e-40 4.92346e-40 4.95683e-40 4.93145e-40 4.94808e-40 -4.93166e-40 6.24616e-40
5.41271e-40 -5.05275e-40 4.98338e-40 -4.98164e-40 5.05118e-40 4.98226e-40 4.94685e-40 -5.15906e-40
-4.96428e-40 5.09159e-40 -4.95288e-40 -4.98644e-40 -5.05521e-40 4.93127e-40 -5.21499e-40 -4.94813e-40
4.95943e-40 4.96772e-40 4.95188e-40 4.97004e-40 -4.99312e-40 4.91654e-40 4.96187e-40 4.95177e-40
4.93125e-40 -5.85084e-40 4.90844e-40 5.04794e-40 4.94325e-40 4.98508e-40 4.95943e-40 -4.98183e-40
-5.02119e-40 4.93516e-40 4.9615e-40 -5.22275e-40 -4.95533e-40 -5.28916e-40 5.42039e-40 4.97034e-40
-0.00090765685 -0.004814871 -0.026861453 0.010252288 -0.017194094 0.021308193 0.02807859 0.010753461
-0.020099279 -0.0030459047 -0.00015141667 0.019512735 0.02095146 0.004559668 -0.024473429 0.014668733
0.038329776 0.022342948 0.0021769553 0.004459394 -0.003940441 0.013622156 -0.05835609 0.016393078
0.009203763 0.020814821 0.023503607 -0.02174713 0.01871642 -7.614488e-05 -0.008241214 0.004153969
-0.044313736 0.0045053493 -0.0025159915 -0.017819008 -0.011140249 0.00612363 0.00783046 0.012408569
-0.0003482064 -0.029658608 0.02052161 -0.00868848 0.019542323 0.044185482 -0.03687991 0.026216753
-0.0004180063 0.005218374 -0.013263331 0.007700642 -0.021685924 0.030204838 0.0052847266 -0.010650022
0.0463344 0.009166562 -0.02248081 0.012284064 0.0035868997 0.028682828 0.031398557 -0.0062444108
4.93537e-40 4.92519e-40 -4.96357e-40 -4.9267e-40 4.97553e-40 4.99189e-40 4.91249e-40 4.95764e-40
4.98712e-40 4.92322e-40 4.9273e-40 4.92252e-40 -4.95499e-40 -4.93219e-40 -4.96358e-40 -4.93648e-40
-5.10806e-40 4.99581e-40 4.95016e-40 -5.00967e-40 -4.92615e-40 5.27065e-40 4.9435e-40 -4.97394e-40
-4.93362e-40 4.9378e-40 -6.07164e-40 5.00269e-40 4.99693e-40 -4.9328e-40 -4.90732e-40 4.9253e-40
-4.96941e-40 4.9573e-40 -4.9149e-40 -4.94496e-40 4.92251e-40 -5.08451e-40 -4.97226e-40 5.07533e-40
-4.97886e-40 -4.90473e-40 5.18489e-40 4.99318e-40 -4.97248e-40 5.11551e-40 -4.91584e-40 -6.26722e-40
4.91707e-40 -4.96989e-40 4.93174e-40 -4.93513e-40 5.06341e-40 4.97077e-40 -5.01268e-40 4.92544e-40
4.96155e-40 -4.91072e-40 4.98131e-40 -4.90827e-40 4.96322e-40 -4.92636e-40 -5.36985e-40 -4.97944e-40

embedding.atom_embedding_list.6.weight f4 [6, 64]
00000000: 94f6 353e 1757 bb3d 448e 403e 5fbb c9bd
00000010: 7055 633e 2566 ac3e 46f1 4bbe dc8d 1f3e
00000020: dfc3 623e 02b5 61be d65b 3dbe 0f5d e23b
00000030: 6902 083e dd5d acbd 0d75 08bf e372 923e
00000040: 8929 8fbc d5ee bd3e 9caf 46be da03 d6bc
00000050: 60ea 953b 65cc 43bd 8c8a b1bd e78f d13c
00000060: 56af e2bb e2f4 a2bc 0fa7 e7bd 7ed6 073e
00000070: 85be 9fbe 672b 87bd 2c2f bc3d b3fb 22be
00000080: ad41 6bbe 8d51 033e 3bcd 4bbd 4c30 e3bc
00000090: ddd4 e63d 5122 71be bad0 863e 2df8 2a3e
000000a0: 3943 34be 771f a13d 1de3 c53e 8f2e be3e
000000b0: 6cbf e63d 29f8 e93b 2362 ddbe fafa 483f
000000c0: 33f4 853d b0a7 3f3e 94a4 83bd b51e 26bd
000000d0: 220b 9c3e 183f 353d 8b73 44bd 0be1 0fbe
000000e0: 5e07 aebc 835d 96bd d1ab d9be a8d7 41be
000000f0: 4cc2 57be 2d10 61be 8b42 143d 0287 bfbc
00000100: 3297 ee3c 17c8 cebc e7d3 a43c 261b 19bc
00000110: 3618 773e b468 c9bd 2dd4 ddbd 79fa 4cbd
00000120: 8210 b33d 7c66 b23c dfaf 42be e403 723d
00000130: cdfe 9dbd 1502 9dbd 1399 41be eb4c 76be
00000140: f782 fe3c 3b66 cebd 75f6 74bd 2bb8 eabc
00000150: 0852 423e 0da3 893b a7e9 573d 6bd7 f23d
00000160: 3dc4 0d3e 10af 0bbe bd88 d8bd 7543 493c
00000170: eb59 93bd a3e4 773e 7934 fabd f2bf afbd
00000180: 824d 2fbd 8292 213e cdcf 3b3e de55 b43d
00000190: a124 a03d c6bd 833c fca3 72bd 1bca 41bd
000001a0: 3efb af3b 9629 603e 5cdc 883e 69f8 963e
000001b0: 057e 523c 8b73 a0bd c37c a0bc 9fa9 11bd
000001c0: 6341 e13d 6de7 9bbd b6e8 083e f798 3bbe
000001d0: f29c 1fbe 0371 8cbe ef64 debb 8432 14be
000001e0: 333f 2dbe 43bf aebd e318 1ebe cc42 623e
000001f0: 0a71 2b3c 3793 debd 147c a6be f454 83be
00000200: 9def 46be ea57 113d 2b3c 9ebc 7562 3cbe
00000210: 5762 e7bc 3b44 9cbe e3b2 dabc 9981 2c3d
00000220: cd4a ba3c a4e4 193e ca7c c53d c8da cdbe
00000230: 19ca b13d a656 a8bd 2672 b73c f326 733e
00000240: 2b02 f83c 8fa0 8cbe 0428 c73d 6636 4ebd
00000250: fb34 91be b1e2 ed3d 9f87 093e 96f6 aebd
00000260: 2cc1 0c3e 4f89 91bd 3f07 243d a0e8 8f3d
00000270: 0908 443d b4b9 0e3e 8a49 b2bd d5b9 ba3d
00000280: 56dd 5e3e df29 b1bd 8136 b2be db9f 933a
00000290: 0459 80bb 5b5c 76be bb7a a4be d55f 293e
000002a0: a3ba 083c 6133 5abe 749a 03bc 4c3a a63a
000002b0: 4a7c 0abe d36f d43d 8a15 073e d801 febd
000002c0: 06f8 c23d 374b ff3d 1826 5b3e 3305 773d
000002d0: f589 00be ce5b 11be 41a6 9cbd 556f ab3e
000002e0: 5933 dabd 7448 593e 7335 0c3d 1c9d 6bbd
000002f0: f2b2 e5bc 2cf1 30be 8f36 153d 3df3 8abd
00000300: 3598 09be 94b3 aa3d 96ff b3bd 7189 85bd
00000310: 833f ccbd ce9d 27bd 854b c5bc 62e9 063e
00000320: 51fb 383e d25d f4bc 586d dd3d 5f99 8bbc
00000330: 8034 743d b80c cb3c f25e 25be ec29 1a3d
00000340: 0230 11bd 1f3d 313e b55d 8cbd 7301 ec3d
00000350: f139 4ebe ada0 bd3d 9f2c 7b3c ec26 70bd
00000360: 5e45 583c 4f0d 8cbc b0f1 013e 463d 87bc
00000370: f559 70bd e550 d3bd 63b3 fdbb 960d f63d
00000380: 8a30 0a3c 570c 923d 04b6 e4bc 0c75 173d
00000390: 3b3a 11bb bb5a a1bb 9116 98bd 4fd5 033e
000003a0: 39fe cfbb b381 efbd bdac 883e 4b8c 4f3d
000003b0: 0b4e e4bb e10c 93bc 42ab c1bd ee7a 983e
000003c0: bff7 583d bc19 e93d 1695 af3d 850a 13bd
000003d0: dfef 203c f1cb a9bd 4d7a 68bd 0510 2e3c
000003e0: 54ff 9bbd 1105 d2bd 3a92 f1bd 0fe9 f4bd
000003f0: 70e5 36bd a1ab f0bd 9f42 2f3d 1502 fa3c
0.17769843 0.091474704 0.1880427 -0.09850191 0.2220056 0.3367168 -0.19916257 0.15581459
0.22145031 -0.22041705 -0.18492064 0.006908066 0.1328217 -0.084163405 -0.53303605 0.28603277
-0.01747586 0.37096277 -0.19402927 -0.026124883 0.004575059 -0.047802348 -0.08669004 0.025581313
-0.0069178743 -0.01989216 -0.11311161 0.13265416 -0.31200042 -0.06600075 0.09188685 -0.15916328
-0.22974272 0.12824078 -0.04975627 -0.02773299 0.11271069 -0.23548247 0.2633112 0.16696234
-0.17603768 0.078673296 0.38649836 0.37144896 0.112669796 0.0071401787 -0.43238935 0.7850796
0.06540718 0.18716311 -0.06427875 -0.04055663 0.30477244 0.044249624 -0.047961753 -0.14050691
-0.021243747 -0.07342055 -0.42513898 -0.18929923 -0.21070212 -0.21978827 0.036196273 -0.023379806
0.02912483 -0.025241895 0.020120574 -0.009344852 0.2413033 -0.09834424 -0.10831485 -0.050043557
0.08743383 0.021777384 -0.19012402 0.05908574 -0.07714615 -0.07666413 -0.1890605 -0.2405278
0.031068308 -0.10078093 -0.059805352 -0.028652271 0.18976605 0.0042003454 0.052713063 0.11857494
0.1384439 -0.13641 -0.10572956 0.012284149 -0.07194885 0.24208312 -0.122170396 -0.085815325
-0.042798527 0.15778545 0.18340988 0.0880544 0.078194864 0.016081702 -0.05923842 -0.047311883
0.0053705266 0.21890864 0.2673062 0.29486397 0.012847428 -0.07834538 -0.019590741 -0.035562154
0.109988 -0.076125 0.13370022 -0.1832007 -0.15587214 -0.2742997 -0.0067869346 -0.14472395
-0.1691864 -0.08532574 -0.15439181 0.22095793 0.010463962 -0.10867923 -0.3251654 -0.25650752
-0.19427343 0.035484232 -0.0193158 -0.18396933 -0.028245134 -0.30520806 -0.026696628 0.04211578
0.022740746 0.15028626 0.09642942 -0.4020598 0.08681125 -0.08219652 0.022393297 0.23745327
0.030274471 -0.27466246 0.09724429 -0.050344847 -0.28360733 0.116155036 0.13430642 -0.08543126
0.13745564 -0.07106268 0.040045973 0.070267916 0.047859225 0.13938028 -0.08705433 0.09117476
0.2176412 -0.086505644 -0.34807208 0.0011262851 -0.0039168615 -0.24058668 -0.32124886 0.16540463
0.008345279 -0.21308662 -0.00803243 0.0012682169 -0.13523975 0.10372891 0.1319181 -0.124026954
0.09519963 0.12465518 0.2140125 0.060307693 -0.12552626 -0.14195177 -0.07648898 0.33483377
-0.10654325 0.21219045 0.03423066 -0.057522878 -0.02803943 -0.172795 0.036428984 -0.06784675
-0.13436969 0.08335033 -0.087889835 -0.065203555 -0.099730514 -0.04092198 -0.024083862 0.13174966
0.1806462 -0.029829893 0.10811871 -0.017040906 0.05962038 0.024786338 -0.161495 0.037637636
-0.035446174 0.17308472 -0.06853811 0.11523714 -0.2013929 0.09259162 0.015330463 -0.05863087
0.013200132 -0.01709619 0.12689853 -0.01650871 -0.05867954 -0.10318164 -0.007742332 0.1201431
0.008434424 0.0713126 -0.027918823 0.03697686 -0.0022159952 -0.004924146 -0.07426179 0.1287434
-0.0063474444 -0.1169466 0.2669429 0.050670903 -0.0069673113 -0.017950477 -0.09456493 0.29781288
0.052970644 0.113818616 0.08573358 -0.035898704 0.009822815 -0.08290852 -0.05675726 0.010623937
-0.07617059 -0.102548726 -0.11795469 -0.11958515 -0.044652402 -0.117514856 0.042788144 0.03051857

embedding.atom_embedding_list.7.weight f4 [2, 64]
00000000: eacf 3fbe 661b 213e 5840 8b3d b1ec b7bd
00000010: b7b2 333e 922b 1c3e c625 2e3d d957 02be
00000020: b337 963e df22 353e 32cf ecbd 917b 153e
00000030: a558 023e 14cc 90be 59bc 773d 56a9 75be
00000040: 1a18 053e 2b2c 563e ad7b 8bbe 92a0 e33d
00000050: 24ad 3d3e 5c4d 28be 6e64 33be 2563 783e
00000060: f739 bd3d de2a d23d ac23 98bd a035 6b3e
00000070: a0a3 7c3c f582 05be aa75 e7bd 04a9 51be
00000080: 31f8 80be 6988 ec3d f57d 873d f467 a83d
00000090: 78ac f8bd 2256 03be 4fab 0e3e d64c 3e3d
000000a0: e7d2 2ebe b9d1 863e a123 553e 7978 873e
000000b0: 8fba 05be 644c 97bc f334 263e 22d6 443e
000000c0: cc2d 353e f0c9 30be 6830 94be 009e 9a3d
000000d0: 3f6a 8fbd bd45 c0bd 453b 703e 4f47 f03d
000000e0: 387f 94be 5575 a2bd ed81 89be 3fd4 4b3d
000000f0: 61a3 a3bd 8b19 ec3d 596a aabe 16f9 36bd
00000100: 74f2 653e 9e00 27be 9b2a a9be a837 46be
00000110: 9814 09bf 4130 fabd c3d7 453e 7d4c f13d
00000120: 1859 633d 3e3b a1be 4ef4 513e 8e2a cabe
00000130: fb21 ffbe f933 ff3e a0f3 033e b549 f13e
00000140: 773d e93d 5482 4ebd b6cd 953e 31c3 8ebc
00000150: a321 60bd 210f 893e 3fae b9be 1aae 7cbe
00000160: 8df5 213d aef5 9abd 6045 af3e 09eb 26bf
00000170: e6fb 453e 254d fcbe 1f07 81be 6a07 9abd
00000180: cbfc 603e 7fa5 e4bd 7622 14bf 289e 0cbf
00000190: c2f9 50bd eda0 1abe 108c 7abe 67a2 823e
000001a0: 645f 9e3e 87c6 0abf 8d43 53bd 9332 5cbf
000001b0: b95f 133e 27aa c33e 923a 4bbd 12ba e53d
000001c0: 9870 8a3e ca3b b53e 8ee5 2e3e 57d7 663d
000001d0: 6312 d33e 745a 113f 5e22 09bf d4e0 16be
000001e0: fdae b73e 94d0 eb3e a3e1 2a3f b0f8 03bf
000001f0: c3ff 48be 48e7 14be 7bc2 363f 11e2 c23e
-0.18731657 0.15733108 0.06799382 -0.08980692 0.17548643 0.15250996 0.042516492 -0.12728824
0.2933937 0.17689084 -0.11562957 0.14597918 0.12729128 -0.282807 0.060482357 -0.23990378
0.12997475 0.20915286 -0.27242795 0.11114611 0.18523079 -0.1643576 -0.1751878 0.2425657
0.092395715 0.102620825 -0.07428679 0.22969675 0.015419871 -0.13038237 -0.113017395 -0.2047463
-0.25189355 0.11549456 0.06615821 0.082229525 -0.12142271 -0.12825826 0.13932537 0.046459995
-0.1707264 0.2633188 0.20814373 0.264591 -0.13059448 -0.018469043 0.16231136 0.1922231
0.17693251 -0.17264533 -0.2894318 0.07549667 -0.07002687 -0.093883015 0.2346011 0.11732351
-0.2900331 -0.079325356 -0.26856938 0.04976296 -0.079901464 0.115283094 -0.33284262 -0.04467114
0.2245577 -0.16308829 -0.33040318 -0.19357169 -0.5354705 -0.12216235 0.19320588 0.11782167
0.05550489 -0.3149051 0.20503351 -0.39485592 -0.49830613 0.4984434 0.12885904 0.47126547
0.113886766 -0.05041726 0.29258507 -0.017427059 -0.05471958 0.26769355 -0.36265752 -0.2467579
0.039540816 -0.07566391 0.34232616 -0.65202385 0.19334373 -0.49277607 -0.25200745 -0.07520945
0.21971433 -0.111643784 -0.57865083 -0.5492883 -0.051019438 -0.15100451 -0.24467492 0.25514528
0.30932152 -0.5420918 -0.051578093 -0.8601467 0.14391984 0.38215753 -0.049616404 0.11217131
0.27039027 0.35397178 0.17079756 0.056357708 0.41224965 0.56778646 -0.53568065 -0.14734203
0.35875693 0.4605757 0.66750544 -0.5155134 -0.19628815 -0.14541352 0.71390504 0.380631
