visualizations/best_model_min.pth (torch, 101430 bytes, 16 tensors)

embedding.atom_embedding_list.0.weight f4 [119, 64]
0.0021282875 0.004758103 0.0050663557 0.013886348 0.0009879863 -0.0081808325 0.01665879 -0.016307902
0.01721934 0.013392957 0.016218819 0.004256433 0.026310196 -0.029177519 0.016182266 0.004868652
-0.00025353814 -0.011004206 0.0025145225 -0.01002571 0.0023136188 -0.003098875 0.02489707 -0.026150055
-0.015344407 0.0006947291 0.009005729 0.0008428747 -0.008022395 0.0027998104 0.017794644 0.025339069
0.0010929209 -0.016959285 -0.017443653 -0.023075456 -0.015359503 0.009751734 0.02349883 0.015744466
-0.0015490789 -0.0053451224 -0.011428989 -0.021988936 -0.021055968 -0.015118805 0.020357538 0.012031378
0.016914397 0.016567407 0.026556736 0.0119982455 -0.014219429 0.00203968 -0.0016714026 0.02627003
-0.015560511 -0.003311806 0.0009961809 -0.02503286 0.016008362 -0.023210887 -0.017816113 0.021470245
-5.12466e-40 -4.93267e-40 4.96106e-40 -4.913e-40 -4.9918e-40 -5.00998e-40 -4.96652e-40 -4.92718e-40
-5.17439e-40 5.01564e-40 4.94452e-40 5.01996e-40 -5.91492e-40 5.01791e-40 -4.97069e-40 -5.6968e-40
-5.13855e-40 4.9063e-40 4.99194e-40 5.05148e-40 -4.97373e-40 -4.9459e-40 -4.98984e-40 -6.06748e-40
-5.13203e-40 5.30258e-40 5.35646e-40 5.1335e-40 -4.9139e-40 -5.85419e-40 -5.18122e-40 -4.99934e-40
-4.94777e-40 -5.03192e-40 -5.14166e-40 5.07597e-40 -5.29929e-40 5.0783e-40 4.9556e-40 4.97573e-40
4.98593e-40 -5.75753e-40 -5.04919e-40 -5.1282e-40 -4.91517e-40 -4.97165e-40 -4.99703e-40 -5.05332e-40
-4.92139e-40 -5.10747e-40 -5.01015e-40 4.96054e-40 -4.94232e-40 5.06393e-40 5.24273e-40 -5.1255e-40
5.0059e-40 -5.18385e-40 -4.92698e-40 -5.31288e-40 5.09855e-40 4.9444e-40 -4.98352e-40 -5.08978e-40
0.06331642 0.009119442 -0.08056993 0.02321116 0.02586901 0.18083964 0.20909792 -0.05339209
-0.0053598583 0.04395972 -0.27290654 0.061058123 -0.08248817 -0.1485045 0.1500106 -0.18849994
0.14916521 -0.09487667 -0.062145956 0.11270503 0.05290135 -0.13297148 -0.09399316 0.11756182
-0.027643772 0.002120668 0.09979491 0.026728095 -0.070043646 0.19575575 -0.060375858 -0.19914164
-0.26898676 -0.2118236 0.15618922 -0.058177844 -0.33818695 -0.006828812 0.08045266 -0.17160945
-0.0267602 0.28181913 0.038504455 -0.07065839 0.1310228 0.046906177 0.045901526 -0.056297675
0.1640739 -0.26028177 -0.19292125 0.10277635 0.2433097 -0.091938645 0.24677931 0.09073594
-0.01231086 -0.017747782 -0.026464608 0.07931875 0.18217614 -0.0749761 -0.15172331 0.3685731
5.47347e-40 4.94698e-40 -4.91029e-40 4.91225e-40 4.93038e-40 -5.04086e-40 4.99874e-40 5.15518e-40
4.99113e-40 -4.97806e-40 -4.95969e-40 5.88806e-40 4.9544e-40 5.11428e-40 4.913e-40 -4.91096e-40
-5.07206e-40 5.01968e-40 4.9754e-40 4.90812e-40 4.95398e-40 -5.00862e-40 -4.99822e-40 -5.0013e-40
4.91746e-40 4.90488e-40 5.03693e-40 4.95592e-40 5.14551e-40 5.03386e-40 4.98646e-40 -4.92982e-40
4.95264e-40 4.97608e-40 5.15902e-40 -4.91937e-40 -4.92527e-40 -5.14376e-40 4.96226e-40 -4.95547e-40
4.95523e-40 -5.02762e-40 5.92085e-40 4.9769e-40 4.95789e-40 -5.04613e-40 4.95677e-40 -4.91297e-40
-4.90736e-40 -5.3563e-40 -5.37981e-40 -4.98773e-40 5.20016e-40 -4.90677e-40 4.95359e-40 -4.93383e-40
-5.79217e-40 5.06665e-40 5.0181e-40 4.92596e-40 -4.97207e-40 -5.00744e-40 -5.01015e-40 -4.97129e-40
00000000: bd7a 0b3b dce9 9b3b ac03 a63b 9183 633c
00000010: 527f 813a e608 06bc 0478 883c 2698 85bc
00000020: 930f 8d3c 226e 5b3c 54dd 843c 8c79 8b3b
00000030: 7b88 d73c b105 efbc ac90 843c 3789 9f3b
00000040: 50ed 84b9 fc4a 34bc b0ca 243b e042 24bc
00000050: 15a0 173b 7f16 4bbb f1f4 cb3c a438 d6bc
00000060: 1c67 7bbc 7b1e 363a c48c 133c 5df4 5c3a
00000070: 5d70 03bc 067d 373b 13c6 913c e193 cf3c
00000080: 5740 8f3a 33ee 8abc fee5 8ebc bd08 bdbc
00000090: 6da6 7bbc bdc5 1f3c 9e80 c03c 8afa 803c
000000a0: 760a cbba 2326 afbb a740 3bbc 2422 b4bc
000000b0: 917d acbc ddb4 77bc dac4 a63c 421f 453c
000000c0: 1090 8a3c 5fb8 873c 838d d93c 4a94 443c
000000d0: 9cf8 68bc 27ac 053b f712 dbba 3f34 d73c
000000e0: 83f1 7ebc e20a 59bb 4992 823a b611 cdbc
000000f0: f823 833c c224 bebc 19f3 91bc 5ee2 af3c
00000100: 8c94 0580 075f 0580 f166 0500 8b59 0580
00000110: 836f 0580 9474 0580 7768 0580 7f5d 0580
00000120: 69a2 0580 2876 0500 5562 0500 5c77 0500
00000130: d770 0680 ca76 0500 a069 0580 0934 0680
00000140: 6b98 0580 ad57 0500 8d6f 0500 2680 0500
00000150: 796a 0580 b762 0580 f76e 0580 5e9b 0680
00000160: 9a96 0580 25c6 0500 2ad5 0500 0397 0500
00000170: cc59 0580 e95f 0680 50a4 0580 9d71 0580
00000180: 3d63 0580 b27a 0580 4999 0580 f986 0500
00000190: 3ac5 0580 a087 0500 6b65 0500 086b 0500
000001a0: e06d 0500 f744 0680 827f 0580 8995 0580
000001b0: 265a 0580 e569 0580 f870 0580 a980 0580
000001c0: e25b 0580 c18f 0580 a074 0580 cc66 0500
000001d0: b861 0580 9e83 0500 76b5 0500 c894 0580
000001e0: 7173 0500 0ca5 0580 715d 0580 04c9 0580
000001f0: 458d 0500 4c62 0500 346d 0580 d38a 0580
00000200: 0aac 813d b669 153c d901 a5bd 5525 be3c
00000210: 3feb d33c 072e 393e c41d 563e aab1 5abd
00000220: c0a1 afbb 1b0f 343d 68ba 8bbe 1518 7a3d
00000230: 8fef a8bd 9011 18be 619c 193e 2106 41be
00000240: c4be 183e b34e c2bd c28c 7ebd e5d1 e63d
00000250: 16af 583d ad29 08be 7c7f c0bd 40c4 f03d
00000260: 3175 e2bc e8fa 0a3b 4661 cc3d e1f4 da3c
00000270: 0b73 8fbd 3274 483e ad4c 77bd c9eb 4bbe
00000280: a2b8 89be 49e8 58be 11f0 1f3e e44b 6ebd
00000290: d726 adbe 3ac4 dfbb 5dc4 a43d 63ba 2fbe
000002a0: 3538 dbbc 994a 903e d9b6 1d3d 59b5 90bd
000002b0: d72a 063e b120 403d 3d03 3c3d 6498 66bd
000002c0: fd02 283e a743 85be 268d 45be 687c d23d
000002d0: 2e26 793e 544a bcbd b7b3 7c3e c4d3 b93d
000002e0: 7db3 49bc cc63 91bc 4ecc d8bc de71 a23d
000002f0: 628c 3a3e 128d 99bd 5b5d 1bbe 9db5 bc3e
00000300: c8f5 0500 0463 0500 ca58 0580 5659 0500
00000310: 645e 0500 307d 0580 7271 0500 0e9d 0500
00000320: 536f 0500 ae6b 0580 8f66 0580 5a69 0600
00000330: 1665 0500 a791 0500 8b59 0500 fa58 0580
00000340: e285 0580 4877 0500 f06a 0500 2f58 0500
00000350: f864 0500 3374 0580 4d71 0580 2972 0580
00000360: ca5a 0500 4857 0500 177c 0500 8265 0500
00000370: 5c9a 0500 3c7b 0500 066e 0500 3c5e 0580
00000380: 9864 0500 216b 0500 209e 0500 525b 0580
00000390: f75c 0580 df99 0580 4767 0500 6265 0580
000003a0: 5165 0500 7f79 0580 7e72 0600 5b6b 0500
000003b0: 0f66 0500 a87e 0580 bf65 0500 8959 0580
000003c0: f957 0580 1ed5 0580 acdb 0580 606e 0580
000003d0: 98a9 0500 cf57 0580 dc64 0500 5a5f 0580
000003e0: 9f4e 0680 6084 0500 d876 0500 285d 0500
000003f0: 036a 0580 df73 0580 a074 0580 cb69 0580

embedding.atom_embedding_list.1.weight f4 [5, 64]
-0.05698108 0.086913526 0.02893975 0.16793492 0.04422951 0.0036695134 0.07714583 0.1405974
-0.3206178 -0.19090231 0.17377062 -0.0009377094 0.14800352 0.1670294 -0.04341438 0.05167675
0.046100177 0.06498567 0.20248304 -0.08301722 0.01361306 -0.088132225 -0.24167326 0.005635376
0.1303935 0.0086105615 -0.06749337 0.17758961 0.0189246 0.046049453 0.021811444 0.13418812
-0.06707622 0.041975748 0.08602305 -0.17302315 0.2582898 0.26601702 -0.18599217 -0.02769708
-0.08338134 0.023796368 -0.23538172 -0.10597972 0.19941704 0.18919766 -0.13651386 0.09672303
-0.004395271 0.0053680604 -0.17230514 0.017198116 0.07585211 0.27246392 -0.0004270675 0.17964096
0.23194326 0.05342824 -0.030044891 -0.016304564 0.22849199 -0.076646864 -0.08832047 -0.044515926
-4.94957e-40 4.92328e-40 -5.00454e-40 -5.94686e-40 -4.97967e-40 -4.93673e-40 -4.97886e-40 -4.95331e-40
4.90977e-40 -4.95889e-40 -4.95676e-40 4.91475e-40 5.00987e-40 4.93457e-40 4.96788e-40 4.93366e-40
5.10838e-40 4.9745e-40 4.93286e-40 -4.98376e-40 -5.64493e-40 4.93783e-40 5.03754e-40 4.9735e-40
-5.00604e-40 4.9217e-40 4.9064e-40 4.9586e-40 5.01652e-40 4.97342e-40 4.97733e-40 -4.93477e-40
-4.9802e-40 4.93366e-40 -5.41516e-40 5.07221e-40 -5.68427e-40 4.93023e-40 4.94255e-40 4.91937e-40
-4.90763e-40 -5.02286e-40 -4.92608e-40 6.02497e-40 4.94939e-40 -4.9181e-40 -4.90478e-40 4.95831e-40
4.98162e-40 -4.91662e-40 5.1503e-40 4.92832e-40 -4.90464e-40 4.94329e-40 5.01457e-40 4.95781e-40
-4.96022e-40 5.0065e-40 4.94782e-40 4.965e-40 -4.9615e-40 -6.09776e-40 -4.97663e-40 4.99716e-40
-5.14494e-40 -5.31543e-40 -4.94532e-40 4.9966e-40 -4.94137e-40 -4.95632e-40 -4.90796e-40 -5.02274e-40
-5.10392e-40 -4.93897e-40 5.06173e-40 4.90746e-40 -5.60798e-40 -6.10955e-40 4.96851e-40 -5.07793e-40
4.96648e-40 -6.14457e-40 -4.96888e-40 -5.00869e-40 -5.01095e-40 -4.94043e-40 -4.9146e-40 5.03596e-40
4.93265e-40 4.90746e-40 -4.91716e-40 4.92743e-40 -4.96951e-40 6.2216e-40 4.92751e-40 4.93977e-40
4.96978e-40 -4.91976e-40 -4.93648e-40 -4.95377e-40 -5.0471e-40 4.93612e-40 -6.08423e-40 4.97496e-40
4.92884e-40 -4.91071e-40 4.97768e-40 -4.94078e-40 4.91043e-40 4.95855e-40 4.93418e-40 -4.95323e-40
4.9481e-40 4.98623e-40 4.93823e-40 -4.95341e-40 -5.18849e-40 4.93917e-40 4.95302e-40 4.9539e-40
4.93934e-40 6.11116e-40 -5.29328e-40 5.10635e-40 5.01902e-40 -4.93979e-40 -4.96104e-40 -4.91092e-40
-4.92227e-40 4.9153e-40 4.9775e-40 5.34127e-40 5.40834e-40 -4.91199e-40 -4.98033e-40 -4.93899e-40
-5.18217e-40 -4.98324e-40 5.157e-40 -4.94162e-40 -4.95942e-40 -4.93023e-40 4.98669e-40 5.49298e-40
-4.92949e-40 5.7757e-40 -4.98509e-40 4.92e-40 -4.94245e-40 -5.13664e-40 -4.90938e-40 -5.02789e-40
5.25467e-40 5.23602e-40 -4.94685e-40 -4.95436e-40 4.99099e-40 -4.93823e-40 -5.49975e-40 -5.9183e-40
4.92327e-40 -4.95446e-40 -4.91758e-40 4.95471e-40 4.94092e-40 -4.91765e-40 4.93456e-40 4.9218e-40
-4.9273e-40 -4.95587e-40 4.9375e-40 5.08649e-40 4.9665e-40 -5.25861e-40 5.02014e-40 4.96466e-40
-5.30246e-40 6.0109e-40 5.46212e-40 5.00371e-40 -5.03778e-40 -4.99267e-40 4.90546e-40 4.9791e-40
-5.10799e-40 -4.9907e-40 4.93722e-40 -4.94637e-40 4.98422e-40 4.96899e-40 -4.96704e-40 -5.27994e-40
00000000: fe64 69bd b8ff b13d 0e13 ed3c 22f7 2b3e
00000010: 012a 353d 387c 703b a2fe 9d3d c4f8 0f3e
00000020: 0428 a4be e57b 43be edf0 313e 9dd0 75ba
00000030: 3c8e 173e c109 2b3e 47d3 31bd 00ab 533d
00000040: 8ad3 3c3d 3517 853d b757 4f3e ef04 aabd
00000050: 5009 5f3c ab7e b4bd 3279 77be f6a8 b83b
00000060: e085 053e 5013 0d3c f739 8abd 0dda 353e
00000070: c307 9b3c 5a9e 3c3d eaad b23c 9c68 093e
00000080: 425f 89bd c3ee 2b3d da2c b03d fb2c 31be
00000090: 903e 843e 6233 883e bb74 3ebe fde4 e2bc
000000a0: d6c3 aabd 9af0 c23c e807 71be e50b d9bd
000000b0: fb33 4c3e 08bd 413e 4aca 0bbe b916 c63d
000000c0: 3506 90bb 8ee6 af3b c270 30be 10e3 8c3c
000000d0: 5a58 9b3d 6480 8b3e 08e8 dfb9 cdf3 373e
000000e0: 8982 6d3e 92d7 5a3d b420 f6bc 2691 85bc
000000f0: cef9 693e 08f9 9cbd 5de1 b4bd 5556 36bd
00000100: bd63 0580 695c 0500 1073 0580 be79 0680
00000110: 216c 0580 2960 0580 e76b 0580 c864 0580
00000120: a558 0500 5666 0580 be65 0580 085a 0500
00000130: 8c74 0500 8f5f 0500 d868 0500 4e5f 0500
00000140: 0290 0500 b06a 0500 155f 0500 456d 0580
00000150: 9425 0680 7760 0500 437c 0500 696a 0500
00000160: 7b73 0580 f85b 0500 b457 0500 4266 0500
00000170: 6776 0500 636a 0500 7a6b 0500 9d5f 0580
00000180: 476c 0580 4e5f 0500 87e5 0580 ed85 0500
00000190: 8b30 0680 595e 0500 c861 0500 525b 0500
000001a0: 0c58 0580 2b78 0580 315d 0580 848f 0600
000001b0: b063 0500 f75a 0580 4157 0580 2d66 0500
000001c0: ac6c 0500 8e5a 0580 b29b 0500 d15d 0500
000001d0: 3757 0580 fd61 0500 dc75 0500 0966 0500
000001e0: b566 0580 9c73 0500 4063 0500 0a68 0500
000001f0: 1067 0580 cfa3 0680 486b 0580 0171 0500
00000200: 339a 0580 bac9 0580 8e62 0580 d970 0500
00000210: 7461 0580 9f65 0580 2458 0580 2378 0580
00000220: c48e 0580 c960 0580 0183 0500 0058 0500
00000230: 471b 0680 18a7 0680 0569 0500 8587 0580
00000240: 7468 0500 dbb0 0680 1f69 0580 3874 0580
00000250: d974 0580 3161 0580 fe59 0580 d27b 0500
00000260: 065f 0500 0058 0500 b45a 0580 915d 0500
00000270: 4c69 0580 54c6 0600 975d 0500 0261 0500
00000280: 5f69 0500 6e5b 0580 1760 0580 e964 0580
00000290: ed7e 0580 fd5f 0500 09a0 0680 d16a 0500
000002a0: f65d 0500 e858 0580 936b 0500 4a61 0580
000002b0: d458 0500 3e66 0500 735f 0500 c264 0580
000002c0: 5463 0500 f56d 0500 9460 0500 cf64 0580
000002d0: 57a6 0580 d760 0500 b364 0500 f264 0500
000002e0: e360 0500 8ba7 0600 8dc3 0580 718f 0500
000002f0: 1977 0500 0361 0580 f066 0580 f758 0580
00000300: 215c 0580 305a 0500 866b 0500 eed0 0500
00000310: a0e3 0500 4359 0580 506c 0580 ca60 0580
00000320: 94a4 0580 206d 0580 909d 0500 8661 0580
00000330: 7c66 0580 595e 0580 166e 0500 38fb 0500
00000340: 245e 0580 084a 0600 a46d 0580 7f5b 0500
00000350: c161 0580 e397 0580 8958 0580 9279 0580
00000360: cab8 0500 97b3 0500 fb62 0580 1365 0580
00000370: 496f 0500 9460 0580 1bfd 0580 c871 0680
00000380: 685c 0500 1a65 0580 d25a 0580 2c65 0500
00000390: 5461 0500 d75a 0580 8e5f 0500 ff5b 0500
000003a0: 885d 0580 7f65 0580 6060 0500 e889 0500
000003b0: 7568 0500 e3b9 0580 6977 0500 f267 0500
000003c0: 1cc6 0580 988b 0600 9ef2 0500 d572 0500
000003d0: 547c 0580 c16f 0580 7157 0500 f86b 0500
000003e0: e68f 0580 346f 0580 4c60 0500 d962 0580
000003f0: 666d 0500 2769 0500 9c68 0580 d5bf 0580

embedding.atom_embedding_list.2.weight f4 [12, 64]
-0.5771323 -0.21746707 -0.11695148 -0.19413413 -0.05886912 0.2717179 -0.16582727 0.30739632
-0.17246094 -0.3150322 0.36204097 -0.26140496 -0.31944257 0.49107826 0.18969937 0.6988745
-0.008613177 0.24175832 0.23031342 -0.021434255 -0.30786696 0.23779568 0.017903093 0.45204318
-0.030577995 -0.3737509 0.23262782 -0.21914437 0.29798627 0.059917293 -0.15310074 -0.34738973
-0.08677742 0.6782299 -0.022595761 -0.02606556 0.26712394 -0.102760814 -0.24989387 0.11936249
0.061069936 -0.35120916 0.55645686 -0.040782135 0.44026592 0.49586505 0.099228315 -0.19470754
-0.35504815 0.45753706 0.015251033 -0.14019714 -0.5504169 -0.12939829 -0.3224528 -0.08365566
0.36797494 0.070953764 0.10757325 -0.079633735 -0.31317222 0.37144306 0.19736992 -0.29687226
-0.08288034 -0.35032076 -0.00028592508 0.24210739 -0.27340934 -0.43498063 -0.52984357 0.32818168
-0.12698035 -0.28422096 -0.2562301 0.043837655 0.24976578 -0.1078122 0.11089288 -0.46410465
-0.34050527 0.24578154 0.07417948 -0.6191812 0.083641365 0.22136845 0.25098532 0.1288761
-0.17112577 0.59330183 -0.1073648 0.2916842 0.25658837 0.085521 -0.016460292 -0.34633207
-0.0562941 0.020691251 0.25705272 0.26404345 0.053338215 0.38771647 0.09890488 0.19530343
-0.11105074 -0.08799106 0.104700975 -0.16362558 0.4579261 -0.33431765 -0.039441798 -0.19089791
-0.44495827 -0.85049057 -0.3985145 0.18628179 -0.13076724 0.16503093 -0.1285718 0.65793204
-0.07318587 -0.003860209 0.48651618 -0.28581813 0.7320395 0.070906684 -0.9736615 0.21665828
-0.09188706 -0.045002904 -0.48980653 -0.076256365 0.5543919 0.008314105 0.49398017 -0.68454343
-0.34551865 -0.3813274 0.38883066 -0.076634355 -0.37792197 -0.32599932 -0.12229159 -0.2325476
0.34231552 -0.03780131 0.199564 0.20157692 -0.02007759 0.2175508 -0.6474297 0.20031732
0.0070680496 0.031935778 -0.15054467 -0.19901009 0.033885796 0.43683535 -0.05768037 0.31925148
-0.66792977 -0.511938 0.021819413 -0.8796284 -0.09937931 -0.1943208 -0.099379815 0.13500367
0.15166716 0.5494475 -0.27777156 -0.41594538 -0.08842668 0.3943913 0.333468 0.04560337
0.7948919 0.8064598 0.15099777 -0.18960904 0.39511254 -0.08574628 0.47025836 -0.14822137
0.03636949 0.07203808 -0.20926982 0.025400322 0.06324636 -0.18966024 0.5037836 -0.068016514
0.42365798 0.54316807 0.76036316 0.31023434 -0.030046066 -0.011312083 0.027654504 0.046365418
0.07395302 0.3617289 -0.19076562 0.04499387 0.7098796 -0.025701312 -0.23801629 0.19617455
0.3755026 -0.30457875 0.09796007 -0.17210492 0.09453326 -0.41203788 0.16094275 -0.26789463
0.6018778 0.09005082 0.19943893 -0.051820222 -0.37707976 -0.099416636 0.36334404 0.18556663
0.06518333 -0.13996018 -0.29081503 -0.0552552 -0.12338542 0.39431632 0.2802999 0.17113064
-0.117735624 -0.3010206 -0.18741183 0.17796455 -0.19520947 -0.099375576 -0.37915304 0.032075226
-0.09852561 -0.022646884 0.64075416 0.03719021 -0.010667611 0.0532348 -0.014792327 -0.20864119
-0.42287132 0.024807524 0.08016421 0.31230497 0.48883 -0.2606121 -0.07437302 -0.14966501
00000000: f1be 13bf b0af 5ebe 4284 efbd 19cb 46be
00000010: bf20 71bd 9c1e 8b3e a0ce 29be 0d63 9d3e
00000020: 9a99 30be e74b a1be 6f5d b93e dfd6 85be
00000030: fa8d a3be 9c6e fb3e 8d40 423e 70e9 323f
00000040: 481e 0dbc 7e8f 773e 48d7 6b3e e496 afbc
00000050: bda0 9dbe b680 733e 82a9 923c 3472 e73e
00000060: b47e fabc 475c bfbe fd35 6e3e 6267 60be
00000070: a891 983e d66b 753d 71c6 1cbe 11dd b1be
00000080: 5cb8 b1bd 7aa0 2d3f bf1a b9bc 7187 d5bc
00000090: 78c4 883e 4374 d2bd 2ee4 7fbe 5274 f43d
000000a0: 7824 7a3d b0d1 b3be f573 0e3f 2b0b 27bd
000000b0: 896a e13e 06e2 fd3e 3738 cb3d 6a61 47be
000000c0: dfc8 b5be 4c42 ea3e 78df 793c d78f 0fbe
000000d0: 1fe8 0cbf fc80 04be 8918 a5be a953 abbd
000000e0: 3667 bc3e 3550 913d 5d4f dc3d 0317 a3bd
000000f0: 1c58 a0be c92d be3e 571b 4a3e a4ff 97be
00000100: 2bbd a9bd 3e5d b3be 37e8 95b9 00eb 773e
00000110: 4ffc 8bbe c8b5 debe d4a3 07bf 6e07 a83e
00000120: 2307 02be 6985 91be 9730 83be 1d8f 333d
00000130: 9ac2 7f3e a5cc dcbd ce1b e33d 209f edbe
00000140: b556 aebe 28ae 7b3e 69eb 973d a982 1ebf
00000150: 2a4c ab3d 69ae 623e 2681 803e 19f8 033e
00000160: 983b 2fbe a1e2 173f 14e2 dbbd a257 953e
00000170: 8d5f 833e a225 af3d bcd7 86bc 7052 b1be
00000180: a494 66bd b380 a93c 6a9c 833e b430 873e
00000190: 2c79 5a3d c682 c63e a48e ca3d 9ffd 473e
000001a0: 926e e3bd a834 b4bd 776d d63d 778d 27be
000001b0: 4a75 ea3e af2b abbe b98d 21bd be7a 43be
000001c0: 92d1 e3be c0b9 59bf 180a ccbe a7c0 3e3e
000001d0: d9e7 05be defd 283e 53a8 03be 3c6e 283f
000001e0: 79e2 95bd 8ffb 7cbb a618 f93e c156 92be
000001f0: f166 3b3f 8637 913d e141 79bf abdb 5d3e
00000200: 482f bcbd f754 38bd ecc7 fabe 4c2c 9cbd
00000210: a1ec 0d3f e237 083c f8ea fc3e 3d3e 2fbf
00000220: d2e7 b0be 583d c3be d014 c73e 79f2 9cbd
00000230: fd7e c1be 62e9 a6be 0374 fabd f520 6ebe
00000240: fb43 af3e 8cd5 1abd 815a 4c3e 2e6a 4e3e
00000250: c279 a4bc a3c5 5e3e f4bd 25bf fc1f 4d3e
00000260: 199b e73b 17cf 023d 6228 1abe 4dc9 4bbe
00000270: d5cb 0a3d e2a8 df3e 4042 6cbd ee74 a33e
00000280: 72fd 2abf 5e0e 03bf a0be b23c 542f 61bf
00000290: 6187 cbbd 08fc 46be a587 cbbd 673e 0a3e
000002a0: a34e 1b3e 97a8 0c3f 1338 8ebe cbf6 d4be
000002b0: 0c19 b5bd a8ed c93e 51bc aa3e 99ca 3a3d
000002c0: 097e 4b3f 2674 4e3f 299f 1a3e df28 42be
000002d0: 314c ca3e bf9b afbd b4c5 f03e 58c7 17be
000002e0: 2df8 143d b388 933d d44a 56be 5614 d03c
000002f0: 4f87 813d 4b36 42be f6f7 003f 3e4c 8bbd
00000300: b3e9 d83e 100d 0b3f 29a7 423f 09d7 9e3e
00000310: 2b23 f6bc 5156 39bc b38b e23c aae9 3d3d
00000320: ae74 973d 8834 b93e 1058 43be 7e4b 383d
00000330: abba 353f 8f8b d2bc 8bba 73be fbe1 483e
00000340: e041 c03e bff1 9bbe 4a9f c83d 463c 30be
00000350: a79a c13d a1f6 d2be 2dce 243e 7c29 89be
00000360: aa14 1a3f 906c b83d b839 4c3e 7141 54bd
00000370: 9910 c1be f39a cbbd 3b08 ba3e 2e05 3e3e
00000380: d67e 853d b951 0fbe b5e5 94be 4753 62bd
00000390: 7fb1 fcbd d4e3 c93e 7883 8f3e df3c 2f3e
000003a0: 601f f1bd 5f1f 9abe e3e8 3fbe 573c 363e
000003b0: fee4 47be 6c85 cbbd 5920 c2be 5061 033d
000003c0: ccc7 c9bd f585 b9bc 7708 243f c354 183d
000003d0: 34c7 2ebc bc0c 5a3d 845b 72bc 09a6 55be
000003e0: 9782 d8be 2639 cb3c 222d a43d 70e6 9f3e
000003f0: ed47 fa3e f36e 85be e250 98bd c941 19be

embedding.atom_embedding_list.3.weight f4 [12, 64]
0.003239092 0.0026096075 -0.02566576 -0.010177845 0.0023143296 -0.005125881 0.01950269 -0.007985845
-0.017372742 0.007969345 -0.02164468 0.000343659 0.009754627 -0.021659095 0.0022444653 -0.028902724
0.00075934496 -0.016618587 -0.015344962 -0.006725129 0.008939327 0.011028029 -0.003274242 0.003127419
-0.01619111 0.017634314 -0.0030194798 0.02905356 -0.017722007 0.019122006 -0.0085474625 0.009044218
-0.001039443 -0.022401586 -0.019617673 -0.0031609782 -0.018231409 -0.0063895406 0.023674928 0.0034161434
0.0132584525 0.005353617 -0.012528032 -0.018631004 -0.008794271 -0.001711643 0.006045299 -0.00028849838
0.030584186 -0.013162499 -0.014019264 0.0008449718 0.024661325 -0.016173728 0.02255581 0.025007682
0.005323636 -0.0002702514 -0.016216196 -0.008159123 0.0077240183 -0.0054890183 -0.021110067 0.021602642
-0.029713187 -0.044557694 0.08213933 0.025309639 -0.15202609 0.041706726 -0.06926602 0.12938862
0.36922935 0.051295947 -0.14920677 0.0067163785 0.0139408 0.12293057 0.02585649 0.11540148
0.048574366 -0.022638286 0.16968906 0.13935886 0.063444056 -0.08909793 -0.019649722 -0.089374885
0.029010389 -0.21073437 0.04635908 -0.006497816 -0.05076543 -0.11467236 0.033380933 0.008377077
0.01332261 0.12730062 0.15704702 0.025088657 -0.018928885 0.09693129 -0.1211729 -0.2649252
-0.10729903 -0.091000475 0.063270725 0.067836694 0.018386068 -0.07583212 -0.077692635 0.14845932
-0.21961333 -0.10354507 0.14815323 0.17990895 -0.12531109 0.13605377 -0.20625357 -0.10700717
-0.14434636 -0.16364156 -0.0826038 -0.04135676 -0.14443584 -0.09733286 0.023647565 -0.012161246
-0.18153192 -0.009550438 0.047838822 -0.15385453 0.076189436 0.039922614 -0.05038727 -0.012953366
0.11912479 -0.00048753116 0.065424286 -0.09184603 -0.12981606 0.17684247 -0.0931666 0.0989426
-0.093886755 0.05879552 0.013006165 0.15623474 -0.10202578 0.120662145 -0.03435131 0.004531508
0.04294913 -0.09038916 0.0028727958 0.09150005 0.114251986 -0.0682963 -0.06216664 0.15634876
-0.022305014 0.113156326 0.017670326 -0.0040211524 0.12787697 -0.15214068 -0.16117728 -0.0028302923
-0.025693221 0.08566164 0.16957022 0.11514256 -0.05647698 -0.0019905858 0.040266704 0.0063761612
0.1241864 0.089875035 0.004767788 -0.059844818 -0.13678908 -0.04944563 -0.12508999 -0.14897667
-0.049808607 -0.10607375 -0.0009808928 0.016317973 -0.30041498 0.06683119 0.12070251 -0.16965939
-0.020013088 0.08244933 0.019370284 -0.078260034 -0.039057016 -0.08402671 0.07888491 0.018230435
0.027763005 -0.04560432 0.09031614 0.0025263503 0.07482898 -0.16270834 -0.062984295 -0.04393372
-0.021580145 -0.05152989 -0.073310755 -0.058947008 0.014452243 -0.020826017 -0.04352176 -0.07081322
0.0044040885 0.0752162 -0.037104197 -0.07326295 -0.12586948 -0.077502206 0.08171151 0.015499488
0.09238858 -0.029460024 -0.03754754 0.048904873 0.03495801 -0.0741238 0.034562223 -0.002922685
-0.069433875 -0.12232092 -0.14132035 0.012587244 -0.1292134 -0.06962069 -0.07894194 0.13837872
-0.03802162 0.11879101 0.0007731644 -0.08257968 0.10089575 0.028455563 0.11373987 -0.0428197
-0.06099182 0.0730619 -0.0013218122 -0.14745668 0.025394078 -0.120420896 0.109970905 -0.03340319
00000000: f246 543b f305 2b3b 0041 d2bc fac0 26bc
00000010: 02ac 173b 02f7 a7bb 1bc4 9f3c 10d7 02bc
00000020: 4851 8ebc db91 023c 2f50 b1bc 212d b439
00000030: dfd1 1f3c 6a6e b1bc e117 133b 68c5 ecbc
00000040: c70e 473a b423 88bc 6f69 7bbc 795e dcbb
00000050: 4176 123c e8ae 343c aa94 56bb 62f5 4c3b
00000060: 38a3 84bc d675 903c 77e2 45bb bb01 ee3c
00000070: be2d 91bc c1a5 9c3c a80a 0cbc 332e 143c
00000080: eb3d 88ba 8883 b7bc 3eb5 a0bc 6a28 4fbb
00000090: 095a 95bc 5a5f d1bb ecf1 c13c 60e1 5f3b
000000a0: fb39 593c 656d af3b 6042 4dbc 0ca0 98bc
000000b0: d915 10bc 3559 e0ba a517 c63b 9941 97b9
000000c0: b08b fa3c 86a7 57bc 0eb1 65bc 1981 5d3a
000000d0: 8c06 ca3c c47e 84bc f6c6 b83c e9dc cc3c
000000e0: e571 ae3b 87b0 8db9 d4d7 84bc d8ad 05bc
000000f0: c319 fd3b 39dd b3bb 05ef acbc 06f8 b03c
00000100: 1269 f3bc 2182 36bd aa38 a83d 2956 cf3c
00000110: baac 1bbe acd4 2a3d 58db 8dbd 737e 043e
00000120: a10b bd3e b31b 523d a9c9 18be 1115 dc3b
00000130: f467 643c 06c3 fb3d fdd0 d33c 9c57 ec3d
00000140: eaf5 463d ed73 b9bc f8c2 2d3e 17b4 0e3e
00000150: f5ee 813d fa78 b6bd 74f8 a0bc 2e0a b7bd
00000160: 32a7 ed3c c0ca 57be 05e3 3d3d a2eb d4bb
00000170: 69ef 4fbd 58d9 eabd 72ba 083d 0240 093c
00000180: 1447 5a3c 185b 023e efd0 203e ba86 cd3c
00000190: c010 9bbc ea83 c63d 7f29 f8bd 47a4 87be
000001a0: 98bf dbbd 755e babd 1594 813d f7ed 8a3d
000001b0: 619e 963c df4d 9bbd 511d 9fbd b805 183e
000001c0: 51e2 60be 700f d4bd 7bb5 173e 0d3a 383e
000001d0: 8d51 00be ae51 0b3e 2334 53be 9326 dbbd
000001e0: 88cf 13be a791 27be 2e2c a9bd b565 29bd
000001f0: fde6 13be 7356 c7bd 8ab8 c13c f63f 47bc
00000200: 81e3 39be 7179 1cbc a4f2 433d 0b8c 1dbe
00000210: 3509 9c3d e585 233d e262 4ebd 5b3a 54bc
00000220: b3f7 f33d 539b ffb9 2bfd 853d c519 bcbd
00000230: 80ee 04be 3116 353e 21ce bebd 6ba2 ca3d
00000240: b347 c0bd 92d3 703d cf17 553c 00fc 1f3e
00000250: e4f2 d0bd b71d f73d f6b3 0cbd 0b7d 943b
00000260: 6deb 2f3d f41d b9bd 8445 3c3b 6164 bb3d
00000270: f2fc e93d eede 8bbd 72a2 7ebd e419 203e
00000280: 01b9 b6bc 81be e73d 5cc1 903c dfc3 83bb
00000290: 2ef2 023e c4ca 1bbe a80b 25be 6d7c 39bb
000002a0: 977a d2bc 5f6f af3d d1a3 2d3e ddcf eb3d
000002b0: 6854 67bd 7d74 02bb b3ee 243d 1eef d03b
000002c0: 7055 fe3d 6710 b83d 1b3b 9c3b d71f 75bd
000002d0: 7012 0cbe 8087 4abd 9717 00be 578d 18be
000002e0: 1c04 4cbd 323d d9bd 4d91 80ba 45ad 853c
000002f0: fecf 99be cade 883d e132 f73d 31bb 2dbe
00000300: 7df2 a3bc 32db a83d 6eae 9e3c cc46 a0bd
00000310: 40fa 1fbd 3216 acbd 698e a13d fe57 953c
00000320: 3e6f e33c 98cb 3abd abf7 b83d 2091 253b
00000330: f03f 993d 049d 26be e9fd 80bd d8f3 33bd
00000340: d8c8 b0bc 0211 53bd f323 96bd 6b72 71bd
00000350: 1ac9 6c3c 539b aabc df43 32bd 8606 91bd
00000360: 2c50 903b f30a 9a3d 92fa 17bd e30a 96bd
00000370: eee3 00be 7ab9 9ebd 5d58 a73d 91f1 7d3c
00000380: 3936 bd3d 2656 f1bc 73cb 19bd 7a50 483d
00000390: 2130 0f3d 38ce 97bd 1e91 0d3d 848a 3fbb
000003a0: 5933 8ebd 6483 fabd 48b6 10be ba3a 4e3c
000003b0: 8450 04be 4b95 8ebd 50ac a1bd 27b3 0d3e
000003c0: 8fbc 1bbd b348 f33d 2fae 4a3a 891f a9bd
000003d0: 6ea2 ce3d a41b e93c 73f0 e83d b663 2fbd
000003e0: 8fd2 79bd 7aa1 953d a840 adba e2fe 16be
000003f0: 3e07 d03c 3b9f f6bd 6d38 e13d c9d1 08bd

embedding.atom_embedding_list.4.weight f4 [10, 64]
0.3151362 0.53310597 0.11567686 -0.17154013 0.04897859 -0.15632677 0.3452083 -0.2043673
-0.07503063 0.24017447 -0.26351914 0.099537335 0.4127424 -0.633967 0.1172047 -0.6606126
-0.18330565 -0.26126033 -0.37832013 -0.15547109 -0.14634944 -0.08736179 -0.036035657 0.106812336
-0.15228924 0.69936854 -0.13013877 -0.001140375 -0.15413724 0.17655104 -0.020846484 0.056772493
0.14350809 -0.53439397 -0.18157884 0.41593456 -0.23064695 0.01766916 0.4404865 -0.15752262
-0.19788869 0.3454802 -0.43497536 0.14615591 -0.40511158 -0.38788456 -0.047865335 -0.13128038
0.08931863 -0.6076013 -0.5625906 0.20783365 0.5798552 -0.1751048 0.54245025 0.48402596
-0.23088136 0.18342008 -0.24318446 0.33341086 0.5899425 -0.06938821 -0.16306898 0.325165
-0.36997017 -0.024691157 -0.015633225 -0.48400787 -0.18762891 -0.2059866 -0.6304156 0.23921587
0.29613528 -0.2446 0.046080768 -0.23213875 -0.3678152 0.6486799 -0.5135612 0.041374214
-0.53463006 0.11377659 -0.08907557 0.13391417 -0.27774382 0.45003062 -0.17038924 0.012680122
0.076350704 -0.06908354 -0.3150911 0.021908725 0.2502591 -0.49357215 -0.19336523 0.23248819
0.3146922 0.40297914 0.094621256 0.3611744 0.65735406 -0.3412418 -0.55615056 -0.23464723
-0.004267649 -0.26723164 0.18409671 0.41902623 -0.08432669 -0.22485732 -0.27670035 -0.03625589
-0.553671 -0.005576377 -0.10696807 -0.13757835 -0.28321987 0.32857022 -0.452609 -0.58963394
-0.053613774 -0.3573339 -0.09596564 -0.048308108 -0.89815 0.4407814 0.32919124 -0.6974568
-0.13569911 -0.5548352 -0.36561108 0.2796069 -0.24308033 0.37112796 -0.054181643 0.25967276
0.5665186 -0.13948712 -0.53639454 -0.14882712 -0.028002614 -0.10186675 0.5139543 0.33319166
0.44218358 -0.6180948 -0.041208576 0.03281879 0.32362306 -0.21228991 0.40892407 -0.1951189
-0.5198235 -0.5651397 0.47856498 0.010035288 -0.67208964 0.27114365 -0.05433116 -0.5051014
-0.4075886 0.12345334 -0.1259922 -1.1532645 -0.5744854 0.26957804 0.39912376 -0.26688212
0.25018153 -0.27953407 0.026612516 -1.0400015 0.7509707 -0.046881076 0.5361763 -0.15816206
0.5892924 0.07414454 0.40701258 -0.14448598 -0.3134091 0.17178956 0.014681282 0.07368694
0.16021448 -0.31539914 0.24248359 -0.45444337 0.5148832 -0.011495891 -0.57839805 0.5699625
0.028888589 -0.4923667 0.39663672 0.17652723 0.22960044 0.257114 0.102573246 -0.123266295
-0.6696611 -0.3498571 1.2077751 0.15566306 0.26928735 0.42652428 0.10047398 0.32355335
0.3878217 0.7878091 0.50505155 -0.28444016 0.29778475 0.5407162 -0.52719927 0.35896757
0.35084873 0.32601765 -0.04905016 -0.15582466 1.028645 0.2054413 0.34327134 -0.09882987
-0.45080426 0.07409307 0.05883156 -0.5000729 0.3158355 0.38704 -0.28302407 1.1446859
-0.35750398 -0.43814155 -0.018843755 -0.30913484 0.09618527 0.58448666 0.011902256 -0.08180485
-0.27687964 0.674198 0.3439797 0.06688183 -0.79297185 0.048591804 0.12968206 -0.062730774
0.015948528 0.74616843 0.2756598 -0.062588416 -0.4580188 0.029759772 0.8136076 -0.20865783
00000000: 8859 a13e a279 083f fde7 ec3d 37a8 2fbe
00000010: c69d 483d 2014 20be 24bf b03e a945 51be
00000020: a9a9 99bd 4cf0 753e fbeb 86be 3bda cb3d
00000030: f952 d33e a94b 22bf 0509 f03d e81d 29bf
00000040: 7ab4 3bbe eac3 85be 2db3 c1be d033 1fbe
00000050: a1dc 15be bdea b2bd 209a 13bd 6dc0 da3d
00000060: b6f1 1bbe d109 333f 1943 05be a378 95ba
00000070: 27d6 1dbe ccc9 343e 3fc6 aabc 468a 683d
00000080: c9f3 123e 0bce 08bf ceef 39be 60f5 d43e
00000090: b72e 6cbe eabe 903c 7287 e13e 9c4d 21be
000000a0: 55a3 4abe c8e2 b03e 17b5 debe e5a9 153e
000000b0: c96a cfbe ce98 c6be 710e 44bd 5d6e 06be
000000c0: b0ec b63d c28b 1bbf f005 10bf 58d2 543e
000000d0: 6471 143f ac4e 33be 05de 0a3f 40d2 f73e
000000e0: 2a6c 6cbe 79d2 3b3e 5905 79be d4b4 aa3e
000000f0: 7906 173f 681b 8ebd 8efb 26be 077c a63e
00000100: bb6c bdbe 1c45 cabc 4011 80bc e1cf f7be
00000110: cb21 40be 27ee 52be eb62 21bf 01f5 743e
00000120: 0b9f 973e 6c78 7abe 30bf 3c3d c8b5 6dbe
00000130: 4652 bcbe e30f 263f bf78 03bf 0278 293d
00000140: 84dd 08bf b303 e93d 416d b6bd cc20 093e
00000150: 7034 8ebe 6a6a e63e 847a 2ebe 49c0 4f3c
00000160: c25d 9c3d ac7b 8dbd 9f53 a1be ed79 b33c
00000170: f621 803e 7db5 fcbe 8901 46be 6211 6e3e
00000180: 561f a13e 4853 ce3e cac8 c13d daeb b83e
00000190: 5b48 283f 3fb7 aebe e25f 0ebf 5d47 70be
000001a0: a2d7 8bbb 96d2 88be d983 3c3e 9b8a d63e
000001b0: 79b3 acbd ff40 66be abab 8dbe 0e81 14bd
000001c0: 62bd 0dbf 0aba b6bb 1312 dbbd 57e1 0cbe
000001d0: 3202 91be 5b3a a83e 5ebc e7be 40f2 16bf
000001e0: 1e9a 5bbd 78f4 b6be a289 c4bd b9de 45bd
000001f0: 29ed 65bf 1aae e13e c18b a83e 878c 32bf
00000200: b5f4 0abe ae09 0ebf 6031 bbbe a328 8f3e
00000210: 0dea 78be 7c04 be3e 92ed 5dbd d4f3 843e
00000220: 5d07 113f b6d5 0ebe 2751 09bf 2366 18be
00000230: bd65 e5bc 849f d0bd 8292 033f 1998 aa3e
00000240: e365 e23e 763b 1ebf 53ca 28bd ff6c 063d
00000250: ecb1 a53e 8762 59be 7f5e d13e 40cd 47be
00000260: 2713 05bf ffac 10bf 7806 f53e 0c6b 243c
00000270: 110e 2cbf 57d3 8a3e 5a8a 5ebd 534e 01bf
00000280: 74af d0be 1bd5 fc3d 1904 01be 2c9e 93bf
00000290: 7a11 13bf 2206 8a3e f359 cc3e c6a4 88be
000002a0: cb17 803e 171f 8fbe 7e02 da3c c51e 85bf
000002b0: 9e3f 403f 5f06 40bd da42 093f 3cf5 21be
000002c0: dedb 163f 18d9 973d f463 d03e 22f4 13be
000002d0: 2877 a0be 9ae9 2f3e c389 703c 2ee9 963d
000002e0: 440f 243e ff7b a1be 9e4d 783e cdac e8be
000002f0: 63cf 033f 4359 3cbc e511 14bf 10e9 113f
00000300: c3a7 ec3c 7d17 fcbe f813 cb3e 8ec3 343e
00000310: 611c 6b3e 72a4 833e ec11 d23d 0a73 fcbd
00000320: e96e 2bbf 7820 b3be 6098 9a3f 2366 1f3e
00000330: 08e0 893e 6461 da3e 4dc5 cd3d c9a8 a53e
00000340: 9190 c63e dbad 493f 0f4b 013f 24a2 91be
00000350: 3e77 983e 606c 0a3f 88f6 06bf 99ca b73e
00000360: 72a2 b33e c9eb a63e d2e8 48bd 8090 1fbe
00000370: a4aa 833f 345f 523e 43c1 af3e 5167 cabd
00000380: d1cf e6be 1cbe 973d 5df9 703d c704 00bf
00000390: 31b5 a13e 1b2a c63e 88e8 90be 1185 923f
000003a0: c30a b7be 1754 e0be 385e 9abc ec46 9ebe
000003b0: c8fc c43d eba0 153f ae01 433c 4d89 a7bd
000003c0: 2bc3 8dbe 3d98 2c3f 1b1e b03e 57f9 883d
000003d0: 3400 4bbf 3308 473d 60cb 043e fe78 80bd
000003e0: 7da6 823c e504 3f3f 4823 8d3e 5b2e 80bd
000003f0: 7181 eabe c4ca f33c 9648 503f 66aa 55be

embedding.atom_embedding_list.5.weight f4 [6, 64]
0.073540114 -0.25551665 0.04606049 0.12875311 0.020118706 -0.06266612 -0.26481375 0.111182965
0.1706216 -0.15641683 0.27800655 0.033178244 0.1469954 -0.037025988 -0.086794026 -0.090588205
-0.21837488 -0.18546204 0.11995846 -0.16441225 -0.14672703 0.20104676 0.09867569 0.23003423
-0.22811967 -0.010743974 -0.08892994 0.021794818 -0.12514569 0.0073302337 0.044648957 -0.18961978
0.12446968 -0.018846015 0.1476307 0.1251951 -0.033469796 0.2304102 0.03452491 -0.055098258
-0.2464928 -0.29626298 0.16502118 0.06307884 0.18723257 0.2454714 -0.079685874 0.013974688
-0.18976349 0.012219285 0.114362285 -0.109731816 -0.034290615 0.10235837 -0.2952828 -0.08853714
-0.05150587 -0.004889975 0.14941628 -0.2941334 -0.15238315 -0.027181549 0.068483226 0.12900887
4.90745e-40 4.91525e-40 4.9626e-40 4.96868e-40 4.94486e-40 -4.99061e-40 4.92681e-40 5.15292e-40
-4.97087e-40 -4.97597e-40 5.7661e-40 4.98857e-40 -4.94693e-40 -4.90726e-40 4.95562e-40 -4.9167e-40
4.96793e-40 4.91357e-40 4.92346e-40 4.95683e-40 4.93145e-40 4.94808e-40 -4.93166e-40 6.24616e-40
5.41271e-40 -5.05275e-40 4.98338e-40 -4.98164e-40 5.05118e-40 4.98226e-40 4.94685e-40 -5.15906e-40
-4.96428e-40 5.09159e-40 -4.95288e-40 -4.98644e-40 -5.05521e-40 4.93127e-40 -5.21499e-40 -4.94813e-40
4.95943e-40 4.96772e-40 4.95188e-40 4.97004e-40 -4.99312e-40 4.91654e-40 4.96187e-40 4.95177e-40
4.93125e-40 -5.85084e-40 4.90844e-40 5.04794e-40 4.94325e-40 4.98508e-40 4.95943e-40 -4.98183e-40
-5.02119e-40 4.93516e-40 4.9615e-40 -5.22275e-40 -4.95533e-40 -5.28916e-40 5.42039e-40 4.97034e-40
-0.04533921 -0.035620116 -0.1194941 0.06312274 0.003446197 0.0251 0.009267944 0.028283378
-0.113001965 -0.047629822 -0.027186904 0.0042271633 -0.02863807 0.057020172 0.005979204 0.07767061
0.0923128 -0.014365207 0.05753343 -0.06054165 0.035124928 0.021723192 -0.013732093 0.071066566
0.031549133 -0.06348956 0.012096467 -0.022085683 -0.08742905 0.10416303 -0.032650497 -0.057107814
-0.043312483 0.058151003 -0.0300387 -0.08074412 0.0073075793 0.05478061 -0.033468165 0.0047546662
0.08440882 -0.055375677 0.085273445 -0.07574911 0.10830051 0.068018585 0.021058261 -0.023612529
0.033813138 0.071402326 0.012798926 -0.10097266 0.042186763 -0.055538036 0.0054468997 -0.044934068
0.093613535 0.03992689 -0.017752098 0.037118863 0.08978835 0.06086316 0.059219696 -0.06070794
4.93537e-40 4.92519e-40 -4.96357e-40 -4.9267e-40 4.97553e-40 4.99189e-40 4.91249e-40 4.95764e-40
4.98712e-40 4.92322e-40 4.9273e-40 4.92252e-40 -4.95499e-40 -4.93219e-40 -4.96358e-40 -4.93648e-40
-5.10806e-40 4.99581e-40 4.95016e-40 -5.00967e-40 -4.92615e-40 5.27065e-40 4.9435e-40 -4.97394e-40
-4.93362e-40 4.9378e-40 -6.07164e-40 5.00269e-40 4.99693e-40 -4.9328e-40 -4.90732e-40 4.9253e-40
-4.96941e-40 4.9573e-40 -4.9149e-40 -4.94496e-40 4.92251e-40 -5.08451e-40 -4.97226e-40 5.07533e-40
-4.97886e-40 -4.90473e-40 5.18489e-40 4.99318e-40 -4.97248e-40 5.11551e-40 -4.91584e-40 -6.26722e-40
4.91707e-40 -4.96989e-40 4.93174e-40 -4.93513e-40 5.06341e-40 4.97077e-40 -5.01268e-40 4.92544e-40
4.96155e-40 -4.91072e-40 4.98131e-40 -4.90827e-40 4.96322e-40 -4.92636e-40 -5.36985e-40 -4.97944e-40
00000000: 339c 963d 14d3 82be eda9 3c3d dbd7 033e
00000010: fccf a43c 1857 80bd ab95 87be e5b3 e33d
00000020: 6eb7 2e3e bc2b 20be e056 8e3e e9e5 073d
00000030: f685 163e 90a8 17bd 11c1 b1bd 4f86 b9bd
00000040: aa9d 5fbe c3e9 3dbe c8ac f53d af5b 28be
00000050: 9c3f 16be 34df 4d3e 7b16 ca3d 188e 6b3e
00000060: 3498 69be 7e07 30bc e620 b6bd 0c8b b23c
00000070: 3126 00be 7532 f03b d3e1 363d b02b 42be
00000080: f6e9 fe3d f562 9abc 812c 173e 2533 003e
00000090: a017 09bd a7f0 6b3e fe69 0d3d b6ae 61bd
000000a0: 9c68 7cbe c8af 97be 50fb 283e 7b2f 813d
000000b0: e5b9 3f3e db5c 7b3e 5932 a3bd 17f6 643c
000000c0: 5c51 42be 6533 483c c636 ea3d 13bb e0bd
000000d0: 5174 0cbd 44a1 d13d 4f2f 97be f652 b5bd
000000e0: d2f7 52bd 153c a0bb 9500 193e a798 96be
000000f0: 540a 1cbe d7ab debc ef40 8c3d e71a 043e
00000100: ff57 0500 2c5a 0500 5f67 0500 1169 0500
00000110: 6d62 0500 2e6f 0580 655d 0500 6d9c 0500
00000120: ad69 0580 196b 0580 5b47 0600 9c6e 0500
00000130: 0163 0580 f257 0580 6d65 0500 935a 0580
00000140: db68 0500 b459 0500 765c 0500 c365 0500
00000150: b05e 0500 5363 0500 bf5e 0580 2dcd 0600
00000160: d8e4 0500 8080 0580 2a6d 0500 ae6c 0580
00000170: 1080 0500 da6c 0500 fb62 0500 239e 0580
00000180: d767 0580 548b 0500 a964 0580 046e 0580
00000190: 3081 0580 a35e 0500 baad 0580 5663 0580
000001a0: 7d66 0500 cc68 0500 6264 0500 7269 0500
000001b0: e16f 0580 885a 0500 2b67 0500 5a64 0500
000001c0: a25e 0500 fa5e 0680 4658 0500 297f 0500
000001d0: fa61 0500 a36d 0500 7d66 0500 bb6c 0580
000001e0: b477 0580 b95f 0500 1067 0500 e4af 0580
000001f0: 5865 0580 67c2 0580 fce6 0500 8769 0500
00000200: 9cb5 39bd 66e6 11bd 53b9 f4bd 7f46 813d
00000210: 97d9 613b 849e cd3c 93d8 173c 8bb2 e73c
00000220: 936d e7bd 7d17 43bd 12b7 debc 0484 8a3b
00000230: 639a eabc fc8d 693d 33ed c33b c511 9f3d
00000240: 7e0e bd3d 0c5c 6bbc 2da8 6b3d 85fa 77bd
00000250: 28df 0f3d d6f4 b13c 93fc 60bc 598b 913d
00000260: aa39 013d d006 82bd 4330 463c 09ed b4bc
00000270: 000e b3bd 6d53 d53d 87bc 05bd e2e9 69bd
00000280: 6e68 31bd bf2f 6e3d b813 f6bc 2c5d a5bd
00000290: 6b74 ef3b a261 603d ea15 09bd 08cd 9b3b
000002a0: 88de ac3d 9bd1 62bd d8a3 ae3d 5922 9bbd
000002b0: a8cc dd3d 544d 8b3d 6082 ac3c 106f c1bc
000002c0: a57f 0a3d 623b 923d 96b2 513c c1ca cebd
000002d0: 07cc 2c3d da7b 63bd e87b b23b c90c 38bd
000002e0: 74b8 bf3d 618a 233d d96c 91bc f309 183d
000002f0: f4e2 b73d a64b 793d 5a90 723d e4a8 78bd
00000300: c85f 0500 f15c 0500 a467 0580 5d5d 0580
00000310: fa6a 0500 896f 0500 6759 0500 fd65 0500
00000320: 356e 0500 655c 0500 885d 0500 335c 0500
00000330: 4065 0580 e55e 0580 a567 0580 1760 0580
00000340: eb8f 0580 a170 0500 e763 0500 7e74 0580
00000350: 365d 0580 3ebd 0500 0c62 0500 886a 0580
00000360: 4b5f 0580 7560 0500 879c 0680 8c72 0500
00000370: f170 0500 105f 0580 f657 0580 f95c 0500
00000380: 4569 0580 e565 0500 135a 0580 7462 0580
00000390: 325c 0500 5b89 0580 106a 0580 cc86 0500
000003a0: e76b 0580 3d57 0580 56a5 0500 e56f 0500
000003b0: 206a 0580 ff91 0500 565a 0580 0cd3 0680
000003c0: ae5a 0500 6769 0580 c55e 0500 b75f 0580
000003d0: 7983 0500 a669 0500 5575 0580 035d 0500
000003e0: 1467 0500 e958 0580 966c 0500 3a58 0580
000003f0: 8b67 0500 455d 0580 e5d8 0580 116c 0580

embedding.atom_embedding_list.6.weight f4 [6, 64]
0.39791092 0.12268127 0.85643715 -0.40417853 -0.11919268 0.5367729 -0.08385397 0.44090968
0.44195336 0.030402219 0.26141822 -0.28890204 0.12645978 -0.27126402 0.117137074 -0.3467219
-0.41063368 0.025062675 -0.25981742 -0.01422248 -0.17833498 -0.044463128 -0.35566306 0.07714516
0.021240726 0.32556573 0.23732008 -0.033168316 0.72871625 -0.24133992 0.23017435 -0.26515672
-0.30994058 -0.19181089 -0.08245462 0.74711454 -0.33621728 0.0071822954 -0.075323775 0.41567832
-0.8095672 -0.035961915 -0.13728699 0.06523286 -0.21629173 0.06417429 -0.29431963 -0.29541868
-0.29846263 -0.6688401 -0.4907918 0.43993893 -0.0854131 -0.1641045 0.442174 0.56655693
-0.4970274 0.29486722 0.5864041 -0.18687417 -0.22683625 -0.39388478 -0.17098536 0.6733443
0.3083671 -0.4918162 -0.2368394 0.1952428 -0.1966519 -0.048938446 0.18809235 -0.11060695
-0.1875985 0.017542958 -0.5925272 -0.106301375 -0.41848424 0.38163257 -0.0032054908 -0.41784084
0.45928675 0.06769325 0.15277867 0.32694364 0.32428002 -0.037828244 0.033038955 0.004480029
0.22309604 -0.2307967 0.17639495 -0.2939314 -0.0574479 0.12643707 -0.31927875 -0.27995571
-0.09569016 0.08995801 0.12501635 -0.22717799 0.045304164 -0.11272286 0.049940635 -0.31023043
0.45278147 0.3272512 0.14632943 -0.052760698 0.29724595 0.014213746 0.28822166 -0.2535887
0.20470789 -0.09321522 0.28146985 -0.24983372 0.110501416 0.036696658 -0.03930793 -0.2588758
0.18614002 0.25153193 0.115327984 0.51101506 0.28855595 -0.06180869 -0.17747366 -0.024989452
-0.48283216 0.32697242 -0.22392575 -0.3048668 0.27650088 -0.46619007 -0.06597955 0.09056812
0.019961616 0.005198673 0.32409388 -0.073953845 0.24804235 -0.43746036 -0.3460964 0.28764153
-0.18528378 -0.2261617 0.09496741 -0.37322158 -0.3263435 0.2820442 0.15840314 -0.10789639
-0.012810075 0.07328308 -0.19162033 0.3605141 -0.008320724 0.28758165 -0.08398038 0.18519923
0.29929167 -0.12357664 -0.38201955 0.054040503 0.1847834 -0.26129335 -0.1304972 0.3731223
-0.01698647 -0.4345517 0.16686577 0.22826082 -0.2725099 -0.08475196 -0.35162362 0.30263132
0.28352255 0.3806175 0.15080065 0.08457125 -0.30454692 -0.32510367 0.064781696 0.18257165
-0.058069475 -0.15639485 -0.44585112 -0.31689927 -0.08193331 -0.034119587 0.017886227 -0.36666054
-0.026997825 0.25364035 0.09636606 0.23338263 -0.04489024 -0.26949528 -0.37553784 -0.042731166
0.31316575 0.038943343 0.14758569 -0.11212655 0.40803355 -0.26276404 0.12191599 0.11842904
-0.16341224 -0.26982066 0.06719884 -0.31151447 -0.08681562 -0.11260597 0.1912903 -0.012380067
-0.076138474 0.087236725 -0.030736871 -0.1483113 -0.19711526 -0.14437635 0.18893805 0.13155353
0.01529936 -0.06722411 -0.15897362 -0.20409259 0.043438625 0.42772233 -0.17433268 0.03512187
-0.18741453 -0.23667505 -0.16168866 -0.16070329 -0.009363538 -0.17614989 0.06614015 0.047164187
-0.26550764 0.10083483 0.1922554 0.007941799 0.0041083894 0.2791747 -0.2136669 0.01839434
-0.19506122 -0.09508784 -0.06470903 -0.08174312 0.26213694 -0.16420043 -0.31332105 -0.07188216
00000000: fbba cb3e 5140 fb3d 773f 5b3f 7df0 cebe
00000010: 4b1b f4bd f369 093f a1bb abbd eabe e13e
00000020: b647 e23e 130e f93c 9cd8 853e f8ea 93be
00000030: ac7e 013e 1ee3 8abe 90e5 ef3d 8885 b1be
00000040: 943e d2be 3d50 cd3c ca06 85be 6805 69bc
00000050: 729d 36be f81e 36bd 7819 b6be 48fe 9d3d
00000060: 0801 ae3c 8db0 a63e 0904 733e 80db 07bd
00000070: 268d 3a3f d021 77be d3b2 6b3e 9fc2 87be
00000080: 88b0 9ebe 136a 44be f8dd a8bd e642 3f3f
00000090: ac24 acbe 7659 eb3b 5a43 9abd cad3 d43e
000000a0: cc3f 4fbf cd4c 13bd f694 0cbe ce98 853d
000000b0: 947b 5dbe cf6d 833d 10b1 96be 1e41 97be
000000c0: 18d0 98be 1b39 2bbf 1049 fbbe ad3f e13e
000000d0: 10ed aebd 030b 28be a164 e23e e009 113f
000000e0: 607a febe d6f8 963e 941e 163f f15b 3fbe
000000f0: c347 68be 44ab c9be c916 2fbe 4b60 2c3f
00000100: 4be2 9d3e 55cf fbbe 0786 72be bbed 473e
00000110: 1e5f 49be ae73 48bd 489b 403e e685 e2bd
00000120: d219 40be 40b6 8f3c ddaf 17bf 89b4 d9bd
00000130: 9143 d6be 5865 c33e 3613 52bb 3cef d5be
00000140: a227 eb3e c2a2 8a3d 0372 1c3e 2865 a73e
00000150: 0808 a63e caf1 1abd db53 073d 35cd 923b
00000160: 4a73 643e f855 6cbe e1a0 343e 2d7e 96be
00000170: 7d4e 6bbd b878 013e 8178 a3be 5b56 8fbe
00000180: 34f9 c3bd e83b b83d 4904 003e 59a1 68be
00000190: dc90 393d 3edb e6bd 8d8e 4c3d 86d6 9ebe
000001a0: f9d2 e73e 788d a73e 62d7 153e 9a1b 58bd
000001b0: 9f30 983e c6e0 683c ca91 933e 61d6 81be
000001c0: f29e 513e 9fe7 bebd d11c 903e 69d4 7fbe
000001d0: 914e e23d 3c4f 163d 5a01 21bd 5e8b 84be
000001e0: 7d9b 3e3e cbc8 803e 1431 ec3d e2d1 023f
000001f0: 9bbd 933e 1c2b 7dbd a8bb 35be aeb6 ccbc
00000200: c735 f7be ee68 a73e cb4c 65be 8017 9cbe
00000210: 8691 8d3e 77b0 eebe 4920 87bd c77b b93d
00000220: 8b86 a33c a159 aa3b a2ef a53e 1d75 97bd
00000230: d0fe 7d3e cefa dfbe 8c33 b1be c045 933e
00000240: 08bb 3dbe ef96 67be 467e c23d e616 bfbe
00000250: 7f16 a7be 1968 903e 6f34 223e c8f8 dcbd
00000260: 59e1 51bc 7015 963d 1f38 44be 4e95 b83e
00000270: a553 08bc e73d 933e e8fd abbd dea4 3d3e
00000280: c23c 993e c015 fdbd 1198 c3be 9359 5d3d
00000290: dc37 3d3e 3ec8 85be 0fa1 05be e309 bf3e
000002a0: 3627 8bbc 8f7d debe dcde 2a3e 34bd 693e
000002b0: 6b86 8bbe 7092 adbd 0308 b4be 7ef2 9a3e
000002c0: de29 913e 4ce0 c23e 7c6b 1a3e b133 ad3d
000002d0: 93ed 9bbe fd73 a6be 44ac 843d 10f4 3a3e
000002e0: 42da 6dbd f925 20be 9946 e4be 9f40 a2be
000002f0: a7cc a7bd fbc0 0bbd 2386 923c eeba bbbe
00000300: 8b2a ddbc 26dd 813e 925b c53d dbfb 6e3e
00000310: d4de 37bd 49fb 89be 7f46 c0be e006 2fbd
00000320: 4357 a03e 0e83 1f3d b420 173e 9ba2 e5bd
00000330: c6e9 d03e 0289 86be 17af f93d ed8a f23d
00000340: 8a55 27be ef25 8abe 8c9f 893d d37e 9fbe
00000350: 63cc b1bd f59d e6bd 9be1 433e c4d5 4abc
00000360: 7dee 9bbd 2ba9 b23d e4cb fbbc ebde 17be
00000370: 95d8 49be 65d7 13be fa78 413e f8b5 063e
00000380: 2baa 7a3c cbac 89bd fbc9 22be a6fd 50be
00000390: b3ec 313d 6cfe da3e 4484 32be f3db 0f3d
000003a0: 98e9 3fbe f25a 72be b691 25be 678f 24be
000003b0: 8669 19bc a360 34be 7d74 873d 3c2f 413d
000003c0: 9ef0 87be 7e82 ce3d 99de 443e 521e 023c
000003d0: ab9f 863b fcef 8e3e 7fcb 5abe baaf 963c
000003e0: 21be 47be 6abd c2bd 2b86 84bd f068 a7bd
000003f0: d036 863e 2824 28be 9e6b a0be f436 93bd

embedding.atom_embedding_list.7.weight f4 [2, 64]
-0.3074194 0.2536932 0.039090183 -0.055254277 0.13727503 0.27602908 0.29526567 -0.17191084
0.11842121 0.2370088 0.08806423 0.0062846025 -0.08856293 -0.064917065 0.15973055 -0.24341355
0.18887474 0.38921654 -0.09274771 0.3312673 0.012205116 -0.26024258 -0.08521754 0.2750194
0.14425659 0.082912646 0.09608975 0.20719208 0.29221314 -0.17398867 -0.044045668 -0.35030666
-0.295162 0.20487241 0.24090992 0.0625222 -0.20851433 -0.1798747 0.16169134 -0.017238146
-0.19291857 0.43460557 0.5228394 0.27646688 -0.08649164 -0.10205435 0.33414996 0.05283151
0.17647342 -0.19890408 -0.2548866 0.21577513 -0.39105082 -0.048640184 0.2685523 -0.046620287
-0.27980274 0.02491086 0.15058707 0.2580131 -0.08907876 0.13086817 -0.28647733 -0.0009144546
0.20600414 -0.3038113 -0.32793793 -0.08715127 -0.23605749 -0.46126273 -0.6607927 0.303058
-0.07074109 -0.41671377 -0.19254918 -0.022761337 0.12980476 -0.100773975 -0.24436633 0.20305452
-0.31957597 -0.45364952 -0.20433782 -0.6616087 0.38283205 0.56392145 -0.13956808 0.00586638
-0.17795166 0.23677914 -0.3707151 -0.22244968 -0.5042986 -0.07379852 -0.23860984 -0.0030595197
0.18257628 -0.19333409 -0.63609046 -0.52568394 0.23099603 0.33369258 -0.40763637 0.31859085
0.2755339 -0.9093148 -0.9004636 -0.79640317 -0.035474624 0.09479512 -0.17497472 0.29973623
-0.25735298 0.20095074 0.15641116 -0.4229594 0.48300913 0.309718 -0.27876967 0.028323725
0.15606657 -0.13081086 -0.44713283 -0.8127819 0.01600561 0.33061233 -0.070212 -0.18368049
00000000: 1366 9dbe 13e4 813e 071d 203d 4f52 62bd
00000010: d391 0c3e af53 8d3e 102d 973e 6509 30be
00000020: d286 f23d 6fb2 723e 055b b43d 11ef cd3b
00000030: 7b60 b5bd 3df3 84bd 6890 233e 6741 79be
00000040: 6168 413e 6447 c73e 83f2 bdbd de9b a93e
00000050: f8f7 473c 843e 85be 8986 aebd 58cf 8c3e
00000060: 00b8 133e 1bce a93d b4ca c43d 292a 543e
00000070: f69c 953e 162a 32be 3b69 34bd 655b b3be
00000080: 791f 97be 13ca 513e 17b1 763e a40b 803d
00000090: c884 55be 1331 38be 6a92 253e 0337 8dbc
000000a0: 728c 45be 9f84 de3e ced8 053f 118d 8d3e
000000b0: 8722 b1bd df01 d1bd b415 ab3e da65 583d
000000c0: 73b5 343e 83ad 4bbe 7f80 82be 28f4 5c3e
000000d0: d037 c8be ee3a 47bd b07f 893e eaf4 3ebd
000000e0: 4e42 8fbe dc11 cc3c 7f33 1a3e 4b1a 843e
000000f0: ed6e b6bd 4e02 063e 28ad 92be 02b8 6fba
00000100: c0f2 523e 288d 9bbe 7be7 a7be 5d7c b2bd
00000110: 0eb9 71be a12a ecbe b629 29bf 6b2a 9b3e
00000120: b4e0 90bd 825b d5be 9d2b 45be fc75 babc
00000130: 8aeb 043e 9662 cebd 2b3b 7abe 86ed 4f3e
00000140: 769f a3be c044 e8be ef3d 51be 305f 29bf
00000150: 9002 c43e 285d 103f efea 0ebe c33a c03b
00000160: f638 36be 3b76 723e 5fce bdbe d9c9 63be
00000170: b719 01bf ae23 97bd 2356 74be 3982 48bb
00000180: 47f5 3a3e 5ff9 45be d3d6 22bf 3993 06bf
00000190: 398a 6c3e c1d9 aa3e b7b5 d0be 571e a33e
000001a0: c812 8d3e dbc8 68bf c884 66bf 14e1 4bbf
000001b0: d74d 11bd f223 c23d 932c 33be 0777 993e
000001c0: c5c3 83be 08c6 4d3e 3f2a 203e 228e d8be
000001d0: f94c f73e 5c93 9e3e e6ba 8ebe 2807 e83c
000001e0: eacf 1f3e 48f3 05be 98ee e4be 7912 50bf
000001f0: 321e 833c 0546 a93e 4fcb 8fbd bd16 3cbe

embedding.atom_embedding_list.8.weight f4 [2, 64]
-0.20585078 0.09273226 -0.42592528 -0.03770903 -0.084577054 0.21092682 0.20781067 0.027680583
-0.63345724 -0.12490816 -0.22089 0.06687988 -0.10338584 0.27488396 0.1666719 0.10785711
0.3430851 -0.112364896 0.13549013 -0.18561412 0.022171881 -0.010371538 0.066201 0.23208188
0.10953104 -0.15456317 0.001580762 0.15957092 -0.090463005 0.5185429 -0.059192583 -0.01797741
-0.042436223 -0.114115186 -0.16522251 -0.0043846695 -0.20319279 0.2402734 0.120133854 -0.036381382
0.32413197 0.01945014 0.2353847 -0.1924612 0.19665107 0.3766935 -0.08863442 -0.08606768
0.23332578 0.045759365 -0.14825362 -0.33316803 0.34499136 -0.4040321 0.22811732 0.061187238
0.43677384 0.03329526 -0.28823847 0.11345258 0.32265988 0.44206852 0.32781732 -0.06951017
-0.0025613413 0.017681545 0.31015995 -0.07119181 -0.0237678 -0.01259947 -0.67265284 -0.137181
0.56669164 -0.014635846 0.51173466 -0.0029930917 0.11879794 -0.19983546 0.14742932 -0.051523335
-0.3370223 0.17360705 -0.014036723 0.22063243 0.27002665 -0.09240374 -0.10496483 -0.275963
-0.1441102 0.31527823 -0.22620426 0.21813306 0.6174287 -0.6558527 0.25575194 0.21529908
-0.2028135 -0.06039126 0.22338212 -0.37806278 0.08410684 0.19348942 -0.35830286 0.1652724
-0.528659 -0.11769048 -0.60811883 -0.13551216 -0.18141094 -0.21840411 0.08733281 0.087202914
-0.40339658 -0.13658175 0.12146819 0.29375023 -0.42488855 0.7393863 -0.12627164 -0.15900367
-0.1454483 -0.3406432 0.18504125 -0.44139063 -0.39918286 -0.19928354 -0.06714573 0.056494128
00000000: 8cca 52be 69ea bd3d e112 dabe c974 1abd
00000010: bc36 adbd 33fd 573e 52cc 543e 64c2 e23c
00000020: 412a 22bf d9cf ffbd fd30 62be 52f8 883d
00000030: f5bb d3bd 97bd 8c3e 0aac 2a3e 30e4 dc3d
00000040: daa8 af3e 911f e6bd edbd 0a3e a111 3ebe
00000050: cea1 b53c 62ed 29bc 6494 873d dfa6 6d3e
00000060: cf51 e03d cf45 1ebe 9231 cf3a 8f66 233e
00000070: ab44 b9bd 3abf 043f ec73 72bd 5d45 93bc
00000080: 9bd1 2dbd 39b5 e9bd 1730 29be 46ad 8fbb
00000090: c511 50be 3b0a 763e bd08 f63d a504 15bd
000000a0: a0f4 a53e e655 9f3c b008 713e 8c14 45be
000000b0: e65e 493e f8dd c03e f685 b5bd 4044 b0bd
000000c0: f4ec 6e3e 2c6e 3b3d cccf 17be 0095 aabe
000000d0: b5a2 b03e 4cdd cebe 9697 693e 789f 7a3d
000000e0: d2a0 df3e 9c60 083d fe93 93be d459 e83d
000000f0: ad33 a53e ce56 e23e acd7 a73e 595b 8ebd
00000100: 2ddc 27bb e3d8 903c 49cd 9e3e 03cd 91bd
00000110: b0b4 c2bc 026e 4ebc fa32 2cbf 2d79 0cbe
00000120: b412 113f 30cb 6fbc 0b01 033f bf27 44bb
00000130: 564c f33d aba1 4cbe b6f7 163e 220a 53bd
00000140: 308e acbe 0cc6 313e 49fa 65bc 78ed 613e
00000150: ef40 8a3e 2c3e bdbd cdf7 d6bd 064b 8dbe
00000160: a091 13be 266c a13e 17a2 67be 465e 5f3e
00000170: cf0f 1e3f f6e5 27bf ebf1 823e 5d77 5c3e
00000180: 58ae 4fbe d35c 77bd 48be 643e 7291 c1be
00000190: 3540 ac3d 1722 463e 7973 b7be 2b3d 293e
000001a0: 3256 07bf b507 f1bd adad 1bbf b3c3 0abe
000001b0: cac3 39be 54a5 5fbe 8bdb b23d 7197 b23d
000001c0: ff89 cebe 16dc 0bbe 50c4 f83d 6e66 963e
000001d0: fe8a d9be 6c48 3d3f 5a4d 01be dcd1 22be
000001e0: 66f0 14be c968 aebe 747b 3d3e f4fd e1be
000001f0: b261 ccbe fc10 4cbe b383 89bd 6366 673d
